{"class_name": "Model", "config": {"name": "model_1", "layers": [{"class_name": "InputLayer", "name": "input_1", "config": {"name": "input_1", "sparse": false, "dtype": "float32", "batch_input_shape": [null, 256, 256, 3]}, "inbound_nodes": []}, {"class_name": "Conv2D", "name": "front_conv_1x1_x1", "config": {"activity_regularizer": null, "kernel_constraint": null, "data_format": "channels_last", "kernel_size": [7, 7], "dilation_rate": [1, 1], "name": "front_conv_1x1_x1", "use_bias": true, "kernel_regularizer": null, "kernel_initializer": {"class_name": "VarianceScaling", "config": {"distribution": "uniform", "scale": 1.0, "mode": "fan_avg", "seed": null}}, "trainable": true, "bias_constraint": null, "strides": [2, 2], "bias_regularizer": null, "bias_initializer": {"class_name": "Zeros", "config": {}}, "padding": "same", "dtype": "float32", "activation": "relu", "filters": 64}, "inbound_nodes": [[["input_1", 0, 0, {}]]]}, {"class_name": "BatchNormalization", "name": "batch_normalization_1", "config": {"scale": true, "beta_initializer": {"class_name": "Zeros", "config": {}}, "gamma_initializer": {"class_name": "Ones", "config": {}}, "moving_variance_initializer": {"class_name": "Ones", "config": {}}, "dtype": "float32", "beta_regularizer": null, "name": "batch_normalization_1", "momentum": 0.99, "moving_mean_initializer": {"class_name": "Zeros", "config": {}}, "beta_constraint": null, "gamma_regularizer": null, "center": true, "gamma_constraint": null, "axis": -1, "epsilon": 0.001, "trainable": true}, "inbound_nodes": [[["front_conv_1x1_x1", 0, 0, {}]]]}, {"class_name": "Conv2D", "name": "front_residual_x1_conv_1x1_x1", "config": {"activity_regularizer": null, "kernel_constraint": null, "data_format": "channels_last", "kernel_size": [1, 1], "dilation_rate": [1, 1], "name": "front_residual_x1_conv_1x1_x1", "use_bias": true, "kernel_regularizer": null, "kernel_initializer": {"class_name": "VarianceScaling", "config": {"distribution": "uniform", "scale": 1.0, "mode": "fan_avg", "seed": null}}, "trainable": true, "bias_constraint": null, "strides": [1, 1], "bias_regularizer": null, "bias_initializer": {"class_name": "Zeros", "config": {}}, "padding": "same", "dtype": "float32", "activation": "relu", "filters": 32}, "inbound_nodes": [[["batch_normalization_1", 0, 0, {}]]]}, {"class_name": "BatchNormalization", "name": "batch_normalization_2", "config": {"scale": true, "beta_initializer": {"class_name": "Zeros", "config": {}}, "gamma_initializer": {"class_name": "Ones", "config": {}}, "moving_variance_initializer": {"class_name": "Ones", "config": {}}, "dtype": "float32", "beta_regularizer": null, "name": "batch_normalization_2", "momentum": 0.99, "moving_mean_initializer": {"class_name": "Zeros", "config": {}}, "beta_constraint": null, "gamma_regularizer": null, "center": true, "gamma_constraint": null, "axis": -1, "epsilon": 0.001, "trainable": true}, "inbound_nodes": [[["front_residual_x1_conv_1x1_x1", 0, 0, {}]]]}, {"class_name": "Conv2D", "name": "front_residual_x1_conv_3x3_x2", "config": {"activity_regularizer": null, "kernel_constraint": null, "data_format": "channels_last", "kernel_size": [3, 3], "dilation_rate": [1, 1], "name": "front_residual_x1_conv_3x3_x2", "use_bias": true, "kernel_regularizer": null, "kernel_initializer": {"class_name": "VarianceScaling", "config": {"distribution": "uniform", "scale": 1.0, "mode": "fan_avg", "seed": null}}, "trainable": true, "bias_constraint": null, "strides": [1, 1], "bias_regularizer": null, "bias_initializer": {"class_name": "Zeros", "config": {}}, "padding": "same", "dtype": "float32", "activation": "relu", "filters": 32}, "inbound_nodes": [[["batch_normalization_2", 0, 0, {}]]]}, {"class_name": "BatchNormalization", "name": "batch_normalization_3", "config": {"scale": true, "beta_initializer": {"class_name": "Zeros", "config": {}}, "gamma_initializer": {"class_name": "Ones", "config": {}}, "moving_variance_initializer": {"class_name": "Ones", "config": {}}, "dtype": "float32", "beta_regularizer": null, "name": "batch_normalization_3", "momentum": 0.99, "moving_mean_initializer": {"class_name": "Zeros", "config": {}}, "beta_constraint": null, "gamma_regularizer": null, "center": true, "gamma_constraint": null, "axis": -1, "epsilon": 0.001, "trainable": true}, "inbound_nodes": [[["front_residual_x1_conv_3x3_x2", 0, 0, {}]]]}, {"class_name": "Conv2D", "name": "front_residual_x1_conv_1x1_x3", "config": {"activity_regularizer": null, "kernel_constraint": null, "data_format": "channels_last", "kernel_size": [1, 1], "dilation_rate": [1, 1], "name": "front_residual_x1_conv_1x1_x3", "use_bias": true, "kernel_regularizer": null, "kernel_initializer": {"class_name": "VarianceScaling", "config": {"distribution": "uniform", "scale": 1.0, "mode": "fan_avg", "seed": null}}, "trainable": true, "bias_constraint": null, "strides": [1, 1], "bias_regularizer": null, "bias_initializer": {"class_name": "Zeros", "config": {}}, "padding": "same", "dtype": "float32", "activation": "relu", "filters": 64}, "inbound_nodes": [[["batch_normalization_3", 0, 0, {}]]]}, {"class_name": "BatchNormalization", "name": "batch_normalization_4", "config": {"scale": true, "beta_initializer": {"class_name": "Zeros", "config": {}}, "gamma_initializer": {"class_name": "Ones", "config": {}}, "moving_variance_initializer": {"class_name": "Ones", "config": {}}, "dtype": "float32", "beta_regularizer": null, "name": "batch_normalization_4", "momentum": 0.99, "moving_mean_initializer": {"class_name": "Zeros", "config": {}}, "beta_constraint": null, "gamma_regularizer": null, "center": true, "gamma_constraint": null, "axis": -1, "epsilon": 0.001, "trainable": true}, "inbound_nodes": [[["front_residual_x1_conv_1x1_x3", 0, 0, {}]]]}, {"class_name": "Add", "name": "front_residual_x1_residual", "config": {"name": "front_residual_x1_residual", "trainable": true, "dtype": "float32"}, "inbound_nodes": [[["batch_normalization_1", 0, 0, {}], ["batch_normalization_4", 0, 0, {}]]]}, {"class_name": "MaxPooling2D", "name": "max_pooling2d_1", "config": {"name": "max_pooling2d_1", "pool_size": [2, 2], "trainable": true, "strides": [2, 2], "padding": "valid", "dtype": "float32", "data_format": "channels_last"}, "inbound_nodes": [[["front_residual_x1_residual", 0, 0, {}]]]}, {"class_name": "Conv2D", "name": "front_residual_x2_conv_1x1_x1", "config": {"activity_regularizer": null, "kernel_constraint": null, "data_format": "channels_last", "kernel_size": [1, 1], "dilation_rate": [1, 1], "name": "front_residual_x2_conv_1x1_x1", "use_bias": true, "kernel_regularizer": null, "kernel_initializer": {"class_name": "VarianceScaling", "config": {"distribution": "uniform", "scale": 1.0, "mode": "fan_avg", "seed": null}}, "trainable": true, "bias_constraint": null, "strides": [1, 1], "bias_regularizer": null, "bias_initializer": {"class_name": "Zeros", "config": {}}, "padding": "same", "dtype": "float32", "activation": "relu", "filters": 32}, "inbound_nodes": [[["max_pooling2d_1", 0, 0, {}]]]}, {"class_name": "BatchNormalization", "name": "batch_normalization_5", "config": {"scale": true, "beta_initializer": {"class_name": "Zeros", "config": {}}, "gamma_initializer": {"class_name": "Ones", "config": {}}, "moving_variance_initializer": {"class_name": "Ones", "config": {}}, "dtype": "float32", "beta_regularizer": null, "name": "batch_normalization_5", "momentum": 0.99, "moving_mean_initializer": {"class_name": "Zeros", "config": {}}, "beta_constraint": null, "gamma_regularizer": null, "center": true, "gamma_constraint": null, "axis": -1, "epsilon": 0.001, "trainable": true}, "inbound_nodes": [[["front_residual_x2_conv_1x1_x1", 0, 0, {}]]]}, {"class_name": "Conv2D", "name": "front_residual_x2_conv_3x3_x2", "config": {"activity_regularizer": null, "kernel_constraint": null, "data_format": "channels_last", "kernel_size": [3, 3], "dilation_rate": [1, 1], "name": "front_residual_x2_conv_3x3_x2", "use_bias": true, "kernel_regularizer": null, "kernel_initializer": {"class_name": "VarianceScaling", "config": {"distribution": "uniform", "scale": 1.0, "mode": "fan_avg", "seed": null}}, "trainable": true, "bias_constraint": null, "strides": [1, 1], "bias_regularizer": null, "bias_initializer": {"class_name": "Zeros", "config": {}}, "padding": "same", "dtype": "float32", "activation": "relu", "filters": 32}, "inbound_nodes": [[["batch_normalization_5", 0, 0, {}]]]}, {"class_name": "BatchNormalization", "name": "batch_normalization_6", "config": {"scale": true, "beta_initializer": {"class_name": "Zeros", "config": {}}, "gamma_initializer": {"class_name": "Ones", "config": {}}, "moving_variance_initializer": {"class_name": "Ones", "config": {}}, "dtype": "float32", "beta_regularizer": null, "name": "batch_normalization_6", "momentum": 0.99, "moving_mean_initializer": {"class_name": "Zeros", "config": {}}, "beta_constraint": null, "gamma_regularizer": null, "center": true, "gamma_constraint": null, "axis": -1, "epsilon": 0.001, "trainable": true}, "inbound_nodes": [[["front_residual_x2_conv_3x3_x2", 0, 0, {}]]]}, {"class_name": "Conv2D", "name": "front_residual_x2_conv_1x1_x3", "config": {"activity_regularizer": null, "kernel_constraint": null, "data_format": "channels_last", "kernel_size": [1, 1], "dilation_rate": [1, 1], "name": "front_residual_x2_conv_1x1_x3", "use_bias": true, "kernel_regularizer": null, "kernel_initializer": {"class_name": "VarianceScaling", "config": {"distribution": "uniform", "scale": 1.0, "mode": "fan_avg", "seed": null}}, "trainable": true, "bias_constraint": null, "strides": [1, 1], "bias_regularizer": null, "bias_initializer": {"class_name": "Zeros", "config": {}}, "padding": "same", "dtype": "float32", "activation": "relu", "filters": 64}, "inbound_nodes": [[["batch_normalization_6", 0, 0, {}]]]}, {"class_name": "BatchNormalization", "name": "batch_normalization_7", "config": {"scale": true, "beta_initializer": {"class_name": "Zeros", "config": {}}, "gamma_initializer": {"class_name": "Ones", "config": {}}, "moving_variance_initializer": {"class_name": "Ones", "config": {}}, "dtype": "float32", "beta_regularizer": null, "name": "batch_normalization_7", "momentum": 0.99, "moving_mean_initializer": {"class_name": "Zeros", "config": {}}, "beta_constraint": null, "gamma_regularizer": null, "center": true, "gamma_constraint": null, "axis": -1, "epsilon": 0.001, "trainable": true}, "inbound_nodes": [[["front_residual_x2_conv_1x1_x3", 0, 0, {}]]]}, {"class_name": "Add", "name": "front_residual_x2_residual", "config": {"name": "front_residual_x2_residual", "trainable": true, "dtype": "float32"}, "inbound_nodes": [[["max_pooling2d_1", 0, 0, {}], ["batch_normalization_7", 0, 0, {}]]]}, {"class_name": "Conv2D", "name": "front_residual_x3_conv_1x1_x1", "config": {"activity_regularizer": null, "kernel_constraint": null, "data_format": "channels_last", "kernel_size": [1, 1], "dilation_rate": [1, 1], "name": "front_residual_x3_conv_1x1_x1", "use_bias": true, "kernel_regularizer": null, "kernel_initializer": {"class_name": "VarianceScaling", "config": {"distribution": "uniform", "scale": 1.0, "mode": "fan_avg", "seed": null}}, "trainable": true, "bias_constraint": null, "strides": [1, 1], "bias_regularizer": null, "bias_initializer": {"class_name": "Zeros", "config": {}}, "padding": "same", "dtype": "float32", "activation": "relu", "filters": 64}, "inbound_nodes": [[["front_residual_x2_residual", 0, 0, {}]]]}, {"class_name": "BatchNormalization", "name": "batch_normalization_8", "config": {"scale": true, "beta_initializer": {"class_name": "Zeros", "config": {}}, "gamma_initializer": {"class_name": "Ones", "config": {}}, "moving_variance_initializer": {"class_name": "Ones", "config": {}}, "dtype": "float32", "beta_regularizer": null, "name": "batch_normalization_8", "momentum": 0.99, "moving_mean_initializer": {"class_name": "Zeros", "config": {}}, "beta_constraint": null, "gamma_regularizer": null, "center": true, "gamma_constraint": null, "axis": -1, "epsilon": 0.001, "trainable": true}, "inbound_nodes": [[["front_residual_x3_conv_1x1_x1", 0, 0, {}]]]}, {"class_name": "Conv2D", "name": "front_residual_x3_conv_3x3_x2", "config": {"activity_regularizer": null, "kernel_constraint": null, "data_format": "channels_last", "kernel_size": [3, 3], "dilation_rate": [1, 1], "name": "front_residual_x3_conv_3x3_x2", "use_bias": true, "kernel_regularizer": null, "kernel_initializer": {"class_name": "VarianceScaling", "config": {"distribution": "uniform", "scale": 1.0, "mode": "fan_avg", "seed": null}}, "trainable": true, "bias_constraint": null, "strides": [1, 1], "bias_regularizer": null, "bias_initializer": {"class_name": "Zeros", "config": {}}, "padding": "same", "dtype": "float32", "activation": "relu", "filters": 64}, "inbound_nodes": [[["batch_normalization_8", 0, 0, {}]]]}, {"class_name": "BatchNormalization", "name": "batch_normalization_9", "config": {"scale": true, "beta_initializer": {"class_name": "Zeros", "config": {}}, "gamma_initializer": {"class_name": "Ones", "config": {}}, "moving_variance_initializer": {"class_name": "Ones", "config": {}}, "dtype": "float32", "beta_regularizer": null, "name": "batch_normalization_9", "momentum": 0.99, "moving_mean_initializer": {"class_name": "Zeros", "config": {}}, "beta_constraint": null, "gamma_regularizer": null, "center": true, "gamma_constraint": null, "axis": -1, "epsilon": 0.001, "trainable": true}, "inbound_nodes": [[["front_residual_x3_conv_3x3_x2", 0, 0, {}]]]}, {"class_name": "Conv2D", "name": "front_residual_x3_conv_1x1_x3", "config": {"activity_regularizer": null, "kernel_constraint": null, "data_format": "channels_last", "kernel_size": [1, 1], "dilation_rate": [1, 1], "name": "front_residual_x3_conv_1x1_x3", "use_bias": true, "kernel_regularizer": null, "kernel_initializer": {"class_name": "VarianceScaling", "config": {"distribution": "uniform", "scale": 1.0, "mode": "fan_avg", "seed": null}}, "trainable": true, "bias_constraint": null, "strides": [1, 1], "bias_regularizer": null, "bias_initializer": {"class_name": "Zeros", "config": {}}, "padding": "same", "dtype": "float32", "activation": "relu", "filters": 128}, "inbound_nodes": [[["batch_normalization_9", 0, 0, {}]]]}, {"class_name": "Conv2D", "name": "front_residual_x3skip", "config": {"activity_regularizer": null, "kernel_constraint": null, "data_format": "channels_last", "kernel_size": [1, 1], "dilation_rate": [1, 1], "name": "front_residual_x3skip", "use_bias": true, "kernel_regularizer": null, "kernel_initializer": {"class_name": "VarianceScaling", "config": {"distribution": "uniform", "scale": 1.0, "mode": "fan_avg", "seed": null}}, "trainable": true, "bias_constraint": null, "strides": [1, 1], "bias_regularizer": null, "bias_initializer": {"class_name": "Zeros", "config": {}}, "padding": "same", "dtype": "float32", "activation": "relu", "filters": 128}, "inbound_nodes": [[["front_residual_x2_residual", 0, 0, {}]]]}, {"class_name": "BatchNormalization", "name": "batch_normalization_10", "config": {"scale": true, "beta_initializer": {"class_name": "Zeros", "config": {}}, "gamma_initializer": {"class_name": "Ones", "config": {}}, "moving_variance_initializer": {"class_name": "Ones", "config": {}}, "dtype": "float32", "beta_regularizer": null, "name": "batch_normalization_10", "momentum": 0.99, "moving_mean_initializer": {"class_name": "Zeros", "config": {}}, "beta_constraint": null, "gamma_regularizer": null, "center": true, "gamma_constraint": null, "axis": -1, "epsilon": 0.001, "trainable": true}, "inbound_nodes": [[["front_residual_x3_conv_1x1_x3", 0, 0, {}]]]}, {"class_name": "Add", "name": "front_residual_x3_residual", "config": {"name": "front_residual_x3_residual", "trainable": true, "dtype": "float32"}, "inbound_nodes": [[["front_residual_x3skip", 0, 0, {}], ["batch_normalization_10", 0, 0, {}]]]}, {"class_name": "Conv2D", "name": "hg0_l1_conv_1x1_x1", "config": {"activity_regularizer": null, "kernel_constraint": null, "data_format": "channels_last", "kernel_size": [1, 1], "dilation_rate": [1, 1], "name": "hg0_l1_conv_1x1_x1", "use_bias": true, "kernel_regularizer": null, "kernel_initializer": {"class_name": "VarianceScaling", "config": {"distribution": "uniform", "scale": 1.0, "mode": "fan_avg", "seed": null}}, "trainable": true, "bias_constraint": null, "strides": [1, 1], "bias_regularizer": null, "bias_initializer": {"class_name": "Zeros", "config": {}}, "padding": "same", "dtype": "float32", "activation": "relu", "filters": 64}, "inbound_nodes": [[["front_residual_x3_residual", 0, 0, {}]]]}, {"class_name": "BatchNormalization", "name": "batch_normalization_11", "config": {"scale": true, "beta_initializer": {"class_name": "Zeros", "config": {}}, "gamma_initializer": {"class_name": "Ones", "config": {}}, "moving_variance_initializer": {"class_name": "Ones", "config": {}}, "dtype": "float32", "beta_regularizer": null, "name": "batch_normalization_11", "momentum": 0.99, "moving_mean_initializer": {"class_name": "Zeros", "config": {}}, "beta_constraint": null, "gamma_regularizer": null, "center": true, "gamma_constraint": null, "axis": -1, "epsilon": 0.001, "trainable": true}, "inbound_nodes": [[["hg0_l1_conv_1x1_x1", 0, 0, {}]]]}, {"class_name": "Conv2D", "name": "hg0_l1_conv_3x3_x2", "config": {"activity_regularizer": null, "kernel_constraint": null, "data_format": "channels_last", "kernel_size": [3, 3], "dilation_rate": [1, 1], "name": "hg0_l1_conv_3x3_x2", "use_bias": true, "kernel_regularizer": null, "kernel_initializer": {"class_name": "VarianceScaling", "config": {"distribution": "uniform", "scale": 1.0, "mode": "fan_avg", "seed": null}}, "trainable": true, "bias_constraint": null, "strides": [1, 1], "bias_regularizer": null, "bias_initializer": {"class_name": "Zeros", "config": {}}, "padding": "same", "dtype": "float32", "activation": "relu", "filters": 64}, "inbound_nodes": [[["batch_normalization_11", 0, 0, {}]]]}, {"class_name": "BatchNormalization", "name": "batch_normalization_12", "config": {"scale": true, "beta_initializer": {"class_name": "Zeros", "config": {}}, "gamma_initializer": {"class_name": "Ones", "config": {}}, "moving_variance_initializer": {"class_name": "Ones", "config": {}}, "dtype": "float32", "beta_regularizer": null, "name": "batch_normalization_12", "momentum": 0.99, "moving_mean_initializer": {"class_name": "Zeros", "config": {}}, "beta_constraint": null, "gamma_regularizer": null, "center": true, "gamma_constraint": null, "axis": -1, "epsilon": 0.001, "trainable": true}, "inbound_nodes": [[["hg0_l1_conv_3x3_x2", 0, 0, {}]]]}, {"class_name": "Conv2D", "name": "hg0_l1_conv_1x1_x3", "config": {"activity_regularizer": null, "kernel_constraint": null, "data_format": "channels_last", "kernel_size": [1, 1], "dilation_rate": [1, 1], "name": "hg0_l1_conv_1x1_x3", "use_bias": true, "kernel_regularizer": null, "kernel_initializer": {"class_name": "VarianceScaling", "config": {"distribution": "uniform", "scale": 1.0, "mode": "fan_avg", "seed": null}}, "trainable": true, "bias_constraint": null, "strides": [1, 1], "bias_regularizer": null, "bias_initializer": {"class_name": "Zeros", "config": {}}, "padding": "same", "dtype": "float32", "activation": "relu", "filters": 128}, "inbound_nodes": [[["batch_normalization_12", 0, 0, {}]]]}, {"class_name": "BatchNormalization", "name": "batch_normalization_13", "config": {"scale": true, "beta_initializer": {"class_name": "Zeros", "config": {}}, "gamma_initializer": {"class_name": "Ones", "config": {}}, "moving_variance_initializer": {"class_name": "Ones", "config": {}}, "dtype": "float32", "beta_regularizer": null, "name": "batch_normalization_13", "momentum": 0.99, "moving_mean_initializer": {"class_name": "Zeros", "config": {}}, "beta_constraint": null, "gamma_regularizer": null, "center": true, "gamma_constraint": null, "axis": -1, "epsilon": 0.001, "trainable": true}, "inbound_nodes": [[["hg0_l1_conv_1x1_x3", 0, 0, {}]]]}, {"class_name": "Add", "name": "hg0_l1_residual", "config": {"name": "hg0_l1_residual", "trainable": true, "dtype": "float32"}, "inbound_nodes": [[["front_residual_x3_residual", 0, 0, {}], ["batch_normalization_13", 0, 0, {}]]]}, {"class_name": "MaxPooling2D", "name": "max_pooling2d_2", "config": {"name": "max_pooling2d_2", "pool_size": [2, 2], "trainable": true, "strides": [2, 2], "padding": "valid", "dtype": "float32", "data_format": "channels_last"}, "inbound_nodes": [[["hg0_l1_residual", 0, 0, {}]]]}, {"class_name": "Conv2D", "name": "hg0_l2_conv_1x1_x1", "config": {"activity_regularizer": null, "kernel_constraint": null, "data_format": "channels_last", "kernel_size": [1, 1], "dilation_rate": [1, 1], "name": "hg0_l2_conv_1x1_x1", "use_bias": true, "kernel_regularizer": null, "kernel_initializer": {"class_name": "VarianceScaling", "config": {"distribution": "uniform", "scale": 1.0, "mode": "fan_avg", "seed": null}}, "trainable": true, "bias_constraint": null, "strides": [1, 1], "bias_regularizer": null, "bias_initializer": {"class_name": "Zeros", "config": {}}, "padding": "same", "dtype": "float32", "activation": "relu", "filters": 64}, "inbound_nodes": [[["max_pooling2d_2", 0, 0, {}]]]}, {"class_name": "BatchNormalization", "name": "batch_normalization_14", "config": {"scale": true, "beta_initializer": {"class_name": "Zeros", "config": {}}, "gamma_initializer": {"class_name": "Ones", "config": {}}, "moving_variance_initializer": {"class_name": "Ones", "config": {}}, "dtype": "float32", "beta_regularizer": null, "name": "batch_normalization_14", "momentum": 0.99, "moving_mean_initializer": {"class_name": "Zeros", "config": {}}, "beta_constraint": null, "gamma_regularizer": null, "center": true, "gamma_constraint": null, "axis": -1, "epsilon": 0.001, "trainable": true}, "inbound_nodes": [[["hg0_l2_conv_1x1_x1", 0, 0, {}]]]}, {"class_name": "Conv2D", "name": "hg0_l2_conv_3x3_x2", "config": {"activity_regularizer": null, "kernel_constraint": null, "data_format": "channels_last", "kernel_size": [3, 3], "dilation_rate": [1, 1], "name": "hg0_l2_conv_3x3_x2", "use_bias": true, "kernel_regularizer": null, "kernel_initializer": {"class_name": "VarianceScaling", "config": {"distribution": "uniform", "scale": 1.0, "mode": "fan_avg", "seed": null}}, "trainable": true, "bias_constraint": null, "strides": [1, 1], "bias_regularizer": null, "bias_initializer": {"class_name": "Zeros", "config": {}}, "padding": "same", "dtype": "float32", "activation": "relu", "filters": 64}, "inbound_nodes": [[["batch_normalization_14", 0, 0, {}]]]}, {"class_name": "BatchNormalization", "name": "batch_normalization_15", "config": {"scale": true, "beta_initializer": {"class_name": "Zeros", "config": {}}, "gamma_initializer": {"class_name": "Ones", "config": {}}, "moving_variance_initializer": {"class_name": "Ones", "config": {}}, "dtype": "float32", "beta_regularizer": null, "name": "batch_normalization_15", "momentum": 0.99, "moving_mean_initializer": {"class_name": "Zeros", "config": {}}, "beta_constraint": null, "gamma_regularizer": null, "center": true, "gamma_constraint": null, "axis": -1, "epsilon": 0.001, "trainable": true}, "inbound_nodes": [[["hg0_l2_conv_3x3_x2", 0, 0, {}]]]}, {"class_name": "Conv2D", "name": "hg0_l2_conv_1x1_x3", "config": {"activity_regularizer": null, "kernel_constraint": null, "data_format": "channels_last", "kernel_size": [1, 1], "dilation_rate": [1, 1], "name": "hg0_l2_conv_1x1_x3", "use_bias": true, "kernel_regularizer": null, "kernel_initializer": {"class_name": "VarianceScaling", "config": {"distribution": "uniform", "scale": 1.0, "mode": "fan_avg", "seed": null}}, "trainable": true, "bias_constraint": null, "strides": [1, 1], "bias_regularizer": null, "bias_initializer": {"class_name": "Zeros", "config": {}}, "padding": "same", "dtype": "float32", "activation": "relu", "filters": 128}, "inbound_nodes": [[["batch_normalization_15", 0, 0, {}]]]}, {"class_name": "BatchNormalization", "name": "batch_normalization_16", "config": {"scale": true, "beta_initializer": {"class_name": "Zeros", "config": {}}, "gamma_initializer": {"class_name": "Ones", "config": {}}, "moving_variance_initializer": {"class_name": "Ones", "config": {}}, "dtype": "float32", "beta_regularizer": null, "name": "batch_normalization_16", "momentum": 0.99, "moving_mean_initializer": {"class_name": "Zeros", "config": {}}, "beta_constraint": null, "gamma_regularizer": null, "center": true, "gamma_constraint": null, "axis": -1, "epsilon": 0.001, "trainable": true}, "inbound_nodes": [[["hg0_l2_conv_1x1_x3", 0, 0, {}]]]}, {"class_name": "Add", "name": "hg0_l2_residual", "config": {"name": "hg0_l2_residual", "trainable": true, "dtype": "float32"}, "inbound_nodes": [[["max_pooling2d_2", 0, 0, {}], ["batch_normalization_16", 0, 0, {}]]]}, {"class_name": "MaxPooling2D", "name": "max_pooling2d_3", "config": {"name": "max_pooling2d_3", "pool_size": [2, 2], "trainable": true, "strides": [2, 2], "padding": "valid", "dtype": "float32", "data_format": "channels_last"}, "inbound_nodes": [[["hg0_l2_residual", 0, 0, {}]]]}, {"class_name": "Conv2D", "name": "hg0_l4_conv_1x1_x1", "config": {"activity_regularizer": null, "kernel_constraint": null, "data_format": "channels_last", "kernel_size": [1, 1], "dilation_rate": [1, 1], "name": "hg0_l4_conv_1x1_x1", "use_bias": true, "kernel_regularizer": null, "kernel_initializer": {"class_name": "VarianceScaling", "config": {"distribution": "uniform", "scale": 1.0, "mode": "fan_avg", "seed": null}}, "trainable": true, "bias_constraint": null, "strides": [1, 1], "bias_regularizer": null, "bias_initializer": {"class_name": "Zeros", "config": {}}, "padding": "same", "dtype": "float32", "activation": "relu", "filters": 64}, "inbound_nodes": [[["max_pooling2d_3", 0, 0, {}]]]}, {"class_name": "BatchNormalization", "name": "batch_normalization_17", "config": {"scale": true, "beta_initializer": {"class_name": "Zeros", "config": {}}, "gamma_initializer": {"class_name": "Ones", "config": {}}, "moving_variance_initializer": {"class_name": "Ones", "config": {}}, "dtype": "float32", "beta_regularizer": null, "name": "batch_normalization_17", "momentum": 0.99, "moving_mean_initializer": {"class_name": "Zeros", "config": {}}, "beta_constraint": null, "gamma_regularizer": null, "center": true, "gamma_constraint": null, "axis": -1, "epsilon": 0.001, "trainable": true}, "inbound_nodes": [[["hg0_l4_conv_1x1_x1", 0, 0, {}]]]}, {"class_name": "Conv2D", "name": "hg0_l4_conv_3x3_x2", "config": {"activity_regularizer": null, "kernel_constraint": null, "data_format": "channels_last", "kernel_size": [3, 3], "dilation_rate": [1, 1], "name": "hg0_l4_conv_3x3_x2", "use_bias": true, "kernel_regularizer": null, "kernel_initializer": {"class_name": "VarianceScaling", "config": {"distribution": "uniform", "scale": 1.0, "mode": "fan_avg", "seed": null}}, "trainable": true, "bias_constraint": null, "strides": [1, 1], "bias_regularizer": null, "bias_initializer": {"class_name": "Zeros", "config": {}}, "padding": "same", "dtype": "float32", "activation": "relu", "filters": 64}, "inbound_nodes": [[["batch_normalization_17", 0, 0, {}]]]}, {"class_name": "BatchNormalization", "name": "batch_normalization_18", "config": {"scale": true, "beta_initializer": {"class_name": "Zeros", "config": {}}, "gamma_initializer": {"class_name": "Ones", "config": {}}, "moving_variance_initializer": {"class_name": "Ones", "config": {}}, "dtype": "float32", "beta_regularizer": null, "name": "batch_normalization_18", "momentum": 0.99, "moving_mean_initializer": {"class_name": "Zeros", "config": {}}, "beta_constraint": null, "gamma_regularizer": null, "center": true, "gamma_constraint": null, "axis": -1, "epsilon": 0.001, "trainable": true}, "inbound_nodes": [[["hg0_l4_conv_3x3_x2", 0, 0, {}]]]}, {"class_name": "Conv2D", "name": "hg0_l4_conv_1x1_x3", "config": {"activity_regularizer": null, "kernel_constraint": null, "data_format": "channels_last", "kernel_size": [1, 1], "dilation_rate": [1, 1], "name": "hg0_l4_conv_1x1_x3", "use_bias": true, "kernel_regularizer": null, "kernel_initializer": {"class_name": "VarianceScaling", "config": {"distribution": "uniform", "scale": 1.0, "mode": "fan_avg", "seed": null}}, "trainable": true, "bias_constraint": null, "strides": [1, 1], "bias_regularizer": null, "bias_initializer": {"class_name": "Zeros", "config": {}}, "padding": "same", "dtype": "float32", "activation": "relu", "filters": 128}, "inbound_nodes": [[["batch_normalization_18", 0, 0, {}]]]}, {"class_name": "BatchNormalization", "name": "batch_normalization_19", "config": {"scale": true, "beta_initializer": {"class_name": "Zeros", "config": {}}, "gamma_initializer": {"class_name": "Ones", "config": {}}, "moving_variance_initializer": {"class_name": "Ones", "config": {}}, "dtype": "float32", "beta_regularizer": null, "name": "batch_normalization_19", "momentum": 0.99, "moving_mean_initializer": {"class_name": "Zeros", "config": {}}, "beta_constraint": null, "gamma_regularizer": null, "center": true, "gamma_constraint": null, "axis": -1, "epsilon": 0.001, "trainable": true}, "inbound_nodes": [[["hg0_l4_conv_1x1_x3", 0, 0, {}]]]}, {"class_name": "Add", "name": "hg0_l4_residual", "config": {"name": "hg0_l4_residual", "trainable": true, "dtype": "float32"}, "inbound_nodes": [[["max_pooling2d_3", 0, 0, {}], ["batch_normalization_19", 0, 0, {}]]]}, {"class_name": "MaxPooling2D", "name": "max_pooling2d_4", "config": {"name": "max_pooling2d_4", "pool_size": [2, 2], "trainable": true, "strides": [2, 2], "padding": "valid", "dtype": "float32", "data_format": "channels_last"}, "inbound_nodes": [[["hg0_l4_residual", 0, 0, {}]]]}, {"class_name": "Conv2D", "name": "hg0_l8_conv_1x1_x1", "config": {"activity_regularizer": null, "kernel_constraint": null, "data_format": "channels_last", "kernel_size": [1, 1], "dilation_rate": [1, 1], "name": "hg0_l8_conv_1x1_x1", "use_bias": true, "kernel_regularizer": null, "kernel_initializer": {"class_name": "VarianceScaling", "config": {"distribution": "uniform", "scale": 1.0, "mode": "fan_avg", "seed": null}}, "trainable": true, "bias_constraint": null, "strides": [1, 1], "bias_regularizer": null, "bias_initializer": {"class_name": "Zeros", "config": {}}, "padding": "same", "dtype": "float32", "activation": "relu", "filters": 64}, "inbound_nodes": [[["max_pooling2d_4", 0, 0, {}]]]}, {"class_name": "BatchNormalization", "name": "batch_normalization_20", "config": {"scale": true, "beta_initializer": {"class_name": "Zeros", "config": {}}, "gamma_initializer": {"class_name": "Ones", "config": {}}, "moving_variance_initializer": {"class_name": "Ones", "config": {}}, "dtype": "float32", "beta_regularizer": null, "name": "batch_normalization_20", "momentum": 0.99, "moving_mean_initializer": {"class_name": "Zeros", "config": {}}, "beta_constraint": null, "gamma_regularizer": null, "center": true, "gamma_constraint": null, "axis": -1, "epsilon": 0.001, "trainable": true}, "inbound_nodes": [[["hg0_l8_conv_1x1_x1", 0, 0, {}]]]}, {"class_name": "Conv2D", "name": "hg0_l8_conv_3x3_x2", "config": {"activity_regularizer": null, "kernel_constraint": null, "data_format": "channels_last", "kernel_size": [3, 3], "dilation_rate": [1, 1], "name": "hg0_l8_conv_3x3_x2", "use_bias": true, "kernel_regularizer": null, "kernel_initializer": {"class_name": "VarianceScaling", "config": {"distribution": "uniform", "scale": 1.0, "mode": "fan_avg", "seed": null}}, "trainable": true, "bias_constraint": null, "strides": [1, 1], "bias_regularizer": null, "bias_initializer": {"class_name": "Zeros", "config": {}}, "padding": "same", "dtype": "float32", "activation": "relu", "filters": 64}, "inbound_nodes": [[["batch_normalization_20", 0, 0, {}]]]}, {"class_name": "BatchNormalization", "name": "batch_normalization_21", "config": {"scale": true, "beta_initializer": {"class_name": "Zeros", "config": {}}, "gamma_initializer": {"class_name": "Ones", "config": {}}, "moving_variance_initializer": {"class_name": "Ones", "config": {}}, "dtype": "float32", "beta_regularizer": null, "name": "batch_normalization_21", "momentum": 0.99, "moving_mean_initializer": {"class_name": "Zeros", "config": {}}, "beta_constraint": null, "gamma_regularizer": null, "center": true, "gamma_constraint": null, "axis": -1, "epsilon": 0.001, "trainable": true}, "inbound_nodes": [[["hg0_l8_conv_3x3_x2", 0, 0, {}]]]}, {"class_name": "Conv2D", "name": "hg0_l8_conv_1x1_x3", "config": {"activity_regularizer": null, "kernel_constraint": null, "data_format": "channels_last", "kernel_size": [1, 1], "dilation_rate": [1, 1], "name": "hg0_l8_conv_1x1_x3", "use_bias": true, "kernel_regularizer": null, "kernel_initializer": {"class_name": "VarianceScaling", "config": {"distribution": "uniform", "scale": 1.0, "mode": "fan_avg", "seed": null}}, "trainable": true, "bias_constraint": null, "strides": [1, 1], "bias_regularizer": null, "bias_initializer": {"class_name": "Zeros", "config": {}}, "padding": "same", "dtype": "float32", "activation": "relu", "filters": 128}, "inbound_nodes": [[["batch_normalization_21", 0, 0, {}]]]}, {"class_name": "BatchNormalization", "name": "batch_normalization_22", "config": {"scale": true, "beta_initializer": {"class_name": "Zeros", "config": {}}, "gamma_initializer": {"class_name": "Ones", "config": {}}, "moving_variance_initializer": {"class_name": "Ones", "config": {}}, "dtype": "float32", "beta_regularizer": null, "name": "batch_normalization_22", "momentum": 0.99, "moving_mean_initializer": {"class_name": "Zeros", "config": {}}, "beta_constraint": null, "gamma_regularizer": null, "center": true, "gamma_constraint": null, "axis": -1, "epsilon": 0.001, "trainable": true}, "inbound_nodes": [[["hg0_l8_conv_1x1_x3", 0, 0, {}]]]}, {"class_name": "Add", "name": "hg0_l8_residual", "config": {"name": "hg0_l8_residual", "trainable": true, "dtype": "float32"}, "inbound_nodes": [[["max_pooling2d_4", 0, 0, {}], ["batch_normalization_22", 0, 0, {}]]]}, {"class_name": "Conv2D", "name": "0_lf8_x1_conv_1x1_x1", "config": {"activity_regularizer": null, "kernel_constraint": null, "data_format": "channels_last", "kernel_size": [1, 1], "dilation_rate": [1, 1], "name": "0_lf8_x1_conv_1x1_x1", "use_bias": true, "kernel_regularizer": null, "kernel_initializer": {"class_name": "VarianceScaling", "config": {"distribution": "uniform", "scale": 1.0, "mode": "fan_avg", "seed": null}}, "trainable": true, "bias_constraint": null, "strides": [1, 1], "bias_regularizer": null, "bias_initializer": {"class_name": "Zeros", "config": {}}, "padding": "same", "dtype": "float32", "activation": "relu", "filters": 64}, "inbound_nodes": [[["hg0_l8_residual", 0, 0, {}]]]}, {"class_name": "BatchNormalization", "name": "batch_normalization_26", "config": {"scale": true, "beta_initializer": {"class_name": "Zeros", "config": {}}, "gamma_initializer": {"class_name": "Ones", "config": {}}, "moving_variance_initializer": {"class_name": "Ones", "config": {}}, "dtype": "float32", "beta_regularizer": null, "name": "batch_normalization_26", "momentum": 0.99, "moving_mean_initializer": {"class_name": "Zeros", "config": {}}, "beta_constraint": null, "gamma_regularizer": null, "center": true, "gamma_constraint": null, "axis": -1, "epsilon": 0.001, "trainable": true}, "inbound_nodes": [[["0_lf8_x1_conv_1x1_x1", 0, 0, {}]]]}, {"class_name": "Conv2D", "name": "0_lf8_x1_conv_3x3_x2", "config": {"activity_regularizer": null, "kernel_constraint": null, "data_format": "channels_last", "kernel_size": [3, 3], "dilation_rate": [1, 1], "name": "0_lf8_x1_conv_3x3_x2", "use_bias": true, "kernel_regularizer": null, "kernel_initializer": {"class_name": "VarianceScaling", "config": {"distribution": "uniform", "scale": 1.0, "mode": "fan_avg", "seed": null}}, "trainable": true, "bias_constraint": null, "strides": [1, 1], "bias_regularizer": null, "bias_initializer": {"class_name": "Zeros", "config": {}}, "padding": "same", "dtype": "float32", "activation": "relu", "filters": 64}, "inbound_nodes": [[["batch_normalization_26", 0, 0, {}]]]}, {"class_name": "BatchNormalization", "name": "batch_normalization_27", "config": {"scale": true, "beta_initializer": {"class_name": "Zeros", "config": {}}, "gamma_initializer": {"class_name": "Ones", "config": {}}, "moving_variance_initializer": {"class_name": "Ones", "config": {}}, "dtype": "float32", "beta_regularizer": null, "name": "batch_normalization_27", "momentum": 0.99, "moving_mean_initializer": {"class_name": "Zeros", "config": {}}, "beta_constraint": null, "gamma_regularizer": null, "center": true, "gamma_constraint": null, "axis": -1, "epsilon": 0.001, "trainable": true}, "inbound_nodes": [[["0_lf8_x1_conv_3x3_x2", 0, 0, {}]]]}, {"class_name": "Conv2D", "name": "0_lf8_x1_conv_1x1_x3", "config": {"activity_regularizer": null, "kernel_constraint": null, "data_format": "channels_last", "kernel_size": [1, 1], "dilation_rate": [1, 1], "name": "0_lf8_x1_conv_1x1_x3", "use_bias": true, "kernel_regularizer": null, "kernel_initializer": {"class_name": "VarianceScaling", "config": {"distribution": "uniform", "scale": 1.0, "mode": "fan_avg", "seed": null}}, "trainable": true, "bias_constraint": null, "strides": [1, 1], "bias_regularizer": null, "bias_initializer": {"class_name": "Zeros", "config": {}}, "padding": "same", "dtype": "float32", "activation": "relu", "filters": 128}, "inbound_nodes": [[["batch_normalization_27", 0, 0, {}]]]}, {"class_name": "BatchNormalization", "name": "batch_normalization_28", "config": {"scale": true, "beta_initializer": {"class_name": "Zeros", "config": {}}, "gamma_initializer": {"class_name": "Ones", "config": {}}, "moving_variance_initializer": {"class_name": "Ones", "config": {}}, "dtype": "float32", "beta_regularizer": null, "name": "batch_normalization_28", "momentum": 0.99, "moving_mean_initializer": {"class_name": "Zeros", "config": {}}, "beta_constraint": null, "gamma_regularizer": null, "center": true, "gamma_constraint": null, "axis": -1, "epsilon": 0.001, "trainable": true}, "inbound_nodes": [[["0_lf8_x1_conv_1x1_x3", 0, 0, {}]]]}, {"class_name": "Add", "name": "0_lf8_x1_residual", "config": {"name": "0_lf8_x1_residual", "trainable": true, "dtype": "float32"}, "inbound_nodes": [[["hg0_l8_residual", 0, 0, {}], ["batch_normalization_28", 0, 0, {}]]]}, {"class_name": "Conv2D", "name": "0_lf8_x2_conv_1x1_x1", "config": {"activity_regularizer": null, "kernel_constraint": null, "data_format": "channels_last", "kernel_size": [1, 1], "dilation_rate": [1, 1], "name": "0_lf8_x2_conv_1x1_x1", "use_bias": true, "kernel_regularizer": null, "kernel_initializer": {"class_name": "VarianceScaling", "config": {"distribution": "uniform", "scale": 1.0, "mode": "fan_avg", "seed": null}}, "trainable": true, "bias_constraint": null, "strides": [1, 1], "bias_regularizer": null, "bias_initializer": {"class_name": "Zeros", "config": {}}, "padding": "same", "dtype": "float32", "activation": "relu", "filters": 64}, "inbound_nodes": [[["0_lf8_x1_residual", 0, 0, {}]]]}, {"class_name": "BatchNormalization", "name": "batch_normalization_29", "config": {"scale": true, "beta_initializer": {"class_name": "Zeros", "config": {}}, "gamma_initializer": {"class_name": "Ones", "config": {}}, "moving_variance_initializer": {"class_name": "Ones", "config": {}}, "dtype": "float32", "beta_regularizer": null, "name": "batch_normalization_29", "momentum": 0.99, "moving_mean_initializer": {"class_name": "Zeros", "config": {}}, "beta_constraint": null, "gamma_regularizer": null, "center": true, "gamma_constraint": null, "axis": -1, "epsilon": 0.001, "trainable": true}, "inbound_nodes": [[["0_lf8_x2_conv_1x1_x1", 0, 0, {}]]]}, {"class_name": "Conv2D", "name": "0_lf8_x2_conv_3x3_x2", "config": {"activity_regularizer": null, "kernel_constraint": null, "data_format": "channels_last", "kernel_size": [3, 3], "dilation_rate": [1, 1], "name": "0_lf8_x2_conv_3x3_x2", "use_bias": true, "kernel_regularizer": null, "kernel_initializer": {"class_name": "VarianceScaling", "config": {"distribution": "uniform", "scale": 1.0, "mode": "fan_avg", "seed": null}}, "trainable": true, "bias_constraint": null, "strides": [1, 1], "bias_regularizer": null, "bias_initializer": {"class_name": "Zeros", "config": {}}, "padding": "same", "dtype": "float32", "activation": "relu", "filters": 64}, "inbound_nodes": [[["batch_normalization_29", 0, 0, {}]]]}, {"class_name": "BatchNormalization", "name": "batch_normalization_30", "config": {"scale": true, "beta_initializer": {"class_name": "Zeros", "config": {}}, "gamma_initializer": {"class_name": "Ones", "config": {}}, "moving_variance_initializer": {"class_name": "Ones", "config": {}}, "dtype": "float32", "beta_regularizer": null, "name": "batch_normalization_30", "momentum": 0.99, "moving_mean_initializer": {"class_name": "Zeros", "config": {}}, "beta_constraint": null, "gamma_regularizer": null, "center": true, "gamma_constraint": null, "axis": -1, "epsilon": 0.001, "trainable": true}, "inbound_nodes": [[["0_lf8_x2_conv_3x3_x2", 0, 0, {}]]]}, {"class_name": "Conv2D", "name": "0_lf8_x2_conv_1x1_x3", "config": {"activity_regularizer": null, "kernel_constraint": null, "data_format": "channels_last", "kernel_size": [1, 1], "dilation_rate": [1, 1], "name": "0_lf8_x2_conv_1x1_x3", "use_bias": true, "kernel_regularizer": null, "kernel_initializer": {"class_name": "VarianceScaling", "config": {"distribution": "uniform", "scale": 1.0, "mode": "fan_avg", "seed": null}}, "trainable": true, "bias_constraint": null, "strides": [1, 1], "bias_regularizer": null, "bias_initializer": {"class_name": "Zeros", "config": {}}, "padding": "same", "dtype": "float32", "activation": "relu", "filters": 128}, "inbound_nodes": [[["batch_normalization_30", 0, 0, {}]]]}, {"class_name": "BatchNormalization", "name": "batch_normalization_31", "config": {"scale": true, "beta_initializer": {"class_name": "Zeros", "config": {}}, "gamma_initializer": {"class_name": "Ones", "config": {}}, "moving_variance_initializer": {"class_name": "Ones", "config": {}}, "dtype": "float32", "beta_regularizer": null, "name": "batch_normalization_31", "momentum": 0.99, "moving_mean_initializer": {"class_name": "Zeros", "config": {}}, "beta_constraint": null, "gamma_regularizer": null, "center": true, "gamma_constraint": null, "axis": -1, "epsilon": 0.001, "trainable": true}, "inbound_nodes": [[["0_lf8_x2_conv_1x1_x3", 0, 0, {}]]]}, {"class_name": "Add", "name": "0_lf8_x2_residual", "config": {"name": "0_lf8_x2_residual", "trainable": true, "dtype": "float32"}, "inbound_nodes": [[["0_lf8_x1_residual", 0, 0, {}], ["batch_normalization_31", 0, 0, {}]]]}, {"class_name": "Conv2D", "name": "0_lf8_x3_conv_1x1_x1", "config": {"activity_regularizer": null, "kernel_constraint": null, "data_format": "channels_last", "kernel_size": [1, 1], "dilation_rate": [1, 1], "name": "0_lf8_x3_conv_1x1_x1", "use_bias": true, "kernel_regularizer": null, "kernel_initializer": {"class_name": "VarianceScaling", "config": {"distribution": "uniform", "scale": 1.0, "mode": "fan_avg", "seed": null}}, "trainable": true, "bias_constraint": null, "strides": [1, 1], "bias_regularizer": null, "bias_initializer": {"class_name": "Zeros", "config": {}}, "padding": "same", "dtype": "float32", "activation": "relu", "filters": 64}, "inbound_nodes": [[["0_lf8_x2_residual", 0, 0, {}]]]}, {"class_name": "Conv2D", "name": "0_lf8_conv_1x1_x1", "config": {"activity_regularizer": null, "kernel_constraint": null, "data_format": "channels_last", "kernel_size": [1, 1], "dilation_rate": [1, 1], "name": "0_lf8_conv_1x1_x1", "use_bias": true, "kernel_regularizer": null, "kernel_initializer": {"class_name": "VarianceScaling", "config": {"distribution": "uniform", "scale": 1.0, "mode": "fan_avg", "seed": null}}, "trainable": true, "bias_constraint": null, "strides": [1, 1], "bias_regularizer": null, "bias_initializer": {"class_name": "Zeros", "config": {}}, "padding": "same", "dtype": "float32", "activation": "relu", "filters": 64}, "inbound_nodes": [[["hg0_l8_residual", 0, 0, {}]]]}, {"class_name": "BatchNormalization", "name": "batch_normalization_32", "config": {"scale": true, "beta_initializer": {"class_name": "Zeros", "config": {}}, "gamma_initializer": {"class_name": "Ones", "config": {}}, "moving_variance_initializer": {"class_name": "Ones", "config": {}}, "dtype": "float32", "beta_regularizer": null, "name": "batch_normalization_32", "momentum": 0.99, "moving_mean_initializer": {"class_name": "Zeros", "config": {}}, "beta_constraint": null, "gamma_regularizer": null, "center": true, "gamma_constraint": null, "axis": -1, "epsilon": 0.001, "trainable": true}, "inbound_nodes": [[["0_lf8_x3_conv_1x1_x1", 0, 0, {}]]]}, {"class_name": "BatchNormalization", "name": "batch_normalization_23", "config": {"scale": true, "beta_initializer": {"class_name": "Zeros", "config": {}}, "gamma_initializer": {"class_name": "Ones", "config": {}}, "moving_variance_initializer": {"class_name": "Ones", "config": {}}, "dtype": "float32", "beta_regularizer": null, "name": "batch_normalization_23", "momentum": 0.99, "moving_mean_initializer": {"class_name": "Zeros", "config": {}}, "beta_constraint": null, "gamma_regularizer": null, "center": true, "gamma_constraint": null, "axis": -1, "epsilon": 0.001, "trainable": true}, "inbound_nodes": [[["0_lf8_conv_1x1_x1", 0, 0, {}]]]}, {"class_name": "Conv2D", "name": "hg0_rf4_connect_conv_1x1_x1", "config": {"activity_regularizer": null, "kernel_constraint": null, "data_format": "channels_last", "kernel_size": [1, 1], "dilation_rate": [1, 1], "name": "hg0_rf4_connect_conv_1x1_x1", "use_bias": true, "kernel_regularizer": null, "kernel_initializer": {"class_name": "VarianceScaling", "config": {"distribution": "uniform", "scale": 1.0, "mode": "fan_avg", "seed": null}}, "trainable": true, "bias_constraint": null, "strides": [1, 1], "bias_regularizer": null, "bias_initializer": {"class_name": "Zeros", "config": {}}, "padding": "same", "dtype": "float32", "activation": "relu", "filters": 64}, "inbound_nodes": [[["hg0_l4_residual", 0, 0, {}]]]}, {"class_name": "Conv2D", "name": "0_lf8_x3_conv_3x3_x2", "config": {"activity_regularizer": null, "kernel_constraint": null, "data_format": "channels_last", "kernel_size": [3, 3], "dilation_rate": [1, 1], "name": "0_lf8_x3_conv_3x3_x2", "use_bias": true, "kernel_regularizer": null, "kernel_initializer": {"class_name": "VarianceScaling", "config": {"distribution": "uniform", "scale": 1.0, "mode": "fan_avg", "seed": null}}, "trainable": true, "bias_constraint": null, "strides": [1, 1], "bias_regularizer": null, "bias_initializer": {"class_name": "Zeros", "config": {}}, "padding": "same", "dtype": "float32", "activation": "relu", "filters": 64}, "inbound_nodes": [[["batch_normalization_32", 0, 0, {}]]]}, {"class_name": "Conv2D", "name": "0_lf8_conv_3x3_x2", "config": {"activity_regularizer": null, "kernel_constraint": null, "data_format": "channels_last", "kernel_size": [3, 3], "dilation_rate": [1, 1], "name": "0_lf8_conv_3x3_x2", "use_bias": true, "kernel_regularizer": null, "kernel_initializer": {"class_name": "VarianceScaling", "config": {"distribution": "uniform", "scale": 1.0, "mode": "fan_avg", "seed": null}}, "trainable": true, "bias_constraint": null, "strides": [1, 1], "bias_regularizer": null, "bias_initializer": {"class_name": "Zeros", "config": {}}, "padding": "same", "dtype": "float32", "activation": "relu", "filters": 64}, "inbound_nodes": [[["batch_normalization_23", 0, 0, {}]]]}, {"class_name": "BatchNormalization", "name": "batch_normalization_35", "config": {"scale": true, "beta_initializer": {"class_name": "Zeros", "config": {}}, "gamma_initializer": {"class_name": "Ones", "config": {}}, "moving_variance_initializer": {"class_name": "Ones", "config": {}}, "dtype": "float32", "beta_regularizer": null, "name": "batch_normalization_35", "momentum": 0.99, "moving_mean_initializer": {"class_name": "Zeros", "config": {}}, "beta_constraint": null, "gamma_regularizer": null, "center": true, "gamma_constraint": null, "axis": -1, "epsilon": 0.001, "trainable": true}, "inbound_nodes": [[["hg0_rf4_connect_conv_1x1_x1", 0, 0, {}]]]}, {"class_name": "BatchNormalization", "name": "batch_normalization_33", "config": {"scale": true, "beta_initializer": {"class_name": "Zeros", "config": {}}, "gamma_initializer": {"class_name": "Ones", "config": {}}, "moving_variance_initializer": {"class_name": "Ones", "config": {}}, "dtype": "float32", "beta_regularizer": null, "name": "batch_normalization_33", "momentum": 0.99, "moving_mean_initializer": {"class_name": "Zeros", "config": {}}, "beta_constraint": null, "gamma_regularizer": null, "center": true, "gamma_constraint": null, "axis": -1, "epsilon": 0.001, "trainable": true}, "inbound_nodes": [[["0_lf8_x3_conv_3x3_x2", 0, 0, {}]]]}, {"class_name": "BatchNormalization", "name": "batch_normalization_24", "config": {"scale": true, "beta_initializer": {"class_name": "Zeros", "config": {}}, "gamma_initializer": {"class_name": "Ones", "config": {}}, "moving_variance_initializer": {"class_name": "Ones", "config": {}}, "dtype": "float32", "beta_regularizer": null, "name": "batch_normalization_24", "momentum": 0.99, "moving_mean_initializer": {"class_name": "Zeros", "config": {}}, "beta_constraint": null, "gamma_regularizer": null, "center": true, "gamma_constraint": null, "axis": -1, "epsilon": 0.001, "trainable": true}, "inbound_nodes": [[["0_lf8_conv_3x3_x2", 0, 0, {}]]]}, {"class_name": "Conv2D", "name": "hg0_rf4_connect_conv_3x3_x2", "config": {"activity_regularizer": null, "kernel_constraint": null, "data_format": "channels_last", "kernel_size": [3, 3], "dilation_rate": [1, 1], "name": "hg0_rf4_connect_conv_3x3_x2", "use_bias": true, "kernel_regularizer": null, "kernel_initializer": {"class_name": "VarianceScaling", "config": {"distribution": "uniform", "scale": 1.0, "mode": "fan_avg", "seed": null}}, "trainable": true, "bias_constraint": null, "strides": [1, 1], "bias_regularizer": null, "bias_initializer": {"class_name": "Zeros", "config": {}}, "padding": "same", "dtype": "float32", "activation": "relu", "filters": 64}, "inbound_nodes": [[["batch_normalization_35", 0, 0, {}]]]}, {"class_name": "Conv2D", "name": "0_lf8_x3_conv_1x1_x3", "config": {"activity_regularizer": null, "kernel_constraint": null, "data_format": "channels_last", "kernel_size": [1, 1], "dilation_rate": [1, 1], "name": "0_lf8_x3_conv_1x1_x3", "use_bias": true, "kernel_regularizer": null, "kernel_initializer": {"class_name": "VarianceScaling", "config": {"distribution": "uniform", "scale": 1.0, "mode": "fan_avg", "seed": null}}, "trainable": true, "bias_constraint": null, "strides": [1, 1], "bias_regularizer": null, "bias_initializer": {"class_name": "Zeros", "config": {}}, "padding": "same", "dtype": "float32", "activation": "relu", "filters": 128}, "inbound_nodes": [[["batch_normalization_33", 0, 0, {}]]]}, {"class_name": "Conv2D", "name": "0_lf8_conv_1x1_x3", "config": {"activity_regularizer": null, "kernel_constraint": null, "data_format": "channels_last", "kernel_size": [1, 1], "dilation_rate": [1, 1], "name": "0_lf8_conv_1x1_x3", "use_bias": true, "kernel_regularizer": null, "kernel_initializer": {"class_name": "VarianceScaling", "config": {"distribution": "uniform", "scale": 1.0, "mode": "fan_avg", "seed": null}}, "trainable": true, "bias_constraint": null, "strides": [1, 1], "bias_regularizer": null, "bias_initializer": {"class_name": "Zeros", "config": {}}, "padding": "same", "dtype": "float32", "activation": "relu", "filters": 128}, "inbound_nodes": [[["batch_normalization_24", 0, 0, {}]]]}, {"class_name": "BatchNormalization", "name": "batch_normalization_36", "config": {"scale": true, "beta_initializer": {"class_name": "Zeros", "config": {}}, "gamma_initializer": {"class_name": "Ones", "config": {}}, "moving_variance_initializer": {"class_name": "Ones", "config": {}}, "dtype": "float32", "beta_regularizer": null, "name": "batch_normalization_36", "momentum": 0.99, "moving_mean_initializer": {"class_name": "Zeros", "config": {}}, "beta_constraint": null, "gamma_regularizer": null, "center": true, "gamma_constraint": null, "axis": -1, "epsilon": 0.001, "trainable": true}, "inbound_nodes": [[["hg0_rf4_connect_conv_3x3_x2", 0, 0, {}]]]}, {"class_name": "BatchNormalization", "name": "batch_normalization_34", "config": {"scale": true, "beta_initializer": {"class_name": "Zeros", "config": {}}, "gamma_initializer": {"class_name": "Ones", "config": {}}, "moving_variance_initializer": {"class_name": "Ones", "config": {}}, "dtype": "float32", "beta_regularizer": null, "name": "batch_normalization_34", "momentum": 0.99, "moving_mean_initializer": {"class_name": "Zeros", "config": {}}, "beta_constraint": null, "gamma_regularizer": null, "center": true, "gamma_constraint": null, "axis": -1, "epsilon": 0.001, "trainable": true}, "inbound_nodes": [[["0_lf8_x3_conv_1x1_x3", 0, 0, {}]]]}, {"class_name": "BatchNormalization", "name": "batch_normalization_25", "config": {"scale": true, "beta_initializer": {"class_name": "Zeros", "config": {}}, "gamma_initializer": {"class_name": "Ones", "config": {}}, "moving_variance_initializer": {"class_name": "Ones", "config": {}}, "dtype": "float32", "beta_regularizer": null, "name": "batch_normalization_25", "momentum": 0.99, "moving_mean_initializer": {"class_name": "Zeros", "config": {}}, "beta_constraint": null, "gamma_regularizer": null, "center": true, "gamma_constraint": null, "axis": -1, "epsilon": 0.001, "trainable": true}, "inbound_nodes": [[["0_lf8_conv_1x1_x3", 0, 0, {}]]]}, {"class_name": "Conv2D", "name": "hg0_rf4_connect_conv_1x1_x3", "config": {"activity_regularizer": null, "kernel_constraint": null, "data_format": "channels_last", "kernel_size": [1, 1], "dilation_rate": [1, 1], "name": "hg0_rf4_connect_conv_1x1_x3", "use_bias": true, "kernel_regularizer": null, "kernel_initializer": {"class_name": "VarianceScaling", "config": {"distribution": "uniform", "scale": 1.0, "mode": "fan_avg", "seed": null}}, "trainable": true, "bias_constraint": null, "strides": [1, 1], "bias_regularizer": null, "bias_initializer": {"class_name": "Zeros", "config": {}}, "padding": "same", "dtype": "float32", "activation": "relu", "filters": 128}, "inbound_nodes": [[["batch_normalization_36", 0, 0, {}]]]}, {"class_name": "Add", "name": "0_lf8_x3_residual", "config": {"name": "0_lf8_x3_residual", "trainable": true, "dtype": "float32"}, "inbound_nodes": [[["0_lf8_x2_residual", 0, 0, {}], ["batch_normalization_34", 0, 0, {}]]]}, {"class_name": "Add", "name": "0_lf8_residual", "config": {"name": "0_lf8_residual", "trainable": true, "dtype": "float32"}, "inbound_nodes": [[["hg0_l8_residual", 0, 0, {}], ["batch_normalization_25", 0, 0, {}]]]}, {"class_name": "BatchNormalization", "name": "batch_normalization_37", "config": {"scale": true, "beta_initializer": {"class_name": "Zeros", "config": {}}, "gamma_initializer": {"class_name": "Ones", "config": {}}, "moving_variance_initializer": {"class_name": "Ones", "config": {}}, "dtype": "float32", "beta_regularizer": null, "name": "batch_normalization_37", "momentum": 0.99, "moving_mean_initializer": {"class_name": "Zeros", "config": {}}, "beta_constraint": null, "gamma_regularizer": null, "center": true, "gamma_constraint": null, "axis": -1, "epsilon": 0.001, "trainable": true}, "inbound_nodes": [[["hg0_rf4_connect_conv_1x1_x3", 0, 0, {}]]]}, {"class_name": "Add", "name": "add_1", "config": {"name": "add_1", "trainable": true, "dtype": "float32"}, "inbound_nodes": [[["0_lf8_x3_residual", 0, 0, {}], ["0_lf8_residual", 0, 0, {}]]]}, {"class_name": "Add", "name": "hg0_rf4_connect_residual", "config": {"name": "hg0_rf4_connect_residual", "trainable": true, "dtype": "float32"}, "inbound_nodes": [[["hg0_l4_residual", 0, 0, {}], ["batch_normalization_37", 0, 0, {}]]]}, {"class_name": "UpSampling2D", "name": "up_sampling2d_1", "config": {"name": "up_sampling2d_1", "interpolation": "nearest", "dtype": "float32", "data_format": "channels_last", "size": [2, 2], "trainable": true}, "inbound_nodes": [[["add_1", 0, 0, {}]]]}, {"class_name": "Add", "name": "add_2", "config": {"name": "add_2", "trainable": true, "dtype": "float32"}, "inbound_nodes": [[["hg0_rf4_connect_residual", 0, 0, {}], ["up_sampling2d_1", 0, 0, {}]]]}, {"class_name": "Conv2D", "name": "hg0_rf4_connect_conv_conv_1x1_x1", "config": {"activity_regularizer": null, "kernel_constraint": null, "data_format": "channels_last", "kernel_size": [1, 1], "dilation_rate": [1, 1], "name": "hg0_rf4_connect_conv_conv_1x1_x1", "use_bias": true, "kernel_regularizer": null, "kernel_initializer": {"class_name": "VarianceScaling", "config": {"distribution": "uniform", "scale": 1.0, "mode": "fan_avg", "seed": null}}, "trainable": true, "bias_constraint": null, "strides": [1, 1], "bias_regularizer": null, "bias_initializer": {"class_name": "Zeros", "config": {}}, "padding": "same", "dtype": "float32", "activation": "relu", "filters": 64}, "inbound_nodes": [[["add_2", 0, 0, {}]]]}, {"class_name": "Conv2D", "name": "hg0_rf2_connect_conv_1x1_x1", "config": {"activity_regularizer": null, "kernel_constraint": null, "data_format": "channels_last", "kernel_size": [1, 1], "dilation_rate": [1, 1], "name": "hg0_rf2_connect_conv_1x1_x1", "use_bias": true, "kernel_regularizer": null, "kernel_initializer": {"class_name": "VarianceScaling", "config": {"distribution": "uniform", "scale": 1.0, "mode": "fan_avg", "seed": null}}, "trainable": true, "bias_constraint": null, "strides": [1, 1], "bias_regularizer": null, "bias_initializer": {"class_name": "Zeros", "config": {}}, "padding": "same", "dtype": "float32", "activation": "relu", "filters": 64}, "inbound_nodes": [[["hg0_l2_residual", 0, 0, {}]]]}, {"class_name": "BatchNormalization", "name": "batch_normalization_38", "config": {"scale": true, "beta_initializer": {"class_name": "Zeros", "config": {}}, "gamma_initializer": {"class_name": "Ones", "config": {}}, "moving_variance_initializer": {"class_name": "Ones", "config": {}}, "dtype": "float32", "beta_regularizer": null, "name": "batch_normalization_38", "momentum": 0.99, "moving_mean_initializer": {"class_name": "Zeros", "config": {}}, "beta_constraint": null, "gamma_regularizer": null, "center": true, "gamma_constraint": null, "axis": -1, "epsilon": 0.001, "trainable": true}, "inbound_nodes": [[["hg0_rf4_connect_conv_conv_1x1_x1", 0, 0, {}]]]}, {"class_name": "BatchNormalization", "name": "batch_normalization_41", "config": {"scale": true, "beta_initializer": {"class_name": "Zeros", "config": {}}, "gamma_initializer": {"class_name": "Ones", "config": {}}, "moving_variance_initializer": {"class_name": "Ones", "config": {}}, "dtype": "float32", "beta_regularizer": null, "name": "batch_normalization_41", "momentum": 0.99, "moving_mean_initializer": {"class_name": "Zeros", "config": {}}, "beta_constraint": null, "gamma_regularizer": null, "center": true, "gamma_constraint": null, "axis": -1, "epsilon": 0.001, "trainable": true}, "inbound_nodes": [[["hg0_rf2_connect_conv_1x1_x1", 0, 0, {}]]]}, {"class_name": "Conv2D", "name": "hg0_rf4_connect_conv_conv_3x3_x2", "config": {"activity_regularizer": null, "kernel_constraint": null, "data_format": "channels_last", "kernel_size": [3, 3], "dilation_rate": [1, 1], "name": "hg0_rf4_connect_conv_conv_3x3_x2", "use_bias": true, "kernel_regularizer": null, "kernel_initializer": {"class_name": "VarianceScaling", "config": {"distribution": "uniform", "scale": 1.0, "mode": "fan_avg", "seed": null}}, "trainable": true, "bias_constraint": null, "strides": [1, 1], "bias_regularizer": null, "bias_initializer": {"class_name": "Zeros", "config": {}}, "padding": "same", "dtype": "float32", "activation": "relu", "filters": 64}, "inbound_nodes": [[["batch_normalization_38", 0, 0, {}]]]}, {"class_name": "Conv2D", "name": "hg0_rf2_connect_conv_3x3_x2", "config": {"activity_regularizer": null, "kernel_constraint": null, "data_format": "channels_last", "kernel_size": [3, 3], "dilation_rate": [1, 1], "name": "hg0_rf2_connect_conv_3x3_x2", "use_bias": true, "kernel_regularizer": null, "kernel_initializer": {"class_name": "VarianceScaling", "config": {"distribution": "uniform", "scale": 1.0, "mode": "fan_avg", "seed": null}}, "trainable": true, "bias_constraint": null, "strides": [1, 1], "bias_regularizer": null, "bias_initializer": {"class_name": "Zeros", "config": {}}, "padding": "same", "dtype": "float32", "activation": "relu", "filters": 64}, "inbound_nodes": [[["batch_normalization_41", 0, 0, {}]]]}, {"class_name": "BatchNormalization", "name": "batch_normalization_39", "config": {"scale": true, "beta_initializer": {"class_name": "Zeros", "config": {}}, "gamma_initializer": {"class_name": "Ones", "config": {}}, "moving_variance_initializer": {"class_name": "Ones", "config": {}}, "dtype": "float32", "beta_regularizer": null, "name": "batch_normalization_39", "momentum": 0.99, "moving_mean_initializer": {"class_name": "Zeros", "config": {}}, "beta_constraint": null, "gamma_regularizer": null, "center": true, "gamma_constraint": null, "axis": -1, "epsilon": 0.001, "trainable": true}, "inbound_nodes": [[["hg0_rf4_connect_conv_conv_3x3_x2", 0, 0, {}]]]}, {"class_name": "BatchNormalization", "name": "batch_normalization_42", "config": {"scale": true, "beta_initializer": {"class_name": "Zeros", "config": {}}, "gamma_initializer": {"class_name": "Ones", "config": {}}, "moving_variance_initializer": {"class_name": "Ones", "config": {}}, "dtype": "float32", "beta_regularizer": null, "name": "batch_normalization_42", "momentum": 0.99, "moving_mean_initializer": {"class_name": "Zeros", "config": {}}, "beta_constraint": null, "gamma_regularizer": null, "center": true, "gamma_constraint": null, "axis": -1, "epsilon": 0.001, "trainable": true}, "inbound_nodes": [[["hg0_rf2_connect_conv_3x3_x2", 0, 0, {}]]]}, {"class_name": "Conv2D", "name": "hg0_rf4_connect_conv_conv_1x1_x3", "config": {"activity_regularizer": null, "kernel_constraint": null, "data_format": "channels_last", "kernel_size": [1, 1], "dilation_rate": [1, 1], "name": "hg0_rf4_connect_conv_conv_1x1_x3", "use_bias": true, "kernel_regularizer": null, "kernel_initializer": {"class_name": "VarianceScaling", "config": {"distribution": "uniform", "scale": 1.0, "mode": "fan_avg", "seed": null}}, "trainable": true, "bias_constraint": null, "strides": [1, 1], "bias_regularizer": null, "bias_initializer": {"class_name": "Zeros", "config": {}}, "padding": "same", "dtype": "float32", "activation": "relu", "filters": 128}, "inbound_nodes": [[["batch_normalization_39", 0, 0, {}]]]}, {"class_name": "Conv2D", "name": "hg0_rf2_connect_conv_1x1_x3", "config": {"activity_regularizer": null, "kernel_constraint": null, "data_format": "channels_last", "kernel_size": [1, 1], "dilation_rate": [1, 1], "name": "hg0_rf2_connect_conv_1x1_x3", "use_bias": true, "kernel_regularizer": null, "kernel_initializer": {"class_name": "VarianceScaling", "config": {"distribution": "uniform", "scale": 1.0, "mode": "fan_avg", "seed": null}}, "trainable": true, "bias_constraint": null, "strides": [1, 1], "bias_regularizer": null, "bias_initializer": {"class_name": "Zeros", "config": {}}, "padding": "same", "dtype": "float32", "activation": "relu", "filters": 128}, "inbound_nodes": [[["batch_normalization_42", 0, 0, {}]]]}, {"class_name": "BatchNormalization", "name": "batch_normalization_40", "config": {"scale": true, "beta_initializer": {"class_name": "Zeros", "config": {}}, "gamma_initializer": {"class_name": "Ones", "config": {}}, "moving_variance_initializer": {"class_name": "Ones", "config": {}}, "dtype": "float32", "beta_regularizer": null, "name": "batch_normalization_40", "momentum": 0.99, "moving_mean_initializer": {"class_name": "Zeros", "config": {}}, "beta_constraint": null, "gamma_regularizer": null, "center": true, "gamma_constraint": null, "axis": -1, "epsilon": 0.001, "trainable": true}, "inbound_nodes": [[["hg0_rf4_connect_conv_conv_1x1_x3", 0, 0, {}]]]}, {"class_name": "BatchNormalization", "name": "batch_normalization_43", "config": {"scale": true, "beta_initializer": {"class_name": "Zeros", "config": {}}, "gamma_initializer": {"class_name": "Ones", "config": {}}, "moving_variance_initializer": {"class_name": "Ones", "config": {}}, "dtype": "float32", "beta_regularizer": null, "name": "batch_normalization_43", "momentum": 0.99, "moving_mean_initializer": {"class_name": "Zeros", "config": {}}, "beta_constraint": null, "gamma_regularizer": null, "center": true, "gamma_constraint": null, "axis": -1, "epsilon": 0.001, "trainable": true}, "inbound_nodes": [[["hg0_rf2_connect_conv_1x1_x3", 0, 0, {}]]]}, {"class_name": "Add", "name": "hg0_rf4_connect_conv_residual", "config": {"name": "hg0_rf4_connect_conv_residual", "trainable": true, "dtype": "float32"}, "inbound_nodes": [[["add_2", 0, 0, {}], ["batch_normalization_40", 0, 0, {}]]]}, {"class_name": "Add", "name": "hg0_rf2_connect_residual", "config": {"name": "hg0_rf2_connect_residual", "trainable": true, "dtype": "float32"}, "inbound_nodes": [[["hg0_l2_residual", 0, 0, {}], ["batch_normalization_43", 0, 0, {}]]]}, {"class_name": "UpSampling2D", "name": "up_sampling2d_2", "config": {"name": "up_sampling2d_2", "interpolation": "nearest", "dtype": "float32", "data_format": "channels_last", "size": [2, 2], "trainable": true}, "inbound_nodes": [[["hg0_rf4_connect_conv_residual", 0, 0, {}]]]}, {"class_name": "Add", "name": "add_3", "config": {"name": "add_3", "trainable": true, "dtype": "float32"}, "inbound_nodes": [[["hg0_rf2_connect_residual", 0, 0, {}], ["up_sampling2d_2", 0, 0, {}]]]}, {"class_name": "Conv2D", "name": "hg0_rf2_connect_conv_conv_1x1_x1", "config": {"activity_regularizer": null, "kernel_constraint": null, "data_format": "channels_last", "kernel_size": [1, 1], "dilation_rate": [1, 1], "name": "hg0_rf2_connect_conv_conv_1x1_x1", "use_bias": true, "kernel_regularizer": null, "kernel_initializer": {"class_name": "VarianceScaling", "config": {"distribution": "uniform", "scale": 1.0, "mode": "fan_avg", "seed": null}}, "trainable": true, "bias_constraint": null, "strides": [1, 1], "bias_regularizer": null, "bias_initializer": {"class_name": "Zeros", "config": {}}, "padding": "same", "dtype": "float32", "activation": "relu", "filters": 64}, "inbound_nodes": [[["add_3", 0, 0, {}]]]}, {"class_name": "Conv2D", "name": "hg0_rf1_connect_conv_1x1_x1", "config": {"activity_regularizer": null, "kernel_constraint": null, "data_format": "channels_last", "kernel_size": [1, 1], "dilation_rate": [1, 1], "name": "hg0_rf1_connect_conv_1x1_x1", "use_bias": true, "kernel_regularizer": null, "kernel_initializer": {"class_name": "VarianceScaling", "config": {"distribution": "uniform", "scale": 1.0, "mode": "fan_avg", "seed": null}}, "trainable": true, "bias_constraint": null, "strides": [1, 1], "bias_regularizer": null, "bias_initializer": {"class_name": "Zeros", "config": {}}, "padding": "same", "dtype": "float32", "activation": "relu", "filters": 64}, "inbound_nodes": [[["hg0_l1_residual", 0, 0, {}]]]}, {"class_name": "BatchNormalization", "name": "batch_normalization_44", "config": {"scale": true, "beta_initializer": {"class_name": "Zeros", "config": {}}, "gamma_initializer": {"class_name": "Ones", "config": {}}, "moving_variance_initializer": {"class_name": "Ones", "config": {}}, "dtype": "float32", "beta_regularizer": null, "name": "batch_normalization_44", "momentum": 0.99, "moving_mean_initializer": {"class_name": "Zeros", "config": {}}, "beta_constraint": null, "gamma_regularizer": null, "center": true, "gamma_constraint": null, "axis": -1, "epsilon": 0.001, "trainable": true}, "inbound_nodes": [[["hg0_rf2_connect_conv_conv_1x1_x1", 0, 0, {}]]]}, {"class_name": "BatchNormalization", "name": "batch_normalization_47", "config": {"scale": true, "beta_initializer": {"class_name": "Zeros", "config": {}}, "gamma_initializer": {"class_name": "Ones", "config": {}}, "moving_variance_initializer": {"class_name": "Ones", "config": {}}, "dtype": "float32", "beta_regularizer": null, "name": "batch_normalization_47", "momentum": 0.99, "moving_mean_initializer": {"class_name": "Zeros", "config": {}}, "beta_constraint": null, "gamma_regularizer": null, "center": true, "gamma_constraint": null, "axis": -1, "epsilon": 0.001, "trainable": true}, "inbound_nodes": [[["hg0_rf1_connect_conv_1x1_x1", 0, 0, {}]]]}, {"class_name": "Conv2D", "name": "hg0_rf2_connect_conv_conv_3x3_x2", "config": {"activity_regularizer": null, "kernel_constraint": null, "data_format": "channels_last", "kernel_size": [3, 3], "dilation_rate": [1, 1], "name": "hg0_rf2_connect_conv_conv_3x3_x2", "use_bias": true, "kernel_regularizer": null, "kernel_initializer": {"class_name": "VarianceScaling", "config": {"distribution": "uniform", "scale": 1.0, "mode": "fan_avg", "seed": null}}, "trainable": true, "bias_constraint": null, "strides": [1, 1], "bias_regularizer": null, "bias_initializer": {"class_name": "Zeros", "config": {}}, "padding": "same", "dtype": "float32", "activation": "relu", "filters": 64}, "inbound_nodes": [[["batch_normalization_44", 0, 0, {}]]]}, {"class_name": "Conv2D", "name": "hg0_rf1_connect_conv_3x3_x2", "config": {"activity_regularizer": null, "kernel_constraint": null, "data_format": "channels_last", "kernel_size": [3, 3], "dilation_rate": [1, 1], "name": "hg0_rf1_connect_conv_3x3_x2", "use_bias": true, "kernel_regularizer": null, "kernel_initializer": {"class_name": "VarianceScaling", "config": {"distribution": "uniform", "scale": 1.0, "mode": "fan_avg", "seed": null}}, "trainable": true, "bias_constraint": null, "strides": [1, 1], "bias_regularizer": null, "bias_initializer": {"class_name": "Zeros", "config": {}}, "padding": "same", "dtype": "float32", "activation": "relu", "filters": 64}, "inbound_nodes": [[["batch_normalization_47", 0, 0, {}]]]}, {"class_name": "BatchNormalization", "name": "batch_normalization_45", "config": {"scale": true, "beta_initializer": {"class_name": "Zeros", "config": {}}, "gamma_initializer": {"class_name": "Ones", "config": {}}, "moving_variance_initializer": {"class_name": "Ones", "config": {}}, "dtype": "float32", "beta_regularizer": null, "name": "batch_normalization_45", "momentum": 0.99, "moving_mean_initializer": {"class_name": "Zeros", "config": {}}, "beta_constraint": null, "gamma_regularizer": null, "center": true, "gamma_constraint": null, "axis": -1, "epsilon": 0.001, "trainable": true}, "inbound_nodes": [[["hg0_rf2_connect_conv_conv_3x3_x2", 0, 0, {}]]]}, {"class_name": "BatchNormalization", "name": "batch_normalization_48", "config": {"scale": true, "beta_initializer": {"class_name": "Zeros", "config": {}}, "gamma_initializer": {"class_name": "Ones", "config": {}}, "moving_variance_initializer": {"class_name": "Ones", "config": {}}, "dtype": "float32", "beta_regularizer": null, "name": "batch_normalization_48", "momentum": 0.99, "moving_mean_initializer": {"class_name": "Zeros", "config": {}}, "beta_constraint": null, "gamma_regularizer": null, "center": true, "gamma_constraint": null, "axis": -1, "epsilon": 0.001, "trainable": true}, "inbound_nodes": [[["hg0_rf1_connect_conv_3x3_x2", 0, 0, {}]]]}, {"class_name": "Conv2D", "name": "hg0_rf2_connect_conv_conv_1x1_x3", "config": {"activity_regularizer": null, "kernel_constraint": null, "data_format": "channels_last", "kernel_size": [1, 1], "dilation_rate": [1, 1], "name": "hg0_rf2_connect_conv_conv_1x1_x3", "use_bias": true, "kernel_regularizer": null, "kernel_initializer": {"class_name": "VarianceScaling", "config": {"distribution": "uniform", "scale": 1.0, "mode": "fan_avg", "seed": null}}, "trainable": true, "bias_constraint": null, "strides": [1, 1], "bias_regularizer": null, "bias_initializer": {"class_name": "Zeros", "config": {}}, "padding": "same", "dtype": "float32", "activation": "relu", "filters": 128}, "inbound_nodes": [[["batch_normalization_45", 0, 0, {}]]]}, {"class_name": "Conv2D", "name": "hg0_rf1_connect_conv_1x1_x3", "config": {"activity_regularizer": null, "kernel_constraint": null, "data_format": "channels_last", "kernel_size": [1, 1], "dilation_rate": [1, 1], "name": "hg0_rf1_connect_conv_1x1_x3", "use_bias": true, "kernel_regularizer": null, "kernel_initializer": {"class_name": "VarianceScaling", "config": {"distribution": "uniform", "scale": 1.0, "mode": "fan_avg", "seed": null}}, "trainable": true, "bias_constraint": null, "strides": [1, 1], "bias_regularizer": null, "bias_initializer": {"class_name": "Zeros", "config": {}}, "padding": "same", "dtype": "float32", "activation": "relu", "filters": 128}, "inbound_nodes": [[["batch_normalization_48", 0, 0, {}]]]}, {"class_name": "BatchNormalization", "name": "batch_normalization_46", "config": {"scale": true, "beta_initializer": {"class_name": "Zeros", "config": {}}, "gamma_initializer": {"class_name": "Ones", "config": {}}, "moving_variance_initializer": {"class_name": "Ones", "config": {}}, "dtype": "float32", "beta_regularizer": null, "name": "batch_normalization_46", "momentum": 0.99, "moving_mean_initializer": {"class_name": "Zeros", "config": {}}, "beta_constraint": null, "gamma_regularizer": null, "center": true, "gamma_constraint": null, "axis": -1, "epsilon": 0.001, "trainable": true}, "inbound_nodes": [[["hg0_rf2_connect_conv_conv_1x1_x3", 0, 0, {}]]]}, {"class_name": "BatchNormalization", "name": "batch_normalization_49", "config": {"scale": true, "beta_initializer": {"class_name": "Zeros", "config": {}}, "gamma_initializer": {"class_name": "Ones", "config": {}}, "moving_variance_initializer": {"class_name": "Ones", "config": {}}, "dtype": "float32", "beta_regularizer": null, "name": "batch_normalization_49", "momentum": 0.99, "moving_mean_initializer": {"class_name": "Zeros", "config": {}}, "beta_constraint": null, "gamma_regularizer": null, "center": true, "gamma_constraint": null, "axis": -1, "epsilon": 0.001, "trainable": true}, "inbound_nodes": [[["hg0_rf1_connect_conv_1x1_x3", 0, 0, {}]]]}, {"class_name": "Add", "name": "hg0_rf2_connect_conv_residual", "config": {"name": "hg0_rf2_connect_conv_residual", "trainable": true, "dtype": "float32"}, "inbound_nodes": [[["add_3", 0, 0, {}], ["batch_normalization_46", 0, 0, {}]]]}, {"class_name": "Add", "name": "hg0_rf1_connect_residual", "config": {"name": "hg0_rf1_connect_residual", "trainable": true, "dtype": "float32"}, "inbound_nodes": [[["hg0_l1_residual", 0, 0, {}], ["batch_normalization_49", 0, 0, {}]]]}, {"class_name": "UpSampling2D", "name": "up_sampling2d_3", "config": {"name": "up_sampling2d_3", "interpolation": "nearest", "dtype": "float32", "data_format": "channels_last", "size": [2, 2], "trainable": true}, "inbound_nodes": [[["hg0_rf2_connect_conv_residual", 0, 0, {}]]]}, {"class_name": "Add", "name": "add_4", "config": {"name": "add_4", "trainable": true, "dtype": "float32"}, "inbound_nodes": [[["hg0_rf1_connect_residual", 0, 0, {}], ["up_sampling2d_3", 0, 0, {}]]]}, {"class_name": "Conv2D", "name": "hg0_rf1_connect_conv_conv_1x1_x1", "config": {"activity_regularizer": null, "kernel_constraint": null, "data_format": "channels_last", "kernel_size": [1, 1], "dilation_rate": [1, 1], "name": "hg0_rf1_connect_conv_conv_1x1_x1", "use_bias": true, "kernel_regularizer": null, "kernel_initializer": {"class_name": "VarianceScaling", "config": {"distribution": "uniform", "scale": 1.0, "mode": "fan_avg", "seed": null}}, "trainable": true, "bias_constraint": null, "strides": [1, 1], "bias_regularizer": null, "bias_initializer": {"class_name": "Zeros", "config": {}}, "padding": "same", "dtype": "float32", "activation": "relu", "filters": 64}, "inbound_nodes": [[["add_4", 0, 0, {}]]]}, {"class_name": "BatchNormalization", "name": "batch_normalization_50", "config": {"scale": true, "beta_initializer": {"class_name": "Zeros", "config": {}}, "gamma_initializer": {"class_name": "Ones", "config": {}}, "moving_variance_initializer": {"class_name": "Ones", "config": {}}, "dtype": "float32", "beta_regularizer": null, "name": "batch_normalization_50", "momentum": 0.99, "moving_mean_initializer": {"class_name": "Zeros", "config": {}}, "beta_constraint": null, "gamma_regularizer": null, "center": true, "gamma_constraint": null, "axis": -1, "epsilon": 0.001, "trainable": true}, "inbound_nodes": [[["hg0_rf1_connect_conv_conv_1x1_x1", 0, 0, {}]]]}, {"class_name": "Conv2D", "name": "hg0_rf1_connect_conv_conv_3x3_x2", "config": {"activity_regularizer": null, "kernel_constraint": null, "data_format": "channels_last", "kernel_size": [3, 3], "dilation_rate": [1, 1], "name": "hg0_rf1_connect_conv_conv_3x3_x2", "use_bias": true, "kernel_regularizer": null, "kernel_initializer": {"class_name": "VarianceScaling", "config": {"distribution": "uniform", "scale": 1.0, "mode": "fan_avg", "seed": null}}, "trainable": true, "bias_constraint": null, "strides": [1, 1], "bias_regularizer": null, "bias_initializer": {"class_name": "Zeros", "config": {}}, "padding": "same", "dtype": "float32", "activation": "relu", "filters": 64}, "inbound_nodes": [[["batch_normalization_50", 0, 0, {}]]]}, {"class_name": "BatchNormalization", "name": "batch_normalization_51", "config": {"scale": true, "beta_initializer": {"class_name": "Zeros", "config": {}}, "gamma_initializer": {"class_name": "Ones", "config": {}}, "moving_variance_initializer": {"class_name": "Ones", "config": {}}, "dtype": "float32", "beta_regularizer": null, "name": "batch_normalization_51", "momentum": 0.99, "moving_mean_initializer": {"class_name": "Zeros", "config": {}}, "beta_constraint": null, "gamma_regularizer": null, "center": true, "gamma_constraint": null, "axis": -1, "epsilon": 0.001, "trainable": true}, "inbound_nodes": [[["hg0_rf1_connect_conv_conv_3x3_x2", 0, 0, {}]]]}, {"class_name": "Conv2D", "name": "hg0_rf1_connect_conv_conv_1x1_x3", "config": {"activity_regularizer": null, "kernel_constraint": null, "data_format": "channels_last", "kernel_size": [1, 1], "dilation_rate": [1, 1], "name": "hg0_rf1_connect_conv_conv_1x1_x3", "use_bias": true, "kernel_regularizer": null, "kernel_initializer": {"class_name": "VarianceScaling", "config": {"distribution": "uniform", "scale": 1.0, "mode": "fan_avg", "seed": null}}, "trainable": true, "bias_constraint": null, "strides": [1, 1], "bias_regularizer": null, "bias_initializer": {"class_name": "Zeros", "config": {}}, "padding": "same", "dtype": "float32", "activation": "relu", "filters": 128}, "inbound_nodes": [[["batch_normalization_51", 0, 0, {}]]]}, {"class_name": "BatchNormalization", "name": "batch_normalization_52", "config": {"scale": true, "beta_initializer": {"class_name": "Zeros", "config": {}}, "gamma_initializer": {"class_name": "Ones", "config": {}}, "moving_variance_initializer": {"class_name": "Ones", "config": {}}, "dtype": "float32", "beta_regularizer": null, "name": "batch_normalization_52", "momentum": 0.99, "moving_mean_initializer": {"class_name": "Zeros", "config": {}}, "beta_constraint": null, "gamma_regularizer": null, "center": true, "gamma_constraint": null, "axis": -1, "epsilon": 0.001, "trainable": true}, "inbound_nodes": [[["hg0_rf1_connect_conv_conv_1x1_x3", 0, 0, {}]]]}, {"class_name": "Add", "name": "hg0_rf1_connect_conv_residual", "config": {"name": "hg0_rf1_connect_conv_residual", "trainable": true, "dtype": "float32"}, "inbound_nodes": [[["add_4", 0, 0, {}], ["batch_normalization_52", 0, 0, {}]]]}, {"class_name": "Conv2D", "name": "0_conv_1x1_x1", "config": {"activity_regularizer": null, "kernel_constraint": null, "data_format": "channels_last", "kernel_size": [1, 1], "dilation_rate": [1, 1], "name": "0_conv_1x1_x1", "use_bias": true, "kernel_regularizer": null, "kernel_initializer": {"class_name": "VarianceScaling", "config": {"distribution": "uniform", "scale": 1.0, "mode": "fan_avg", "seed": null}}, "trainable": true, "bias_constraint": null, "strides": [1, 1], "bias_regularizer": null, "bias_initializer": {"class_name": "Zeros", "config": {}}, "padding": "same", "dtype": "float32", "activation": "relu", "filters": 128}, "inbound_nodes": [[["hg0_rf1_connect_conv_residual", 0, 0, {}]]]}, {"class_name": "BatchNormalization", "name": "batch_normalization_53", "config": {"scale": true, "beta_initializer": {"class_name": "Zeros", "config": {}}, "gamma_initializer": {"class_name": "Ones", "config": {}}, "moving_variance_initializer": {"class_name": "Ones", "config": {}}, "dtype": "float32", "beta_regularizer": null, "name": "batch_normalization_53", "momentum": 0.99, "moving_mean_initializer": {"class_name": "Zeros", "config": {}}, "beta_constraint": null, "gamma_regularizer": null, "center": true, "gamma_constraint": null, "axis": -1, "epsilon": 0.001, "trainable": true}, "inbound_nodes": [[["0_conv_1x1_x1", 0, 0, {}]]]}, {"class_name": "Conv2D", "name": "0_conv_1x1_parts", "config": {"activity_regularizer": null, "kernel_constraint": null, "data_format": "channels_last", "kernel_size": [1, 1], "dilation_rate": [1, 1], "name": "0_conv_1x1_parts", "use_bias": true, "kernel_regularizer": null, "kernel_initializer": {"class_name": "VarianceScaling", "config": {"distribution": "uniform", "scale": 1.0, "mode": "fan_avg", "seed": null}}, "trainable": true, "bias_constraint": null, "strides": [1, 1], "bias_regularizer": null, "bias_initializer": {"class_name": "Zeros", "config": {}}, "padding": "same", "dtype": "float32", "activation": "linear", "filters": 11}, "inbound_nodes": [[["batch_normalization_53", 0, 0, {}]]]}, {"class_name": "Conv2D", "name": "0_conv_1x1_x2", "config": {"activity_regularizer": null, "kernel_constraint": null, "data_format": "channels_last", "kernel_size": [1, 1], "dilation_rate": [1, 1], "name": "0_conv_1x1_x2", "use_bias": true, "kernel_regularizer": null, "kernel_initializer": {"class_name": "VarianceScaling", "config": {"distribution": "uniform", "scale": 1.0, "mode": "fan_avg", "seed": null}}, "trainable": true, "bias_constraint": null, "strides": [1, 1], "bias_regularizer": null, "bias_initializer": {"class_name": "Zeros", "config": {}}, "padding": "same", "dtype": "float32", "activation": "linear", "filters": 128}, "inbound_nodes": [[["batch_normalization_53", 0, 0, {}]]]}, {"class_name": "Conv2D", "name": "0_conv_1x1_x3", "config": {"activity_regularizer": null, "kernel_constraint": null, "data_format": "channels_last", "kernel_size": [1, 1], "dilation_rate": [1, 1], "name": "0_conv_1x1_x3", "use_bias": true, "kernel_regularizer": null, "kernel_initializer": {"class_name": "VarianceScaling", "config": {"distribution": "uniform", "scale": 1.0, "mode": "fan_avg", "seed": null}}, "trainable": true, "bias_constraint": null, "strides": [1, 1], "bias_regularizer": null, "bias_initializer": {"class_name": "Zeros", "config": {}}, "padding": "same", "dtype": "float32", "activation": "linear", "filters": 128}, "inbound_nodes": [[["0_conv_1x1_parts", 0, 0, {}]]]}, {"class_name": "Add", "name": "add_5", "config": {"name": "add_5", "trainable": true, "dtype": "float32"}, "inbound_nodes": [[["0_conv_1x1_x2", 0, 0, {}], ["0_conv_1x1_x3", 0, 0, {}], ["front_residual_x3_residual", 0, 0, {}]]]}, {"class_name": "Conv2D", "name": "hg1_l1_conv_1x1_x1", "config": {"activity_regularizer": null, "kernel_constraint": null, "data_format": "channels_last", "kernel_size": [1, 1], "dilation_rate": [1, 1], "name": "hg1_l1_conv_1x1_x1", "use_bias": true, "kernel_regularizer": null, "kernel_initializer": {"class_name": "VarianceScaling", "config": {"distribution": "uniform", "scale": 1.0, "mode": "fan_avg", "seed": null}}, "trainable": true, "bias_constraint": null, "strides": [1, 1], "bias_regularizer": null, "bias_initializer": {"class_name": "Zeros", "config": {}}, "padding": "same", "dtype": "float32", "activation": "relu", "filters": 64}, "inbound_nodes": [[["add_5", 0, 0, {}]]]}, {"class_name": "BatchNormalization", "name": "batch_normalization_54", "config": {"scale": true, "beta_initializer": {"class_name": "Zeros", "config": {}}, "gamma_initializer": {"class_name": "Ones", "config": {}}, "moving_variance_initializer": {"class_name": "Ones", "config": {}}, "dtype": "float32", "beta_regularizer": null, "name": "batch_normalization_54", "momentum": 0.99, "moving_mean_initializer": {"class_name": "Zeros", "config": {}}, "beta_constraint": null, "gamma_regularizer": null, "center": true, "gamma_constraint": null, "axis": -1, "epsilon": 0.001, "trainable": true}, "inbound_nodes": [[["hg1_l1_conv_1x1_x1", 0, 0, {}]]]}, {"class_name": "Conv2D", "name": "hg1_l1_conv_3x3_x2", "config": {"activity_regularizer": null, "kernel_constraint": null, "data_format": "channels_last", "kernel_size": [3, 3], "dilation_rate": [1, 1], "name": "hg1_l1_conv_3x3_x2", "use_bias": true, "kernel_regularizer": null, "kernel_initializer": {"class_name": "VarianceScaling", "config": {"distribution": "uniform", "scale": 1.0, "mode": "fan_avg", "seed": null}}, "trainable": true, "bias_constraint": null, "strides": [1, 1], "bias_regularizer": null, "bias_initializer": {"class_name": "Zeros", "config": {}}, "padding": "same", "dtype": "float32", "activation": "relu", "filters": 64}, "inbound_nodes": [[["batch_normalization_54", 0, 0, {}]]]}, {"class_name": "BatchNormalization", "name": "batch_normalization_55", "config": {"scale": true, "beta_initializer": {"class_name": "Zeros", "config": {}}, "gamma_initializer": {"class_name": "Ones", "config": {}}, "moving_variance_initializer": {"class_name": "Ones", "config": {}}, "dtype": "float32", "beta_regularizer": null, "name": "batch_normalization_55", "momentum": 0.99, "moving_mean_initializer": {"class_name": "Zeros", "config": {}}, "beta_constraint": null, "gamma_regularizer": null, "center": true, "gamma_constraint": null, "axis": -1, "epsilon": 0.001, "trainable": true}, "inbound_nodes": [[["hg1_l1_conv_3x3_x2", 0, 0, {}]]]}, {"class_name": "Conv2D", "name": "hg1_l1_conv_1x1_x3", "config": {"activity_regularizer": null, "kernel_constraint": null, "data_format": "channels_last", "kernel_size": [1, 1], "dilation_rate": [1, 1], "name": "hg1_l1_conv_1x1_x3", "use_bias": true, "kernel_regularizer": null, "kernel_initializer": {"class_name": "VarianceScaling", "config": {"distribution": "uniform", "scale": 1.0, "mode": "fan_avg", "seed": null}}, "trainable": true, "bias_constraint": null, "strides": [1, 1], "bias_regularizer": null, "bias_initializer": {"class_name": "Zeros", "config": {}}, "padding": "same", "dtype": "float32", "activation": "relu", "filters": 128}, "inbound_nodes": [[["batch_normalization_55", 0, 0, {}]]]}, {"class_name": "BatchNormalization", "name": "batch_normalization_56", "config": {"scale": true, "beta_initializer": {"class_name": "Zeros", "config": {}}, "gamma_initializer": {"class_name": "Ones", "config": {}}, "moving_variance_initializer": {"class_name": "Ones", "config": {}}, "dtype": "float32", "beta_regularizer": null, "name": "batch_normalization_56", "momentum": 0.99, "moving_mean_initializer": {"class_name": "Zeros", "config": {}}, "beta_constraint": null, "gamma_regularizer": null, "center": true, "gamma_constraint": null, "axis": -1, "epsilon": 0.001, "trainable": true}, "inbound_nodes": [[["hg1_l1_conv_1x1_x3", 0, 0, {}]]]}, {"class_name": "Add", "name": "hg1_l1_residual", "config": {"name": "hg1_l1_residual", "trainable": true, "dtype": "float32"}, "inbound_nodes": [[["add_5", 0, 0, {}], ["batch_normalization_56", 0, 0, {}]]]}, {"class_name": "MaxPooling2D", "name": "max_pooling2d_5", "config": {"name": "max_pooling2d_5", "pool_size": [2, 2], "trainable": true, "strides": [2, 2], "padding": "valid", "dtype": "float32", "data_format": "channels_last"}, "inbound_nodes": [[["hg1_l1_residual", 0, 0, {}]]]}, {"class_name": "Conv2D", "name": "hg1_l2_conv_1x1_x1", "config": {"activity_regularizer": null, "kernel_constraint": null, "data_format": "channels_last", "kernel_size": [1, 1], "dilation_rate": [1, 1], "name": "hg1_l2_conv_1x1_x1", "use_bias": true, "kernel_regularizer": null, "kernel_initializer": {"class_name": "VarianceScaling", "config": {"distribution": "uniform", "scale": 1.0, "mode": "fan_avg", "seed": null}}, "trainable": true, "bias_constraint": null, "strides": [1, 1], "bias_regularizer": null, "bias_initializer": {"class_name": "Zeros", "config": {}}, "padding": "same", "dtype": "float32", "activation": "relu", "filters": 64}, "inbound_nodes": [[["max_pooling2d_5", 0, 0, {}]]]}, {"class_name": "BatchNormalization", "name": "batch_normalization_57", "config": {"scale": true, "beta_initializer": {"class_name": "Zeros", "config": {}}, "gamma_initializer": {"class_name": "Ones", "config": {}}, "moving_variance_initializer": {"class_name": "Ones", "config": {}}, "dtype": "float32", "beta_regularizer": null, "name": "batch_normalization_57", "momentum": 0.99, "moving_mean_initializer": {"class_name": "Zeros", "config": {}}, "beta_constraint": null, "gamma_regularizer": null, "center": true, "gamma_constraint": null, "axis": -1, "epsilon": 0.001, "trainable": true}, "inbound_nodes": [[["hg1_l2_conv_1x1_x1", 0, 0, {}]]]}, {"class_name": "Conv2D", "name": "hg1_l2_conv_3x3_x2", "config": {"activity_regularizer": null, "kernel_constraint": null, "data_format": "channels_last", "kernel_size": [3, 3], "dilation_rate": [1, 1], "name": "hg1_l2_conv_3x3_x2", "use_bias": true, "kernel_regularizer": null, "kernel_initializer": {"class_name": "VarianceScaling", "config": {"distribution": "uniform", "scale": 1.0, "mode": "fan_avg", "seed": null}}, "trainable": true, "bias_constraint": null, "strides": [1, 1], "bias_regularizer": null, "bias_initializer": {"class_name": "Zeros", "config": {}}, "padding": "same", "dtype": "float32", "activation": "relu", "filters": 64}, "inbound_nodes": [[["batch_normalization_57", 0, 0, {}]]]}, {"class_name": "BatchNormalization", "name": "batch_normalization_58", "config": {"scale": true, "beta_initializer": {"class_name": "Zeros", "config": {}}, "gamma_initializer": {"class_name": "Ones", "config": {}}, "moving_variance_initializer": {"class_name": "Ones", "config": {}}, "dtype": "float32", "beta_regularizer": null, "name": "batch_normalization_58", "momentum": 0.99, "moving_mean_initializer": {"class_name": "Zeros", "config": {}}, "beta_constraint": null, "gamma_regularizer": null, "center": true, "gamma_constraint": null, "axis": -1, "epsilon": 0.001, "trainable": true}, "inbound_nodes": [[["hg1_l2_conv_3x3_x2", 0, 0, {}]]]}, {"class_name": "Conv2D", "name": "hg1_l2_conv_1x1_x3", "config": {"activity_regularizer": null, "kernel_constraint": null, "data_format": "channels_last", "kernel_size": [1, 1], "dilation_rate": [1, 1], "name": "hg1_l2_conv_1x1_x3", "use_bias": true, "kernel_regularizer": null, "kernel_initializer": {"class_name": "VarianceScaling", "config": {"distribution": "uniform", "scale": 1.0, "mode": "fan_avg", "seed": null}}, "trainable": true, "bias_constraint": null, "strides": [1, 1], "bias_regularizer": null, "bias_initializer": {"class_name": "Zeros", "config": {}}, "padding": "same", "dtype": "float32", "activation": "relu", "filters": 128}, "inbound_nodes": [[["batch_normalization_58", 0, 0, {}]]]}, {"class_name": "BatchNormalization", "name": "batch_normalization_59", "config": {"scale": true, "beta_initializer": {"class_name": "Zeros", "config": {}}, "gamma_initializer": {"class_name": "Ones", "config": {}}, "moving_variance_initializer": {"class_name": "Ones", "config": {}}, "dtype": "float32", "beta_regularizer": null, "name": "batch_normalization_59", "momentum": 0.99, "moving_mean_initializer": {"class_name": "Zeros", "config": {}}, "beta_constraint": null, "gamma_regularizer": null, "center": true, "gamma_constraint": null, "axis": -1, "epsilon": 0.001, "trainable": true}, "inbound_nodes": [[["hg1_l2_conv_1x1_x3", 0, 0, {}]]]}, {"class_name": "Add", "name": "hg1_l2_residual", "config": {"name": "hg1_l2_residual", "trainable": true, "dtype": "float32"}, "inbound_nodes": [[["max_pooling2d_5", 0, 0, {}], ["batch_normalization_59", 0, 0, {}]]]}, {"class_name": "MaxPooling2D", "name": "max_pooling2d_6", "config": {"name": "max_pooling2d_6", "pool_size": [2, 2], "trainable": true, "strides": [2, 2], "padding": "valid", "dtype": "float32", "data_format": "channels_last"}, "inbound_nodes": [[["hg1_l2_residual", 0, 0, {}]]]}, {"class_name": "Conv2D", "name": "hg1_l4_conv_1x1_x1", "config": {"activity_regularizer": null, "kernel_constraint": null, "data_format": "channels_last", "kernel_size": [1, 1], "dilation_rate": [1, 1], "name": "hg1_l4_conv_1x1_x1", "use_bias": true, "kernel_regularizer": null, "kernel_initializer": {"class_name": "VarianceScaling", "config": {"distribution": "uniform", "scale": 1.0, "mode": "fan_avg", "seed": null}}, "trainable": true, "bias_constraint": null, "strides": [1, 1], "bias_regularizer": null, "bias_initializer": {"class_name": "Zeros", "config": {}}, "padding": "same", "dtype": "float32", "activation": "relu", "filters": 64}, "inbound_nodes": [[["max_pooling2d_6", 0, 0, {}]]]}, {"class_name": "BatchNormalization", "name": "batch_normalization_60", "config": {"scale": true, "beta_initializer": {"class_name": "Zeros", "config": {}}, "gamma_initializer": {"class_name": "Ones", "config": {}}, "moving_variance_initializer": {"class_name": "Ones", "config": {}}, "dtype": "float32", "beta_regularizer": null, "name": "batch_normalization_60", "momentum": 0.99, "moving_mean_initializer": {"class_name": "Zeros", "config": {}}, "beta_constraint": null, "gamma_regularizer": null, "center": true, "gamma_constraint": null, "axis": -1, "epsilon": 0.001, "trainable": true}, "inbound_nodes": [[["hg1_l4_conv_1x1_x1", 0, 0, {}]]]}, {"class_name": "Conv2D", "name": "hg1_l4_conv_3x3_x2", "config": {"activity_regularizer": null, "kernel_constraint": null, "data_format": "channels_last", "kernel_size": [3, 3], "dilation_rate": [1, 1], "name": "hg1_l4_conv_3x3_x2", "use_bias": true, "kernel_regularizer": null, "kernel_initializer": {"class_name": "VarianceScaling", "config": {"distribution": "uniform", "scale": 1.0, "mode": "fan_avg", "seed": null}}, "trainable": true, "bias_constraint": null, "strides": [1, 1], "bias_regularizer": null, "bias_initializer": {"class_name": "Zeros", "config": {}}, "padding": "same", "dtype": "float32", "activation": "relu", "filters": 64}, "inbound_nodes": [[["batch_normalization_60", 0, 0, {}]]]}, {"class_name": "BatchNormalization", "name": "batch_normalization_61", "config": {"scale": true, "beta_initializer": {"class_name": "Zeros", "config": {}}, "gamma_initializer": {"class_name": "Ones", "config": {}}, "moving_variance_initializer": {"class_name": "Ones", "config": {}}, "dtype": "float32", "beta_regularizer": null, "name": "batch_normalization_61", "momentum": 0.99, "moving_mean_initializer": {"class_name": "Zeros", "config": {}}, "beta_constraint": null, "gamma_regularizer": null, "center": true, "gamma_constraint": null, "axis": -1, "epsilon": 0.001, "trainable": true}, "inbound_nodes": [[["hg1_l4_conv_3x3_x2", 0, 0, {}]]]}, {"class_name": "Conv2D", "name": "hg1_l4_conv_1x1_x3", "config": {"activity_regularizer": null, "kernel_constraint": null, "data_format": "channels_last", "kernel_size": [1, 1], "dilation_rate": [1, 1], "name": "hg1_l4_conv_1x1_x3", "use_bias": true, "kernel_regularizer": null, "kernel_initializer": {"class_name": "VarianceScaling", "config": {"distribution": "uniform", "scale": 1.0, "mode": "fan_avg", "seed": null}}, "trainable": true, "bias_constraint": null, "strides": [1, 1], "bias_regularizer": null, "bias_initializer": {"class_name": "Zeros", "config": {}}, "padding": "same", "dtype": "float32", "activation": "relu", "filters": 128}, "inbound_nodes": [[["batch_normalization_61", 0, 0, {}]]]}, {"class_name": "BatchNormalization", "name": "batch_normalization_62", "config": {"scale": true, "beta_initializer": {"class_name": "Zeros", "config": {}}, "gamma_initializer": {"class_name": "Ones", "config": {}}, "moving_variance_initializer": {"class_name": "Ones", "config": {}}, "dtype": "float32", "beta_regularizer": null, "name": "batch_normalization_62", "momentum": 0.99, "moving_mean_initializer": {"class_name": "Zeros", "config": {}}, "beta_constraint": null, "gamma_regularizer": null, "center": true, "gamma_constraint": null, "axis": -1, "epsilon": 0.001, "trainable": true}, "inbound_nodes": [[["hg1_l4_conv_1x1_x3", 0, 0, {}]]]}, {"class_name": "Add", "name": "hg1_l4_residual", "config": {"name": "hg1_l4_residual", "trainable": true, "dtype": "float32"}, "inbound_nodes": [[["max_pooling2d_6", 0, 0, {}], ["batch_normalization_62", 0, 0, {}]]]}, {"class_name": "MaxPooling2D", "name": "max_pooling2d_7", "config": {"name": "max_pooling2d_7", "pool_size": [2, 2], "trainable": true, "strides": [2, 2], "padding": "valid", "dtype": "float32", "data_format": "channels_last"}, "inbound_nodes": [[["hg1_l4_residual", 0, 0, {}]]]}, {"class_name": "Conv2D", "name": "hg1_l8_conv_1x1_x1", "config": {"activity_regularizer": null, "kernel_constraint": null, "data_format": "channels_last", "kernel_size": [1, 1], "dilation_rate": [1, 1], "name": "hg1_l8_conv_1x1_x1", "use_bias": true, "kernel_regularizer": null, "kernel_initializer": {"class_name": "VarianceScaling", "config": {"distribution": "uniform", "scale": 1.0, "mode": "fan_avg", "seed": null}}, "trainable": true, "bias_constraint": null, "strides": [1, 1], "bias_regularizer": null, "bias_initializer": {"class_name": "Zeros", "config": {}}, "padding": "same", "dtype": "float32", "activation": "relu", "filters": 64}, "inbound_nodes": [[["max_pooling2d_7", 0, 0, {}]]]}, {"class_name": "BatchNormalization", "name": "batch_normalization_63", "config": {"scale": true, "beta_initializer": {"class_name": "Zeros", "config": {}}, "gamma_initializer": {"class_name": "Ones", "config": {}}, "moving_variance_initializer": {"class_name": "Ones", "config": {}}, "dtype": "float32", "beta_regularizer": null, "name": "batch_normalization_63", "momentum": 0.99, "moving_mean_initializer": {"class_name": "Zeros", "config": {}}, "beta_constraint": null, "gamma_regularizer": null, "center": true, "gamma_constraint": null, "axis": -1, "epsilon": 0.001, "trainable": true}, "inbound_nodes": [[["hg1_l8_conv_1x1_x1", 0, 0, {}]]]}, {"class_name": "Conv2D", "name": "hg1_l8_conv_3x3_x2", "config": {"activity_regularizer": null, "kernel_constraint": null, "data_format": "channels_last", "kernel_size": [3, 3], "dilation_rate": [1, 1], "name": "hg1_l8_conv_3x3_x2", "use_bias": true, "kernel_regularizer": null, "kernel_initializer": {"class_name": "VarianceScaling", "config": {"distribution": "uniform", "scale": 1.0, "mode": "fan_avg", "seed": null}}, "trainable": true, "bias_constraint": null, "strides": [1, 1], "bias_regularizer": null, "bias_initializer": {"class_name": "Zeros", "config": {}}, "padding": "same", "dtype": "float32", "activation": "relu", "filters": 64}, "inbound_nodes": [[["batch_normalization_63", 0, 0, {}]]]}, {"class_name": "BatchNormalization", "name": "batch_normalization_64", "config": {"scale": true, "beta_initializer": {"class_name": "Zeros", "config": {}}, "gamma_initializer": {"class_name": "Ones", "config": {}}, "moving_variance_initializer": {"class_name": "Ones", "config": {}}, "dtype": "float32", "beta_regularizer": null, "name": "batch_normalization_64", "momentum": 0.99, "moving_mean_initializer": {"class_name": "Zeros", "config": {}}, "beta_constraint": null, "gamma_regularizer": null, "center": true, "gamma_constraint": null, "axis": -1, "epsilon": 0.001, "trainable": true}, "inbound_nodes": [[["hg1_l8_conv_3x3_x2", 0, 0, {}]]]}, {"class_name": "Conv2D", "name": "hg1_l8_conv_1x1_x3", "config": {"activity_regularizer": null, "kernel_constraint": null, "data_format": "channels_last", "kernel_size": [1, 1], "dilation_rate": [1, 1], "name": "hg1_l8_conv_1x1_x3", "use_bias": true, "kernel_regularizer": null, "kernel_initializer": {"class_name": "VarianceScaling", "config": {"distribution": "uniform", "scale": 1.0, "mode": "fan_avg", "seed": null}}, "trainable": true, "bias_constraint": null, "strides": [1, 1], "bias_regularizer": null, "bias_initializer": {"class_name": "Zeros", "config": {}}, "padding": "same", "dtype": "float32", "activation": "relu", "filters": 128}, "inbound_nodes": [[["batch_normalization_64", 0, 0, {}]]]}, {"class_name": "BatchNormalization", "name": "batch_normalization_65", "config": {"scale": true, "beta_initializer": {"class_name": "Zeros", "config": {}}, "gamma_initializer": {"class_name": "Ones", "config": {}}, "moving_variance_initializer": {"class_name": "Ones", "config": {}}, "dtype": "float32", "beta_regularizer": null, "name": "batch_normalization_65", "momentum": 0.99, "moving_mean_initializer": {"class_name": "Zeros", "config": {}}, "beta_constraint": null, "gamma_regularizer": null, "center": true, "gamma_constraint": null, "axis": -1, "epsilon": 0.001, "trainable": true}, "inbound_nodes": [[["hg1_l8_conv_1x1_x3", 0, 0, {}]]]}, {"class_name": "Add", "name": "hg1_l8_residual", "config": {"name": "hg1_l8_residual", "trainable": true, "dtype": "float32"}, "inbound_nodes": [[["max_pooling2d_7", 0, 0, {}], ["batch_normalization_65", 0, 0, {}]]]}, {"class_name": "Conv2D", "name": "1_lf8_x1_conv_1x1_x1", "config": {"activity_regularizer": null, "kernel_constraint": null, "data_format": "channels_last", "kernel_size": [1, 1], "dilation_rate": [1, 1], "name": "1_lf8_x1_conv_1x1_x1", "use_bias": true, "kernel_regularizer": null, "kernel_initializer": {"class_name": "VarianceScaling", "config": {"distribution": "uniform", "scale": 1.0, "mode": "fan_avg", "seed": null}}, "trainable": true, "bias_constraint": null, "strides": [1, 1], "bias_regularizer": null, "bias_initializer": {"class_name": "Zeros", "config": {}}, "padding": "same", "dtype": "float32", "activation": "relu", "filters": 64}, "inbound_nodes": [[["hg1_l8_residual", 0, 0, {}]]]}, {"class_name": "BatchNormalization", "name": "batch_normalization_69", "config": {"scale": true, "beta_initializer": {"class_name": "Zeros", "config": {}}, "gamma_initializer": {"class_name": "Ones", "config": {}}, "moving_variance_initializer": {"class_name": "Ones", "config": {}}, "dtype": "float32", "beta_regularizer": null, "name": "batch_normalization_69", "momentum": 0.99, "moving_mean_initializer": {"class_name": "Zeros", "config": {}}, "beta_constraint": null, "gamma_regularizer": null, "center": true, "gamma_constraint": null, "axis": -1, "epsilon": 0.001, "trainable": true}, "inbound_nodes": [[["1_lf8_x1_conv_1x1_x1", 0, 0, {}]]]}, {"class_name": "Conv2D", "name": "1_lf8_x1_conv_3x3_x2", "config": {"activity_regularizer": null, "kernel_constraint": null, "data_format": "channels_last", "kernel_size": [3, 3], "dilation_rate": [1, 1], "name": "1_lf8_x1_conv_3x3_x2", "use_bias": true, "kernel_regularizer": null, "kernel_initializer": {"class_name": "VarianceScaling", "config": {"distribution": "uniform", "scale": 1.0, "mode": "fan_avg", "seed": null}}, "trainable": true, "bias_constraint": null, "strides": [1, 1], "bias_regularizer": null, "bias_initializer": {"class_name": "Zeros", "config": {}}, "padding": "same", "dtype": "float32", "activation": "relu", "filters": 64}, "inbound_nodes": [[["batch_normalization_69", 0, 0, {}]]]}, {"class_name": "BatchNormalization", "name": "batch_normalization_70", "config": {"scale": true, "beta_initializer": {"class_name": "Zeros", "config": {}}, "gamma_initializer": {"class_name": "Ones", "config": {}}, "moving_variance_initializer": {"class_name": "Ones", "config": {}}, "dtype": "float32", "beta_regularizer": null, "name": "batch_normalization_70", "momentum": 0.99, "moving_mean_initializer": {"class_name": "Zeros", "config": {}}, "beta_constraint": null, "gamma_regularizer": null, "center": true, "gamma_constraint": null, "axis": -1, "epsilon": 0.001, "trainable": true}, "inbound_nodes": [[["1_lf8_x1_conv_3x3_x2", 0, 0, {}]]]}, {"class_name": "Conv2D", "name": "1_lf8_x1_conv_1x1_x3", "config": {"activity_regularizer": null, "kernel_constraint": null, "data_format": "channels_last", "kernel_size": [1, 1], "dilation_rate": [1, 1], "name": "1_lf8_x1_conv_1x1_x3", "use_bias": true, "kernel_regularizer": null, "kernel_initializer": {"class_name": "VarianceScaling", "config": {"distribution": "uniform", "scale": 1.0, "mode": "fan_avg", "seed": null}}, "trainable": true, "bias_constraint": null, "strides": [1, 1], "bias_regularizer": null, "bias_initializer": {"class_name": "Zeros", "config": {}}, "padding": "same", "dtype": "float32", "activation": "relu", "filters": 128}, "inbound_nodes": [[["batch_normalization_70", 0, 0, {}]]]}, {"class_name": "BatchNormalization", "name": "batch_normalization_71", "config": {"scale": true, "beta_initializer": {"class_name": "Zeros", "config": {}}, "gamma_initializer": {"class_name": "Ones", "config": {}}, "moving_variance_initializer": {"class_name": "Ones", "config": {}}, "dtype": "float32", "beta_regularizer": null, "name": "batch_normalization_71", "momentum": 0.99, "moving_mean_initializer": {"class_name": "Zeros", "config": {}}, "beta_constraint": null, "gamma_regularizer": null, "center": true, "gamma_constraint": null, "axis": -1, "epsilon": 0.001, "trainable": true}, "inbound_nodes": [[["1_lf8_x1_conv_1x1_x3", 0, 0, {}]]]}, {"class_name": "Add", "name": "1_lf8_x1_residual", "config": {"name": "1_lf8_x1_residual", "trainable": true, "dtype": "float32"}, "inbound_nodes": [[["hg1_l8_residual", 0, 0, {}], ["batch_normalization_71", 0, 0, {}]]]}, {"class_name": "Conv2D", "name": "1_lf8_x2_conv_1x1_x1", "config": {"activity_regularizer": null, "kernel_constraint": null, "data_format": "channels_last", "kernel_size": [1, 1], "dilation_rate": [1, 1], "name": "1_lf8_x2_conv_1x1_x1", "use_bias": true, "kernel_regularizer": null, "kernel_initializer": {"class_name": "VarianceScaling", "config": {"distribution": "uniform", "scale": 1.0, "mode": "fan_avg", "seed": null}}, "trainable": true, "bias_constraint": null, "strides": [1, 1], "bias_regularizer": null, "bias_initializer": {"class_name": "Zeros", "config": {}}, "padding": "same", "dtype": "float32", "activation": "relu", "filters": 64}, "inbound_nodes": [[["1_lf8_x1_residual", 0, 0, {}]]]}, {"class_name": "BatchNormalization", "name": "batch_normalization_72", "config": {"scale": true, "beta_initializer": {"class_name": "Zeros", "config": {}}, "gamma_initializer": {"class_name": "Ones", "config": {}}, "moving_variance_initializer": {"class_name": "Ones", "config": {}}, "dtype": "float32", "beta_regularizer": null, "name": "batch_normalization_72", "momentum": 0.99, "moving_mean_initializer": {"class_name": "Zeros", "config": {}}, "beta_constraint": null, "gamma_regularizer": null, "center": true, "gamma_constraint": null, "axis": -1, "epsilon": 0.001, "trainable": true}, "inbound_nodes": [[["1_lf8_x2_conv_1x1_x1", 0, 0, {}]]]}, {"class_name": "Conv2D", "name": "1_lf8_x2_conv_3x3_x2", "config": {"activity_regularizer": null, "kernel_constraint": null, "data_format": "channels_last", "kernel_size": [3, 3], "dilation_rate": [1, 1], "name": "1_lf8_x2_conv_3x3_x2", "use_bias": true, "kernel_regularizer": null, "kernel_initializer": {"class_name": "VarianceScaling", "config": {"distribution": "uniform", "scale": 1.0, "mode": "fan_avg", "seed": null}}, "trainable": true, "bias_constraint": null, "strides": [1, 1], "bias_regularizer": null, "bias_initializer": {"class_name": "Zeros", "config": {}}, "padding": "same", "dtype": "float32", "activation": "relu", "filters": 64}, "inbound_nodes": [[["batch_normalization_72", 0, 0, {}]]]}, {"class_name": "BatchNormalization", "name": "batch_normalization_73", "config": {"scale": true, "beta_initializer": {"class_name": "Zeros", "config": {}}, "gamma_initializer": {"class_name": "Ones", "config": {}}, "moving_variance_initializer": {"class_name": "Ones", "config": {}}, "dtype": "float32", "beta_regularizer": null, "name": "batch_normalization_73", "momentum": 0.99, "moving_mean_initializer": {"class_name": "Zeros", "config": {}}, "beta_constraint": null, "gamma_regularizer": null, "center": true, "gamma_constraint": null, "axis": -1, "epsilon": 0.001, "trainable": true}, "inbound_nodes": [[["1_lf8_x2_conv_3x3_x2", 0, 0, {}]]]}, {"class_name": "Conv2D", "name": "1_lf8_x2_conv_1x1_x3", "config": {"activity_regularizer": null, "kernel_constraint": null, "data_format": "channels_last", "kernel_size": [1, 1], "dilation_rate": [1, 1], "name": "1_lf8_x2_conv_1x1_x3", "use_bias": true, "kernel_regularizer": null, "kernel_initializer": {"class_name": "VarianceScaling", "config": {"distribution": "uniform", "scale": 1.0, "mode": "fan_avg", "seed": null}}, "trainable": true, "bias_constraint": null, "strides": [1, 1], "bias_regularizer": null, "bias_initializer": {"class_name": "Zeros", "config": {}}, "padding": "same", "dtype": "float32", "activation": "relu", "filters": 128}, "inbound_nodes": [[["batch_normalization_73", 0, 0, {}]]]}, {"class_name": "BatchNormalization", "name": "batch_normalization_74", "config": {"scale": true, "beta_initializer": {"class_name": "Zeros", "config": {}}, "gamma_initializer": {"class_name": "Ones", "config": {}}, "moving_variance_initializer": {"class_name": "Ones", "config": {}}, "dtype": "float32", "beta_regularizer": null, "name": "batch_normalization_74", "momentum": 0.99, "moving_mean_initializer": {"class_name": "Zeros", "config": {}}, "beta_constraint": null, "gamma_regularizer": null, "center": true, "gamma_constraint": null, "axis": -1, "epsilon": 0.001, "trainable": true}, "inbound_nodes": [[["1_lf8_x2_conv_1x1_x3", 0, 0, {}]]]}, {"class_name": "Add", "name": "1_lf8_x2_residual", "config": {"name": "1_lf8_x2_residual", "trainable": true, "dtype": "float32"}, "inbound_nodes": [[["1_lf8_x1_residual", 0, 0, {}], ["batch_normalization_74", 0, 0, {}]]]}, {"class_name": "Conv2D", "name": "1_lf8_x3_conv_1x1_x1", "config": {"activity_regularizer": null, "kernel_constraint": null, "data_format": "channels_last", "kernel_size": [1, 1], "dilation_rate": [1, 1], "name": "1_lf8_x3_conv_1x1_x1", "use_bias": true, "kernel_regularizer": null, "kernel_initializer": {"class_name": "VarianceScaling", "config": {"distribution": "uniform", "scale": 1.0, "mode": "fan_avg", "seed": null}}, "trainable": true, "bias_constraint": null, "strides": [1, 1], "bias_regularizer": null, "bias_initializer": {"class_name": "Zeros", "config": {}}, "padding": "same", "dtype": "float32", "activation": "relu", "filters": 64}, "inbound_nodes": [[["1_lf8_x2_residual", 0, 0, {}]]]}, {"class_name": "Conv2D", "name": "1_lf8_conv_1x1_x1", "config": {"activity_regularizer": null, "kernel_constraint": null, "data_format": "channels_last", "kernel_size": [1, 1], "dilation_rate": [1, 1], "name": "1_lf8_conv_1x1_x1", "use_bias": true, "kernel_regularizer": null, "kernel_initializer": {"class_name": "VarianceScaling", "config": {"distribution": "uniform", "scale": 1.0, "mode": "fan_avg", "seed": null}}, "trainable": true, "bias_constraint": null, "strides": [1, 1], "bias_regularizer": null, "bias_initializer": {"class_name": "Zeros", "config": {}}, "padding": "same", "dtype": "float32", "activation": "relu", "filters": 64}, "inbound_nodes": [[["hg1_l8_residual", 0, 0, {}]]]}, {"class_name": "BatchNormalization", "name": "batch_normalization_75", "config": {"scale": true, "beta_initializer": {"class_name": "Zeros", "config": {}}, "gamma_initializer": {"class_name": "Ones", "config": {}}, "moving_variance_initializer": {"class_name": "Ones", "config": {}}, "dtype": "float32", "beta_regularizer": null, "name": "batch_normalization_75", "momentum": 0.99, "moving_mean_initializer": {"class_name": "Zeros", "config": {}}, "beta_constraint": null, "gamma_regularizer": null, "center": true, "gamma_constraint": null, "axis": -1, "epsilon": 0.001, "trainable": true}, "inbound_nodes": [[["1_lf8_x3_conv_1x1_x1", 0, 0, {}]]]}, {"class_name": "BatchNormalization", "name": "batch_normalization_66", "config": {"scale": true, "beta_initializer": {"class_name": "Zeros", "config": {}}, "gamma_initializer": {"class_name": "Ones", "config": {}}, "moving_variance_initializer": {"class_name": "Ones", "config": {}}, "dtype": "float32", "beta_regularizer": null, "name": "batch_normalization_66", "momentum": 0.99, "moving_mean_initializer": {"class_name": "Zeros", "config": {}}, "beta_constraint": null, "gamma_regularizer": null, "center": true, "gamma_constraint": null, "axis": -1, "epsilon": 0.001, "trainable": true}, "inbound_nodes": [[["1_lf8_conv_1x1_x1", 0, 0, {}]]]}, {"class_name": "Conv2D", "name": "hg1_rf4_connect_conv_1x1_x1", "config": {"activity_regularizer": null, "kernel_constraint": null, "data_format": "channels_last", "kernel_size": [1, 1], "dilation_rate": [1, 1], "name": "hg1_rf4_connect_conv_1x1_x1", "use_bias": true, "kernel_regularizer": null, "kernel_initializer": {"class_name": "VarianceScaling", "config": {"distribution": "uniform", "scale": 1.0, "mode": "fan_avg", "seed": null}}, "trainable": true, "bias_constraint": null, "strides": [1, 1], "bias_regularizer": null, "bias_initializer": {"class_name": "Zeros", "config": {}}, "padding": "same", "dtype": "float32", "activation": "relu", "filters": 64}, "inbound_nodes": [[["hg1_l4_residual", 0, 0, {}]]]}, {"class_name": "Conv2D", "name": "1_lf8_x3_conv_3x3_x2", "config": {"activity_regularizer": null, "kernel_constraint": null, "data_format": "channels_last", "kernel_size": [3, 3], "dilation_rate": [1, 1], "name": "1_lf8_x3_conv_3x3_x2", "use_bias": true, "kernel_regularizer": null, "kernel_initializer": {"class_name": "VarianceScaling", "config": {"distribution": "uniform", "scale": 1.0, "mode": "fan_avg", "seed": null}}, "trainable": true, "bias_constraint": null, "strides": [1, 1], "bias_regularizer": null, "bias_initializer": {"class_name": "Zeros", "config": {}}, "padding": "same", "dtype": "float32", "activation": "relu", "filters": 64}, "inbound_nodes": [[["batch_normalization_75", 0, 0, {}]]]}, {"class_name": "Conv2D", "name": "1_lf8_conv_3x3_x2", "config": {"activity_regularizer": null, "kernel_constraint": null, "data_format": "channels_last", "kernel_size": [3, 3], "dilation_rate": [1, 1], "name": "1_lf8_conv_3x3_x2", "use_bias": true, "kernel_regularizer": null, "kernel_initializer": {"class_name": "VarianceScaling", "config": {"distribution": "uniform", "scale": 1.0, "mode": "fan_avg", "seed": null}}, "trainable": true, "bias_constraint": null, "strides": [1, 1], "bias_regularizer": null, "bias_initializer": {"class_name": "Zeros", "config": {}}, "padding": "same", "dtype": "float32", "activation": "relu", "filters": 64}, "inbound_nodes": [[["batch_normalization_66", 0, 0, {}]]]}, {"class_name": "BatchNormalization", "name": "batch_normalization_78", "config": {"scale": true, "beta_initializer": {"class_name": "Zeros", "config": {}}, "gamma_initializer": {"class_name": "Ones", "config": {}}, "moving_variance_initializer": {"class_name": "Ones", "config": {}}, "dtype": "float32", "beta_regularizer": null, "name": "batch_normalization_78", "momentum": 0.99, "moving_mean_initializer": {"class_name": "Zeros", "config": {}}, "beta_constraint": null, "gamma_regularizer": null, "center": true, "gamma_constraint": null, "axis": -1, "epsilon": 0.001, "trainable": true}, "inbound_nodes": [[["hg1_rf4_connect_conv_1x1_x1", 0, 0, {}]]]}, {"class_name": "BatchNormalization", "name": "batch_normalization_76", "config": {"scale": true, "beta_initializer": {"class_name": "Zeros", "config": {}}, "gamma_initializer": {"class_name": "Ones", "config": {}}, "moving_variance_initializer": {"class_name": "Ones", "config": {}}, "dtype": "float32", "beta_regularizer": null, "name": "batch_normalization_76", "momentum": 0.99, "moving_mean_initializer": {"class_name": "Zeros", "config": {}}, "beta_constraint": null, "gamma_regularizer": null, "center": true, "gamma_constraint": null, "axis": -1, "epsilon": 0.001, "trainable": true}, "inbound_nodes": [[["1_lf8_x3_conv_3x3_x2", 0, 0, {}]]]}, {"class_name": "BatchNormalization", "name": "batch_normalization_67", "config": {"scale": true, "beta_initializer": {"class_name": "Zeros", "config": {}}, "gamma_initializer": {"class_name": "Ones", "config": {}}, "moving_variance_initializer": {"class_name": "Ones", "config": {}}, "dtype": "float32", "beta_regularizer": null, "name": "batch_normalization_67", "momentum": 0.99, "moving_mean_initializer": {"class_name": "Zeros", "config": {}}, "beta_constraint": null, "gamma_regularizer": null, "center": true, "gamma_constraint": null, "axis": -1, "epsilon": 0.001, "trainable": true}, "inbound_nodes": [[["1_lf8_conv_3x3_x2", 0, 0, {}]]]}, {"class_name": "Conv2D", "name": "hg1_rf4_connect_conv_3x3_x2", "config": {"activity_regularizer": null, "kernel_constraint": null, "data_format": "channels_last", "kernel_size": [3, 3], "dilation_rate": [1, 1], "name": "hg1_rf4_connect_conv_3x3_x2", "use_bias": true, "kernel_regularizer": null, "kernel_initializer": {"class_name": "VarianceScaling", "config": {"distribution": "uniform", "scale": 1.0, "mode": "fan_avg", "seed": null}}, "trainable": true, "bias_constraint": null, "strides": [1, 1], "bias_regularizer": null, "bias_initializer": {"class_name": "Zeros", "config": {}}, "padding": "same", "dtype": "float32", "activation": "relu", "filters": 64}, "inbound_nodes": [[["batch_normalization_78", 0, 0, {}]]]}, {"class_name": "Conv2D", "name": "1_lf8_x3_conv_1x1_x3", "config": {"activity_regularizer": null, "kernel_constraint": null, "data_format": "channels_last", "kernel_size": [1, 1], "dilation_rate": [1, 1], "name": "1_lf8_x3_conv_1x1_x3", "use_bias": true, "kernel_regularizer": null, "kernel_initializer": {"class_name": "VarianceScaling", "config": {"distribution": "uniform", "scale": 1.0, "mode": "fan_avg", "seed": null}}, "trainable": true, "bias_constraint": null, "strides": [1, 1], "bias_regularizer": null, "bias_initializer": {"class_name": "Zeros", "config": {}}, "padding": "same", "dtype": "float32", "activation": "relu", "filters": 128}, "inbound_nodes": [[["batch_normalization_76", 0, 0, {}]]]}, {"class_name": "Conv2D", "name": "1_lf8_conv_1x1_x3", "config": {"activity_regularizer": null, "kernel_constraint": null, "data_format": "channels_last", "kernel_size": [1, 1], "dilation_rate": [1, 1], "name": "1_lf8_conv_1x1_x3", "use_bias": true, "kernel_regularizer": null, "kernel_initializer": {"class_name": "VarianceScaling", "config": {"distribution": "uniform", "scale": 1.0, "mode": "fan_avg", "seed": null}}, "trainable": true, "bias_constraint": null, "strides": [1, 1], "bias_regularizer": null, "bias_initializer": {"class_name": "Zeros", "config": {}}, "padding": "same", "dtype": "float32", "activation": "relu", "filters": 128}, "inbound_nodes": [[["batch_normalization_67", 0, 0, {}]]]}, {"class_name": "BatchNormalization", "name": "batch_normalization_79", "config": {"scale": true, "beta_initializer": {"class_name": "Zeros", "config": {}}, "gamma_initializer": {"class_name": "Ones", "config": {}}, "moving_variance_initializer": {"class_name": "Ones", "config": {}}, "dtype": "float32", "beta_regularizer": null, "name": "batch_normalization_79", "momentum": 0.99, "moving_mean_initializer": {"class_name": "Zeros", "config": {}}, "beta_constraint": null, "gamma_regularizer": null, "center": true, "gamma_constraint": null, "axis": -1, "epsilon": 0.001, "trainable": true}, "inbound_nodes": [[["hg1_rf4_connect_conv_3x3_x2", 0, 0, {}]]]}, {"class_name": "BatchNormalization", "name": "batch_normalization_77", "config": {"scale": true, "beta_initializer": {"class_name": "Zeros", "config": {}}, "gamma_initializer": {"class_name": "Ones", "config": {}}, "moving_variance_initializer": {"class_name": "Ones", "config": {}}, "dtype": "float32", "beta_regularizer": null, "name": "batch_normalization_77", "momentum": 0.99, "moving_mean_initializer": {"class_name": "Zeros", "config": {}}, "beta_constraint": null, "gamma_regularizer": null, "center": true, "gamma_constraint": null, "axis": -1, "epsilon": 0.001, "trainable": true}, "inbound_nodes": [[["1_lf8_x3_conv_1x1_x3", 0, 0, {}]]]}, {"class_name": "BatchNormalization", "name": "batch_normalization_68", "config": {"scale": true, "beta_initializer": {"class_name": "Zeros", "config": {}}, "gamma_initializer": {"class_name": "Ones", "config": {}}, "moving_variance_initializer": {"class_name": "Ones", "config": {}}, "dtype": "float32", "beta_regularizer": null, "name": "batch_normalization_68", "momentum": 0.99, "moving_mean_initializer": {"class_name": "Zeros", "config": {}}, "beta_constraint": null, "gamma_regularizer": null, "center": true, "gamma_constraint": null, "axis": -1, "epsilon": 0.001, "trainable": true}, "inbound_nodes": [[["1_lf8_conv_1x1_x3", 0, 0, {}]]]}, {"class_name": "Conv2D", "name": "hg1_rf4_connect_conv_1x1_x3", "config": {"activity_regularizer": null, "kernel_constraint": null, "data_format": "channels_last", "kernel_size": [1, 1], "dilation_rate": [1, 1], "name": "hg1_rf4_connect_conv_1x1_x3", "use_bias": true, "kernel_regularizer": null, "kernel_initializer": {"class_name": "VarianceScaling", "config": {"distribution": "uniform", "scale": 1.0, "mode": "fan_avg", "seed": null}}, "trainable": true, "bias_constraint": null, "strides": [1, 1], "bias_regularizer": null, "bias_initializer": {"class_name": "Zeros", "config": {}}, "padding": "same", "dtype": "float32", "activation": "relu", "filters": 128}, "inbound_nodes": [[["batch_normalization_79", 0, 0, {}]]]}, {"class_name": "Add", "name": "1_lf8_x3_residual", "config": {"name": "1_lf8_x3_residual", "trainable": true, "dtype": "float32"}, "inbound_nodes": [[["1_lf8_x2_residual", 0, 0, {}], ["batch_normalization_77", 0, 0, {}]]]}, {"class_name": "Add", "name": "1_lf8_residual", "config": {"name": "1_lf8_residual", "trainable": true, "dtype": "float32"}, "inbound_nodes": [[["hg1_l8_residual", 0, 0, {}], ["batch_normalization_68", 0, 0, {}]]]}, {"class_name": "BatchNormalization", "name": "batch_normalization_80", "config": {"scale": true, "beta_initializer": {"class_name": "Zeros", "config": {}}, "gamma_initializer": {"class_name": "Ones", "config": {}}, "moving_variance_initializer": {"class_name": "Ones", "config": {}}, "dtype": "float32", "beta_regularizer": null, "name": "batch_normalization_80", "momentum": 0.99, "moving_mean_initializer": {"class_name": "Zeros", "config": {}}, "beta_constraint": null, "gamma_regularizer": null, "center": true, "gamma_constraint": null, "axis": -1, "epsilon": 0.001, "trainable": true}, "inbound_nodes": [[["hg1_rf4_connect_conv_1x1_x3", 0, 0, {}]]]}, {"class_name": "Add", "name": "add_6", "config": {"name": "add_6", "trainable": true, "dtype": "float32"}, "inbound_nodes": [[["1_lf8_x3_residual", 0, 0, {}], ["1_lf8_residual", 0, 0, {}]]]}, {"class_name": "Add", "name": "hg1_rf4_connect_residual", "config": {"name": "hg1_rf4_connect_residual", "trainable": true, "dtype": "float32"}, "inbound_nodes": [[["hg1_l4_residual", 0, 0, {}], ["batch_normalization_80", 0, 0, {}]]]}, {"class_name": "UpSampling2D", "name": "up_sampling2d_4", "config": {"name": "up_sampling2d_4", "interpolation": "nearest", "dtype": "float32", "data_format": "channels_last", "size": [2, 2], "trainable": true}, "inbound_nodes": [[["add_6", 0, 0, {}]]]}, {"class_name": "Add", "name": "add_7", "config": {"name": "add_7", "trainable": true, "dtype": "float32"}, "inbound_nodes": [[["hg1_rf4_connect_residual", 0, 0, {}], ["up_sampling2d_4", 0, 0, {}]]]}, {"class_name": "Conv2D", "name": "hg1_rf4_connect_conv_conv_1x1_x1", "config": {"activity_regularizer": null, "kernel_constraint": null, "data_format": "channels_last", "kernel_size": [1, 1], "dilation_rate": [1, 1], "name": "hg1_rf4_connect_conv_conv_1x1_x1", "use_bias": true, "kernel_regularizer": null, "kernel_initializer": {"class_name": "VarianceScaling", "config": {"distribution": "uniform", "scale": 1.0, "mode": "fan_avg", "seed": null}}, "trainable": true, "bias_constraint": null, "strides": [1, 1], "bias_regularizer": null, "bias_initializer": {"class_name": "Zeros", "config": {}}, "padding": "same", "dtype": "float32", "activation": "relu", "filters": 64}, "inbound_nodes": [[["add_7", 0, 0, {}]]]}, {"class_name": "Conv2D", "name": "hg1_rf2_connect_conv_1x1_x1", "config": {"activity_regularizer": null, "kernel_constraint": null, "data_format": "channels_last", "kernel_size": [1, 1], "dilation_rate": [1, 1], "name": "hg1_rf2_connect_conv_1x1_x1", "use_bias": true, "kernel_regularizer": null, "kernel_initializer": {"class_name": "VarianceScaling", "config": {"distribution": "uniform", "scale": 1.0, "mode": "fan_avg", "seed": null}}, "trainable": true, "bias_constraint": null, "strides": [1, 1], "bias_regularizer": null, "bias_initializer": {"class_name": "Zeros", "config": {}}, "padding": "same", "dtype": "float32", "activation": "relu", "filters": 64}, "inbound_nodes": [[["hg1_l2_residual", 0, 0, {}]]]}, {"class_name": "BatchNormalization", "name": "batch_normalization_81", "config": {"scale": true, "beta_initializer": {"class_name": "Zeros", "config": {}}, "gamma_initializer": {"class_name": "Ones", "config": {}}, "moving_variance_initializer": {"class_name": "Ones", "config": {}}, "dtype": "float32", "beta_regularizer": null, "name": "batch_normalization_81", "momentum": 0.99, "moving_mean_initializer": {"class_name": "Zeros", "config": {}}, "beta_constraint": null, "gamma_regularizer": null, "center": true, "gamma_constraint": null, "axis": -1, "epsilon": 0.001, "trainable": true}, "inbound_nodes": [[["hg1_rf4_connect_conv_conv_1x1_x1", 0, 0, {}]]]}, {"class_name": "BatchNormalization", "name": "batch_normalization_84", "config": {"scale": true, "beta_initializer": {"class_name": "Zeros", "config": {}}, "gamma_initializer": {"class_name": "Ones", "config": {}}, "moving_variance_initializer": {"class_name": "Ones", "config": {}}, "dtype": "float32", "beta_regularizer": null, "name": "batch_normalization_84", "momentum": 0.99, "moving_mean_initializer": {"class_name": "Zeros", "config": {}}, "beta_constraint": null, "gamma_regularizer": null, "center": true, "gamma_constraint": null, "axis": -1, "epsilon": 0.001, "trainable": true}, "inbound_nodes": [[["hg1_rf2_connect_conv_1x1_x1", 0, 0, {}]]]}, {"class_name": "Conv2D", "name": "hg1_rf4_connect_conv_conv_3x3_x2", "config": {"activity_regularizer": null, "kernel_constraint": null, "data_format": "channels_last", "kernel_size": [3, 3], "dilation_rate": [1, 1], "name": "hg1_rf4_connect_conv_conv_3x3_x2", "use_bias": true, "kernel_regularizer": null, "kernel_initializer": {"class_name": "VarianceScaling", "config": {"distribution": "uniform", "scale": 1.0, "mode": "fan_avg", "seed": null}}, "trainable": true, "bias_constraint": null, "strides": [1, 1], "bias_regularizer": null, "bias_initializer": {"class_name": "Zeros", "config": {}}, "padding": "same", "dtype": "float32", "activation": "relu", "filters": 64}, "inbound_nodes": [[["batch_normalization_81", 0, 0, {}]]]}, {"class_name": "Conv2D", "name": "hg1_rf2_connect_conv_3x3_x2", "config": {"activity_regularizer": null, "kernel_constraint": null, "data_format": "channels_last", "kernel_size": [3, 3], "dilation_rate": [1, 1], "name": "hg1_rf2_connect_conv_3x3_x2", "use_bias": true, "kernel_regularizer": null, "kernel_initializer": {"class_name": "VarianceScaling", "config": {"distribution": "uniform", "scale": 1.0, "mode": "fan_avg", "seed": null}}, "trainable": true, "bias_constraint": null, "strides": [1, 1], "bias_regularizer": null, "bias_initializer": {"class_name": "Zeros", "config": {}}, "padding": "same", "dtype": "float32", "activation": "relu", "filters": 64}, "inbound_nodes": [[["batch_normalization_84", 0, 0, {}]]]}, {"class_name": "BatchNormalization", "name": "batch_normalization_82", "config": {"scale": true, "beta_initializer": {"class_name": "Zeros", "config": {}}, "gamma_initializer": {"class_name": "Ones", "config": {}}, "moving_variance_initializer": {"class_name": "Ones", "config": {}}, "dtype": "float32", "beta_regularizer": null, "name": "batch_normalization_82", "momentum": 0.99, "moving_mean_initializer": {"class_name": "Zeros", "config": {}}, "beta_constraint": null, "gamma_regularizer": null, "center": true, "gamma_constraint": null, "axis": -1, "epsilon": 0.001, "trainable": true}, "inbound_nodes": [[["hg1_rf4_connect_conv_conv_3x3_x2", 0, 0, {}]]]}, {"class_name": "BatchNormalization", "name": "batch_normalization_85", "config": {"scale": true, "beta_initializer": {"class_name": "Zeros", "config": {}}, "gamma_initializer": {"class_name": "Ones", "config": {}}, "moving_variance_initializer": {"class_name": "Ones", "config": {}}, "dtype": "float32", "beta_regularizer": null, "name": "batch_normalization_85", "momentum": 0.99, "moving_mean_initializer": {"class_name": "Zeros", "config": {}}, "beta_constraint": null, "gamma_regularizer": null, "center": true, "gamma_constraint": null, "axis": -1, "epsilon": 0.001, "trainable": true}, "inbound_nodes": [[["hg1_rf2_connect_conv_3x3_x2", 0, 0, {}]]]}, {"class_name": "Conv2D", "name": "hg1_rf4_connect_conv_conv_1x1_x3", "config": {"activity_regularizer": null, "kernel_constraint": null, "data_format": "channels_last", "kernel_size": [1, 1], "dilation_rate": [1, 1], "name": "hg1_rf4_connect_conv_conv_1x1_x3", "use_bias": true, "kernel_regularizer": null, "kernel_initializer": {"class_name": "VarianceScaling", "config": {"distribution": "uniform", "scale": 1.0, "mode": "fan_avg", "seed": null}}, "trainable": true, "bias_constraint": null, "strides": [1, 1], "bias_regularizer": null, "bias_initializer": {"class_name": "Zeros", "config": {}}, "padding": "same", "dtype": "float32", "activation": "relu", "filters": 128}, "inbound_nodes": [[["batch_normalization_82", 0, 0, {}]]]}, {"class_name": "Conv2D", "name": "hg1_rf2_connect_conv_1x1_x3", "config": {"activity_regularizer": null, "kernel_constraint": null, "data_format": "channels_last", "kernel_size": [1, 1], "dilation_rate": [1, 1], "name": "hg1_rf2_connect_conv_1x1_x3", "use_bias": true, "kernel_regularizer": null, "kernel_initializer": {"class_name": "VarianceScaling", "config": {"distribution": "uniform", "scale": 1.0, "mode": "fan_avg", "seed": null}}, "trainable": true, "bias_constraint": null, "strides": [1, 1], "bias_regularizer": null, "bias_initializer": {"class_name": "Zeros", "config": {}}, "padding": "same", "dtype": "float32", "activation": "relu", "filters": 128}, "inbound_nodes": [[["batch_normalization_85", 0, 0, {}]]]}, {"class_name": "BatchNormalization", "name": "batch_normalization_83", "config": {"scale": true, "beta_initializer": {"class_name": "Zeros", "config": {}}, "gamma_initializer": {"class_name": "Ones", "config": {}}, "moving_variance_initializer": {"class_name": "Ones", "config": {}}, "dtype": "float32", "beta_regularizer": null, "name": "batch_normalization_83", "momentum": 0.99, "moving_mean_initializer": {"class_name": "Zeros", "config": {}}, "beta_constraint": null, "gamma_regularizer": null, "center": true, "gamma_constraint": null, "axis": -1, "epsilon": 0.001, "trainable": true}, "inbound_nodes": [[["hg1_rf4_connect_conv_conv_1x1_x3", 0, 0, {}]]]}, {"class_name": "BatchNormalization", "name": "batch_normalization_86", "config": {"scale": true, "beta_initializer": {"class_name": "Zeros", "config": {}}, "gamma_initializer": {"class_name": "Ones", "config": {}}, "moving_variance_initializer": {"class_name": "Ones", "config": {}}, "dtype": "float32", "beta_regularizer": null, "name": "batch_normalization_86", "momentum": 0.99, "moving_mean_initializer": {"class_name": "Zeros", "config": {}}, "beta_constraint": null, "gamma_regularizer": null, "center": true, "gamma_constraint": null, "axis": -1, "epsilon": 0.001, "trainable": true}, "inbound_nodes": [[["hg1_rf2_connect_conv_1x1_x3", 0, 0, {}]]]}, {"class_name": "Add", "name": "hg1_rf4_connect_conv_residual", "config": {"name": "hg1_rf4_connect_conv_residual", "trainable": true, "dtype": "float32"}, "inbound_nodes": [[["add_7", 0, 0, {}], ["batch_normalization_83", 0, 0, {}]]]}, {"class_name": "Add", "name": "hg1_rf2_connect_residual", "config": {"name": "hg1_rf2_connect_residual", "trainable": true, "dtype": "float32"}, "inbound_nodes": [[["hg1_l2_residual", 0, 0, {}], ["batch_normalization_86", 0, 0, {}]]]}, {"class_name": "UpSampling2D", "name": "up_sampling2d_5", "config": {"name": "up_sampling2d_5", "interpolation": "nearest", "dtype": "float32", "data_format": "channels_last", "size": [2, 2], "trainable": true}, "inbound_nodes": [[["hg1_rf4_connect_conv_residual", 0, 0, {}]]]}, {"class_name": "Add", "name": "add_8", "config": {"name": "add_8", "trainable": true, "dtype": "float32"}, "inbound_nodes": [[["hg1_rf2_connect_residual", 0, 0, {}], ["up_sampling2d_5", 0, 0, {}]]]}, {"class_name": "Conv2D", "name": "hg1_rf2_connect_conv_conv_1x1_x1", "config": {"activity_regularizer": null, "kernel_constraint": null, "data_format": "channels_last", "kernel_size": [1, 1], "dilation_rate": [1, 1], "name": "hg1_rf2_connect_conv_conv_1x1_x1", "use_bias": true, "kernel_regularizer": null, "kernel_initializer": {"class_name": "VarianceScaling", "config": {"distribution": "uniform", "scale": 1.0, "mode": "fan_avg", "seed": null}}, "trainable": true, "bias_constraint": null, "strides": [1, 1], "bias_regularizer": null, "bias_initializer": {"class_name": "Zeros", "config": {}}, "padding": "same", "dtype": "float32", "activation": "relu", "filters": 64}, "inbound_nodes": [[["add_8", 0, 0, {}]]]}, {"class_name": "Conv2D", "name": "hg1_rf1_connect_conv_1x1_x1", "config": {"activity_regularizer": null, "kernel_constraint": null, "data_format": "channels_last", "kernel_size": [1, 1], "dilation_rate": [1, 1], "name": "hg1_rf1_connect_conv_1x1_x1", "use_bias": true, "kernel_regularizer": null, "kernel_initializer": {"class_name": "VarianceScaling", "config": {"distribution": "uniform", "scale": 1.0, "mode": "fan_avg", "seed": null}}, "trainable": true, "bias_constraint": null, "strides": [1, 1], "bias_regularizer": null, "bias_initializer": {"class_name": "Zeros", "config": {}}, "padding": "same", "dtype": "float32", "activation": "relu", "filters": 64}, "inbound_nodes": [[["hg1_l1_residual", 0, 0, {}]]]}, {"class_name": "BatchNormalization", "name": "batch_normalization_87", "config": {"scale": true, "beta_initializer": {"class_name": "Zeros", "config": {}}, "gamma_initializer": {"class_name": "Ones", "config": {}}, "moving_variance_initializer": {"class_name": "Ones", "config": {}}, "dtype": "float32", "beta_regularizer": null, "name": "batch_normalization_87", "momentum": 0.99, "moving_mean_initializer": {"class_name": "Zeros", "config": {}}, "beta_constraint": null, "gamma_regularizer": null, "center": true, "gamma_constraint": null, "axis": -1, "epsilon": 0.001, "trainable": true}, "inbound_nodes": [[["hg1_rf2_connect_conv_conv_1x1_x1", 0, 0, {}]]]}, {"class_name": "BatchNormalization", "name": "batch_normalization_90", "config": {"scale": true, "beta_initializer": {"class_name": "Zeros", "config": {}}, "gamma_initializer": {"class_name": "Ones", "config": {}}, "moving_variance_initializer": {"class_name": "Ones", "config": {}}, "dtype": "float32", "beta_regularizer": null, "name": "batch_normalization_90", "momentum": 0.99, "moving_mean_initializer": {"class_name": "Zeros", "config": {}}, "beta_constraint": null, "gamma_regularizer": null, "center": true, "gamma_constraint": null, "axis": -1, "epsilon": 0.001, "trainable": true}, "inbound_nodes": [[["hg1_rf1_connect_conv_1x1_x1", 0, 0, {}]]]}, {"class_name": "Conv2D", "name": "hg1_rf2_connect_conv_conv_3x3_x2", "config": {"activity_regularizer": null, "kernel_constraint": null, "data_format": "channels_last", "kernel_size": [3, 3], "dilation_rate": [1, 1], "name": "hg1_rf2_connect_conv_conv_3x3_x2", "use_bias": true, "kernel_regularizer": null, "kernel_initializer": {"class_name": "VarianceScaling", "config": {"distribution": "uniform", "scale": 1.0, "mode": "fan_avg", "seed": null}}, "trainable": true, "bias_constraint": null, "strides": [1, 1], "bias_regularizer": null, "bias_initializer": {"class_name": "Zeros", "config": {}}, "padding": "same", "dtype": "float32", "activation": "relu", "filters": 64}, "inbound_nodes": [[["batch_normalization_87", 0, 0, {}]]]}, {"class_name": "Conv2D", "name": "hg1_rf1_connect_conv_3x3_x2", "config": {"activity_regularizer": null, "kernel_constraint": null, "data_format": "channels_last", "kernel_size": [3, 3], "dilation_rate": [1, 1], "name": "hg1_rf1_connect_conv_3x3_x2", "use_bias": true, "kernel_regularizer": null, "kernel_initializer": {"class_name": "VarianceScaling", "config": {"distribution": "uniform", "scale": 1.0, "mode": "fan_avg", "seed": null}}, "trainable": true, "bias_constraint": null, "strides": [1, 1], "bias_regularizer": null, "bias_initializer": {"class_name": "Zeros", "config": {}}, "padding": "same", "dtype": "float32", "activation": "relu", "filters": 64}, "inbound_nodes": [[["batch_normalization_90", 0, 0, {}]]]}, {"class_name": "BatchNormalization", "name": "batch_normalization_88", "config": {"scale": true, "beta_initializer": {"class_name": "Zeros", "config": {}}, "gamma_initializer": {"class_name": "Ones", "config": {}}, "moving_variance_initializer": {"class_name": "Ones", "config": {}}, "dtype": "float32", "beta_regularizer": null, "name": "batch_normalization_88", "momentum": 0.99, "moving_mean_initializer": {"class_name": "Zeros", "config": {}}, "beta_constraint": null, "gamma_regularizer": null, "center": true, "gamma_constraint": null, "axis": -1, "epsilon": 0.001, "trainable": true}, "inbound_nodes": [[["hg1_rf2_connect_conv_conv_3x3_x2", 0, 0, {}]]]}, {"class_name": "BatchNormalization", "name": "batch_normalization_91", "config": {"scale": true, "beta_initializer": {"class_name": "Zeros", "config": {}}, "gamma_initializer": {"class_name": "Ones", "config": {}}, "moving_variance_initializer": {"class_name": "Ones", "config": {}}, "dtype": "float32", "beta_regularizer": null, "name": "batch_normalization_91", "momentum": 0.99, "moving_mean_initializer": {"class_name": "Zeros", "config": {}}, "beta_constraint": null, "gamma_regularizer": null, "center": true, "gamma_constraint": null, "axis": -1, "epsilon": 0.001, "trainable": true}, "inbound_nodes": [[["hg1_rf1_connect_conv_3x3_x2", 0, 0, {}]]]}, {"class_name": "Conv2D", "name": "hg1_rf2_connect_conv_conv_1x1_x3", "config": {"activity_regularizer": null, "kernel_constraint": null, "data_format": "channels_last", "kernel_size": [1, 1], "dilation_rate": [1, 1], "name": "hg1_rf2_connect_conv_conv_1x1_x3", "use_bias": true, "kernel_regularizer": null, "kernel_initializer": {"class_name": "VarianceScaling", "config": {"distribution": "uniform", "scale": 1.0, "mode": "fan_avg", "seed": null}}, "trainable": true, "bias_constraint": null, "strides": [1, 1], "bias_regularizer": null, "bias_initializer": {"class_name": "Zeros", "config": {}}, "padding": "same", "dtype": "float32", "activation": "relu", "filters": 128}, "inbound_nodes": [[["batch_normalization_88", 0, 0, {}]]]}, {"class_name": "Conv2D", "name": "hg1_rf1_connect_conv_1x1_x3", "config": {"activity_regularizer": null, "kernel_constraint": null, "data_format": "channels_last", "kernel_size": [1, 1], "dilation_rate": [1, 1], "name": "hg1_rf1_connect_conv_1x1_x3", "use_bias": true, "kernel_regularizer": null, "kernel_initializer": {"class_name": "VarianceScaling", "config": {"distribution": "uniform", "scale": 1.0, "mode": "fan_avg", "seed": null}}, "trainable": true, "bias_constraint": null, "strides": [1, 1], "bias_regularizer": null, "bias_initializer": {"class_name": "Zeros", "config": {}}, "padding": "same", "dtype": "float32", "activation": "relu", "filters": 128}, "inbound_nodes": [[["batch_normalization_91", 0, 0, {}]]]}, {"class_name": "BatchNormalization", "name": "batch_normalization_89", "config": {"scale": true, "beta_initializer": {"class_name": "Zeros", "config": {}}, "gamma_initializer": {"class_name": "Ones", "config": {}}, "moving_variance_initializer": {"class_name": "Ones", "config": {}}, "dtype": "float32", "beta_regularizer": null, "name": "batch_normalization_89", "momentum": 0.99, "moving_mean_initializer": {"class_name": "Zeros", "config": {}}, "beta_constraint": null, "gamma_regularizer": null, "center": true, "gamma_constraint": null, "axis": -1, "epsilon": 0.001, "trainable": true}, "inbound_nodes": [[["hg1_rf2_connect_conv_conv_1x1_x3", 0, 0, {}]]]}, {"class_name": "BatchNormalization", "name": "batch_normalization_92", "config": {"scale": true, "beta_initializer": {"class_name": "Zeros", "config": {}}, "gamma_initializer": {"class_name": "Ones", "config": {}}, "moving_variance_initializer": {"class_name": "Ones", "config": {}}, "dtype": "float32", "beta_regularizer": null, "name": "batch_normalization_92", "momentum": 0.99, "moving_mean_initializer": {"class_name": "Zeros", "config": {}}, "beta_constraint": null, "gamma_regularizer": null, "center": true, "gamma_constraint": null, "axis": -1, "epsilon": 0.001, "trainable": true}, "inbound_nodes": [[["hg1_rf1_connect_conv_1x1_x3", 0, 0, {}]]]}, {"class_name": "Add", "name": "hg1_rf2_connect_conv_residual", "config": {"name": "hg1_rf2_connect_conv_residual", "trainable": true, "dtype": "float32"}, "inbound_nodes": [[["add_8", 0, 0, {}], ["batch_normalization_89", 0, 0, {}]]]}, {"class_name": "Add", "name": "hg1_rf1_connect_residual", "config": {"name": "hg1_rf1_connect_residual", "trainable": true, "dtype": "float32"}, "inbound_nodes": [[["hg1_l1_residual", 0, 0, {}], ["batch_normalization_92", 0, 0, {}]]]}, {"class_name": "UpSampling2D", "name": "up_sampling2d_6", "config": {"name": "up_sampling2d_6", "interpolation": "nearest", "dtype": "float32", "data_format": "channels_last", "size": [2, 2], "trainable": true}, "inbound_nodes": [[["hg1_rf2_connect_conv_residual", 0, 0, {}]]]}, {"class_name": "Add", "name": "add_9", "config": {"name": "add_9", "trainable": true, "dtype": "float32"}, "inbound_nodes": [[["hg1_rf1_connect_residual", 0, 0, {}], ["up_sampling2d_6", 0, 0, {}]]]}, {"class_name": "Conv2D", "name": "hg1_rf1_connect_conv_conv_1x1_x1", "config": {"activity_regularizer": null, "kernel_constraint": null, "data_format": "channels_last", "kernel_size": [1, 1], "dilation_rate": [1, 1], "name": "hg1_rf1_connect_conv_conv_1x1_x1", "use_bias": true, "kernel_regularizer": null, "kernel_initializer": {"class_name": "VarianceScaling", "config": {"distribution": "uniform", "scale": 1.0, "mode": "fan_avg", "seed": null}}, "trainable": true, "bias_constraint": null, "strides": [1, 1], "bias_regularizer": null, "bias_initializer": {"class_name": "Zeros", "config": {}}, "padding": "same", "dtype": "float32", "activation": "relu", "filters": 64}, "inbound_nodes": [[["add_9", 0, 0, {}]]]}, {"class_name": "BatchNormalization", "name": "batch_normalization_93", "config": {"scale": true, "beta_initializer": {"class_name": "Zeros", "config": {}}, "gamma_initializer": {"class_name": "Ones", "config": {}}, "moving_variance_initializer": {"class_name": "Ones", "config": {}}, "dtype": "float32", "beta_regularizer": null, "name": "batch_normalization_93", "momentum": 0.99, "moving_mean_initializer": {"class_name": "Zeros", "config": {}}, "beta_constraint": null, "gamma_regularizer": null, "center": true, "gamma_constraint": null, "axis": -1, "epsilon": 0.001, "trainable": true}, "inbound_nodes": [[["hg1_rf1_connect_conv_conv_1x1_x1", 0, 0, {}]]]}, {"class_name": "Conv2D", "name": "hg1_rf1_connect_conv_conv_3x3_x2", "config": {"activity_regularizer": null, "kernel_constraint": null, "data_format": "channels_last", "kernel_size": [3, 3], "dilation_rate": [1, 1], "name": "hg1_rf1_connect_conv_conv_3x3_x2", "use_bias": true, "kernel_regularizer": null, "kernel_initializer": {"class_name": "VarianceScaling", "config": {"distribution": "uniform", "scale": 1.0, "mode": "fan_avg", "seed": null}}, "trainable": true, "bias_constraint": null, "strides": [1, 1], "bias_regularizer": null, "bias_initializer": {"class_name": "Zeros", "config": {}}, "padding": "same", "dtype": "float32", "activation": "relu", "filters": 64}, "inbound_nodes": [[["batch_normalization_93", 0, 0, {}]]]}, {"class_name": "BatchNormalization", "name": "batch_normalization_94", "config": {"scale": true, "beta_initializer": {"class_name": "Zeros", "config": {}}, "gamma_initializer": {"class_name": "Ones", "config": {}}, "moving_variance_initializer": {"class_name": "Ones", "config": {}}, "dtype": "float32", "beta_regularizer": null, "name": "batch_normalization_94", "momentum": 0.99, "moving_mean_initializer": {"class_name": "Zeros", "config": {}}, "beta_constraint": null, "gamma_regularizer": null, "center": true, "gamma_constraint": null, "axis": -1, "epsilon": 0.001, "trainable": true}, "inbound_nodes": [[["hg1_rf1_connect_conv_conv_3x3_x2", 0, 0, {}]]]}, {"class_name": "Conv2D", "name": "hg1_rf1_connect_conv_conv_1x1_x3", "config": {"activity_regularizer": null, "kernel_constraint": null, "data_format": "channels_last", "kernel_size": [1, 1], "dilation_rate": [1, 1], "name": "hg1_rf1_connect_conv_conv_1x1_x3", "use_bias": true, "kernel_regularizer": null, "kernel_initializer": {"class_name": "VarianceScaling", "config": {"distribution": "uniform", "scale": 1.0, "mode": "fan_avg", "seed": null}}, "trainable": true, "bias_constraint": null, "strides": [1, 1], "bias_regularizer": null, "bias_initializer": {"class_name": "Zeros", "config": {}}, "padding": "same", "dtype": "float32", "activation": "relu", "filters": 128}, "inbound_nodes": [[["batch_normalization_94", 0, 0, {}]]]}, {"class_name": "BatchNormalization", "name": "batch_normalization_95", "config": {"scale": true, "beta_initializer": {"class_name": "Zeros", "config": {}}, "gamma_initializer": {"class_name": "Ones", "config": {}}, "moving_variance_initializer": {"class_name": "Ones", "config": {}}, "dtype": "float32", "beta_regularizer": null, "name": "batch_normalization_95", "momentum": 0.99, "moving_mean_initializer": {"class_name": "Zeros", "config": {}}, "beta_constraint": null, "gamma_regularizer": null, "center": true, "gamma_constraint": null, "axis": -1, "epsilon": 0.001, "trainable": true}, "inbound_nodes": [[["hg1_rf1_connect_conv_conv_1x1_x3", 0, 0, {}]]]}, {"class_name": "Add", "name": "hg1_rf1_connect_conv_residual", "config": {"name": "hg1_rf1_connect_conv_residual", "trainable": true, "dtype": "float32"}, "inbound_nodes": [[["add_9", 0, 0, {}], ["batch_normalization_95", 0, 0, {}]]]}, {"class_name": "Conv2D", "name": "1_conv_1x1_x1", "config": {"activity_regularizer": null, "kernel_constraint": null, "data_format": "channels_last", "kernel_size": [1, 1], "dilation_rate": [1, 1], "name": "1_conv_1x1_x1", "use_bias": true, "kernel_regularizer": null, "kernel_initializer": {"class_name": "VarianceScaling", "config": {"distribution": "uniform", "scale": 1.0, "mode": "fan_avg", "seed": null}}, "trainable": true, "bias_constraint": null, "strides": [1, 1], "bias_regularizer": null, "bias_initializer": {"class_name": "Zeros", "config": {}}, "padding": "same", "dtype": "float32", "activation": "relu", "filters": 128}, "inbound_nodes": [[["hg1_rf1_connect_conv_residual", 0, 0, {}]]]}, {"class_name": "BatchNormalization", "name": "batch_normalization_96", "config": {"scale": true, "beta_initializer": {"class_name": "Zeros", "config": {}}, "gamma_initializer": {"class_name": "Ones", "config": {}}, "moving_variance_initializer": {"class_name": "Ones", "config": {}}, "dtype": "float32", "beta_regularizer": null, "name": "batch_normalization_96", "momentum": 0.99, "moving_mean_initializer": {"class_name": "Zeros", "config": {}}, "beta_constraint": null, "gamma_regularizer": null, "center": true, "gamma_constraint": null, "axis": -1, "epsilon": 0.001, "trainable": true}, "inbound_nodes": [[["1_conv_1x1_x1", 0, 0, {}]]]}, {"class_name": "Conv2D", "name": "1_conv_1x1_parts", "config": {"activity_regularizer": null, "kernel_constraint": null, "data_format": "channels_last", "kernel_size": [1, 1], "dilation_rate": [1, 1], "name": "1_conv_1x1_parts", "use_bias": true, "kernel_regularizer": null, "kernel_initializer": {"class_name": "VarianceScaling", "config": {"distribution": "uniform", "scale": 1.0, "mode": "fan_avg", "seed": null}}, "trainable": true, "bias_constraint": null, "strides": [1, 1], "bias_regularizer": null, "bias_initializer": {"class_name": "Zeros", "config": {}}, "padding": "same", "dtype": "float32", "activation": "linear", "filters": 11}, "inbound_nodes": [[["batch_normalization_96", 0, 0, {}]]]}], "input_layers": [["input_1", 0, 0]], "output_layers": [["0_conv_1x1_parts", 0, 0], ["1_conv_1x1_parts", 0, 0]]}, "keras_version": "2.3.1", "backend": "tensorflow"}