{"keras_version": "2.3.1", "class_name": "Model", "backend": "tensorflow", "config": {"layers": [{"class_name": "InputLayer", "name": "input_1", "config": {"batch_input_shape": [null, 256, 256, 3], "name": "input_1", "sparse": false, "dtype": "float32"}, "inbound_nodes": []}, {"class_name": "Conv2D", "name": "front_conv_1x1_x1", "config": {"use_bias": true, "kernel_constraint": null, "activation": "relu", "bias_constraint": null, "activity_regularizer": null, "bias_initializer": {"class_name": "Zeros", "config": {}}, "bias_regularizer": null, "filters": 64, "strides": [2, 2], "kernel_regularizer": null, "trainable": true, "kernel_initializer": {"class_name": "VarianceScaling", "config": {"distribution": "uniform", "seed": null, "scale": 1.0, "mode": "fan_avg"}}, "padding": "same", "kernel_size": [7, 7], "dtype": "float32", "name": "front_conv_1x1_x1", "data_format": "channels_last", "dilation_rate": [1, 1]}, "inbound_nodes": [[["input_1", 0, 0, {}]]]}, {"class_name": "BatchNormalization", "name": "batch_normalization_1", "config": {"moving_variance_initializer": {"class_name": "Ones", "config": {}}, "gamma_regularizer": null, "moving_mean_initializer": {"class_name": "Zeros", "config": {}}, "axis": -1, "gamma_initializer": {"class_name": "Ones", "config": {}}, "trainable": true, "beta_regularizer": null, "momentum": 0.99, "center": true, "scale": true, "beta_initializer": {"class_name": "Zeros", "config": {}}, "gamma_constraint": null, "dtype": "float32", "name": "batch_normalization_1", "beta_constraint": null, "epsilon": 0.001}, "inbound_nodes": [[["front_conv_1x1_x1", 0, 0, {}]]]}, {"class_name": "Conv2D", "name": "front_residual_x1_conv_1x1_x1", "config": {"use_bias": true, "kernel_constraint": null, "activation": "relu", "bias_constraint": null, "activity_regularizer": null, "bias_initializer": {"class_name": "Zeros", "config": {}}, "bias_regularizer": null, "filters": 32, "strides": [1, 1], "kernel_regularizer": null, "trainable": true, "kernel_initializer": {"class_name": "VarianceScaling", "config": {"distribution": "uniform", "seed": null, "scale": 1.0, "mode": "fan_avg"}}, "padding": "same", "kernel_size": [1, 1], "dtype": "float32", "name": "front_residual_x1_conv_1x1_x1", "data_format": "channels_last", "dilation_rate": [1, 1]}, "inbound_nodes": [[["batch_normalization_1", 0, 0, {}]]]}, {"class_name": "BatchNormalization", "name": "batch_normalization_2", "config": {"moving_variance_initializer": {"class_name": "Ones", "config": {}}, "gamma_regularizer": null, "moving_mean_initializer": {"class_name": "Zeros", "config": {}}, "axis": -1, "gamma_initializer": {"class_name": "Ones", "config": {}}, "trainable": true, "beta_regularizer": null, "momentum": 0.99, "center": true, "scale": true, "beta_initializer": {"class_name": "Zeros", "config": {}}, "gamma_constraint": null, "dtype": "float32", "name": "batch_normalization_2", "beta_constraint": null, "epsilon": 0.001}, "inbound_nodes": [[["front_residual_x1_conv_1x1_x1", 0, 0, {}]]]}, {"class_name": "Conv2D", "name": "front_residual_x1_conv_3x3_x2", "config": {"use_bias": true, "kernel_constraint": null, "activation": "relu", "bias_constraint": null, "activity_regularizer": null, "bias_initializer": {"class_name": "Zeros", "config": {}}, "bias_regularizer": null, "filters": 32, "strides": [1, 1], "kernel_regularizer": null, "trainable": true, "kernel_initializer": {"class_name": "VarianceScaling", "config": {"distribution": "uniform", "seed": null, "scale": 1.0, "mode": "fan_avg"}}, "padding": "same", "kernel_size": [3, 3], "dtype": "float32", "name": "front_residual_x1_conv_3x3_x2", "data_format": "channels_last", "dilation_rate": [1, 1]}, "inbound_nodes": [[["batch_normalization_2", 0, 0, {}]]]}, {"class_name": "BatchNormalization", "name": "batch_normalization_3", "config": {"moving_variance_initializer": {"class_name": "Ones", "config": {}}, "gamma_regularizer": null, "moving_mean_initializer": {"class_name": "Zeros", "config": {}}, "axis": -1, "gamma_initializer": {"class_name": "Ones", "config": {}}, "trainable": true, "beta_regularizer": null, "momentum": 0.99, "center": true, "scale": true, "beta_initializer": {"class_name": "Zeros", "config": {}}, "gamma_constraint": null, "dtype": "float32", "name": "batch_normalization_3", "beta_constraint": null, "epsilon": 0.001}, "inbound_nodes": [[["front_residual_x1_conv_3x3_x2", 0, 0, {}]]]}, {"class_name": "Conv2D", "name": "front_residual_x1_conv_1x1_x3", "config": {"use_bias": true, "kernel_constraint": null, "activation": "relu", "bias_constraint": null, "activity_regularizer": null, "bias_initializer": {"class_name": "Zeros", "config": {}}, "bias_regularizer": null, "filters": 64, "strides": [1, 1], "kernel_regularizer": null, "trainable": true, "kernel_initializer": {"class_name": "VarianceScaling", "config": {"distribution": "uniform", "seed": null, "scale": 1.0, "mode": "fan_avg"}}, "padding": "same", "kernel_size": [1, 1], "dtype": "float32", "name": "front_residual_x1_conv_1x1_x3", "data_format": "channels_last", "dilation_rate": [1, 1]}, "inbound_nodes": [[["batch_normalization_3", 0, 0, {}]]]}, {"class_name": "BatchNormalization", "name": "batch_normalization_4", "config": {"moving_variance_initializer": {"class_name": "Ones", "config": {}}, "gamma_regularizer": null, "moving_mean_initializer": {"class_name": "Zeros", "config": {}}, "axis": -1, "gamma_initializer": {"class_name": "Ones", "config": {}}, "trainable": true, "beta_regularizer": null, "momentum": 0.99, "center": true, "scale": true, "beta_initializer": {"class_name": "Zeros", "config": {}}, "gamma_constraint": null, "dtype": "float32", "name": "batch_normalization_4", "beta_constraint": null, "epsilon": 0.001}, "inbound_nodes": [[["front_residual_x1_conv_1x1_x3", 0, 0, {}]]]}, {"class_name": "Add", "name": "front_residual_x1_residual", "config": {"trainable": true, "dtype": "float32", "name": "front_residual_x1_residual"}, "inbound_nodes": [[["batch_normalization_1", 0, 0, {}], ["batch_normalization_4", 0, 0, {}]]]}, {"class_name": "MaxPooling2D", "name": "max_pooling2d_1", "config": {"trainable": true, "padding": "valid", "pool_size": [2, 2], "dtype": "float32", "name": "max_pooling2d_1", "data_format": "channels_last", "strides": [2, 2]}, "inbound_nodes": [[["front_residual_x1_residual", 0, 0, {}]]]}, {"class_name": "Conv2D", "name": "front_residual_x2_conv_1x1_x1", "config": {"use_bias": true, "kernel_constraint": null, "activation": "relu", "bias_constraint": null, "activity_regularizer": null, "bias_initializer": {"class_name": "Zeros", "config": {}}, "bias_regularizer": null, "filters": 32, "strides": [1, 1], "kernel_regularizer": null, "trainable": true, "kernel_initializer": {"class_name": "VarianceScaling", "config": {"distribution": "uniform", "seed": null, "scale": 1.0, "mode": "fan_avg"}}, "padding": "same", "kernel_size": [1, 1], "dtype": "float32", "name": "front_residual_x2_conv_1x1_x1", "data_format": "channels_last", "dilation_rate": [1, 1]}, "inbound_nodes": [[["max_pooling2d_1", 0, 0, {}]]]}, {"class_name": "BatchNormalization", "name": "batch_normalization_5", "config": {"moving_variance_initializer": {"class_name": "Ones", "config": {}}, "gamma_regularizer": null, "moving_mean_initializer": {"class_name": "Zeros", "config": {}}, "axis": -1, "gamma_initializer": {"class_name": "Ones", "config": {}}, "trainable": true, "beta_regularizer": null, "momentum": 0.99, "center": true, "scale": true, "beta_initializer": {"class_name": "Zeros", "config": {}}, "gamma_constraint": null, "dtype": "float32", "name": "batch_normalization_5", "beta_constraint": null, "epsilon": 0.001}, "inbound_nodes": [[["front_residual_x2_conv_1x1_x1", 0, 0, {}]]]}, {"class_name": "Conv2D", "name": "front_residual_x2_conv_3x3_x2", "config": {"use_bias": true, "kernel_constraint": null, "activation": "relu", "bias_constraint": null, "activity_regularizer": null, "bias_initializer": {"class_name": "Zeros", "config": {}}, "bias_regularizer": null, "filters": 32, "strides": [1, 1], "kernel_regularizer": null, "trainable": true, "kernel_initializer": {"class_name": "VarianceScaling", "config": {"distribution": "uniform", "seed": null, "scale": 1.0, "mode": "fan_avg"}}, "padding": "same", "kernel_size": [3, 3], "dtype": "float32", "name": "front_residual_x2_conv_3x3_x2", "data_format": "channels_last", "dilation_rate": [1, 1]}, "inbound_nodes": [[["batch_normalization_5", 0, 0, {}]]]}, {"class_name": "BatchNormalization", "name": "batch_normalization_6", "config": {"moving_variance_initializer": {"class_name": "Ones", "config": {}}, "gamma_regularizer": null, "moving_mean_initializer": {"class_name": "Zeros", "config": {}}, "axis": -1, "gamma_initializer": {"class_name": "Ones", "config": {}}, "trainable": true, "beta_regularizer": null, "momentum": 0.99, "center": true, "scale": true, "beta_initializer": {"class_name": "Zeros", "config": {}}, "gamma_constraint": null, "dtype": "float32", "name": "batch_normalization_6", "beta_constraint": null, "epsilon": 0.001}, "inbound_nodes": [[["front_residual_x2_conv_3x3_x2", 0, 0, {}]]]}, {"class_name": "Conv2D", "name": "front_residual_x2_conv_1x1_x3", "config": {"use_bias": true, "kernel_constraint": null, "activation": "relu", "bias_constraint": null, "activity_regularizer": null, "bias_initializer": {"class_name": "Zeros", "config": {}}, "bias_regularizer": null, "filters": 64, "strides": [1, 1], "kernel_regularizer": null, "trainable": true, "kernel_initializer": {"class_name": "VarianceScaling", "config": {"distribution": "uniform", "seed": null, "scale": 1.0, "mode": "fan_avg"}}, "padding": "same", "kernel_size": [1, 1], "dtype": "float32", "name": "front_residual_x2_conv_1x1_x3", "data_format": "channels_last", "dilation_rate": [1, 1]}, "inbound_nodes": [[["batch_normalization_6", 0, 0, {}]]]}, {"class_name": "BatchNormalization", "name": "batch_normalization_7", "config": {"moving_variance_initializer": {"class_name": "Ones", "config": {}}, "gamma_regularizer": null, "moving_mean_initializer": {"class_name": "Zeros", "config": {}}, "axis": -1, "gamma_initializer": {"class_name": "Ones", "config": {}}, "trainable": true, "beta_regularizer": null, "momentum": 0.99, "center": true, "scale": true, "beta_initializer": {"class_name": "Zeros", "config": {}}, "gamma_constraint": null, "dtype": "float32", "name": "batch_normalization_7", "beta_constraint": null, "epsilon": 0.001}, "inbound_nodes": [[["front_residual_x2_conv_1x1_x3", 0, 0, {}]]]}, {"class_name": "Add", "name": "front_residual_x2_residual", "config": {"trainable": true, "dtype": "float32", "name": "front_residual_x2_residual"}, "inbound_nodes": [[["max_pooling2d_1", 0, 0, {}], ["batch_normalization_7", 0, 0, {}]]]}, {"class_name": "Conv2D", "name": "front_residual_x3_conv_1x1_x1", "config": {"use_bias": true, "kernel_constraint": null, "activation": "relu", "bias_constraint": null, "activity_regularizer": null, "bias_initializer": {"class_name": "Zeros", "config": {}}, "bias_regularizer": null, "filters": 64, "strides": [1, 1], "kernel_regularizer": null, "trainable": true, "kernel_initializer": {"class_name": "VarianceScaling", "config": {"distribution": "uniform", "seed": null, "scale": 1.0, "mode": "fan_avg"}}, "padding": "same", "kernel_size": [1, 1], "dtype": "float32", "name": "front_residual_x3_conv_1x1_x1", "data_format": "channels_last", "dilation_rate": [1, 1]}, "inbound_nodes": [[["front_residual_x2_residual", 0, 0, {}]]]}, {"class_name": "BatchNormalization", "name": "batch_normalization_8", "config": {"moving_variance_initializer": {"class_name": "Ones", "config": {}}, "gamma_regularizer": null, "moving_mean_initializer": {"class_name": "Zeros", "config": {}}, "axis": -1, "gamma_initializer": {"class_name": "Ones", "config": {}}, "trainable": true, "beta_regularizer": null, "momentum": 0.99, "center": true, "scale": true, "beta_initializer": {"class_name": "Zeros", "config": {}}, "gamma_constraint": null, "dtype": "float32", "name": "batch_normalization_8", "beta_constraint": null, "epsilon": 0.001}, "inbound_nodes": [[["front_residual_x3_conv_1x1_x1", 0, 0, {}]]]}, {"class_name": "Conv2D", "name": "front_residual_x3_conv_3x3_x2", "config": {"use_bias": true, "kernel_constraint": null, "activation": "relu", "bias_constraint": null, "activity_regularizer": null, "bias_initializer": {"class_name": "Zeros", "config": {}}, "bias_regularizer": null, "filters": 64, "strides": [1, 1], "kernel_regularizer": null, "trainable": true, "kernel_initializer": {"class_name": "VarianceScaling", "config": {"distribution": "uniform", "seed": null, "scale": 1.0, "mode": "fan_avg"}}, "padding": "same", "kernel_size": [3, 3], "dtype": "float32", "name": "front_residual_x3_conv_3x3_x2", "data_format": "channels_last", "dilation_rate": [1, 1]}, "inbound_nodes": [[["batch_normalization_8", 0, 0, {}]]]}, {"class_name": "BatchNormalization", "name": "batch_normalization_9", "config": {"moving_variance_initializer": {"class_name": "Ones", "config": {}}, "gamma_regularizer": null, "moving_mean_initializer": {"class_name": "Zeros", "config": {}}, "axis": -1, "gamma_initializer": {"class_name": "Ones", "config": {}}, "trainable": true, "beta_regularizer": null, "momentum": 0.99, "center": true, "scale": true, "beta_initializer": {"class_name": "Zeros", "config": {}}, "gamma_constraint": null, "dtype": "float32", "name": "batch_normalization_9", "beta_constraint": null, "epsilon": 0.001}, "inbound_nodes": [[["front_residual_x3_conv_3x3_x2", 0, 0, {}]]]}, {"class_name": "Conv2D", "name": "front_residual_x3_conv_1x1_x3", "config": {"use_bias": true, "kernel_constraint": null, "activation": "relu", "bias_constraint": null, "activity_regularizer": null, "bias_initializer": {"class_name": "Zeros", "config": {}}, "bias_regularizer": null, "filters": 128, "strides": [1, 1], "kernel_regularizer": null, "trainable": true, "kernel_initializer": {"class_name": "VarianceScaling", "config": {"distribution": "uniform", "seed": null, "scale": 1.0, "mode": "fan_avg"}}, "padding": "same", "kernel_size": [1, 1], "dtype": "float32", "name": "front_residual_x3_conv_1x1_x3", "data_format": "channels_last", "dilation_rate": [1, 1]}, "inbound_nodes": [[["batch_normalization_9", 0, 0, {}]]]}, {"class_name": "Conv2D", "name": "front_residual_x3skip", "config": {"use_bias": true, "kernel_constraint": null, "activation": "relu", "bias_constraint": null, "activity_regularizer": null, "bias_initializer": {"class_name": "Zeros", "config": {}}, "bias_regularizer": null, "filters": 128, "strides": [1, 1], "kernel_regularizer": null, "trainable": true, "kernel_initializer": {"class_name": "VarianceScaling", "config": {"distribution": "uniform", "seed": null, "scale": 1.0, "mode": "fan_avg"}}, "padding": "same", "kernel_size": [1, 1], "dtype": "float32", "name": "front_residual_x3skip", "data_format": "channels_last", "dilation_rate": [1, 1]}, "inbound_nodes": [[["front_residual_x2_residual", 0, 0, {}]]]}, {"class_name": "BatchNormalization", "name": "batch_normalization_10", "config": {"moving_variance_initializer": {"class_name": "Ones", "config": {}}, "gamma_regularizer": null, "moving_mean_initializer": {"class_name": "Zeros", "config": {}}, "axis": -1, "gamma_initializer": {"class_name": "Ones", "config": {}}, "trainable": true, "beta_regularizer": null, "momentum": 0.99, "center": true, "scale": true, "beta_initializer": {"class_name": "Zeros", "config": {}}, "gamma_constraint": null, "dtype": "float32", "name": "batch_normalization_10", "beta_constraint": null, "epsilon": 0.001}, "inbound_nodes": [[["front_residual_x3_conv_1x1_x3", 0, 0, {}]]]}, {"class_name": "Add", "name": "front_residual_x3_residual", "config": {"trainable": true, "dtype": "float32", "name": "front_residual_x3_residual"}, "inbound_nodes": [[["front_residual_x3skip", 0, 0, {}], ["batch_normalization_10", 0, 0, {}]]]}, {"class_name": "Conv2D", "name": "hg0_l1_conv_1x1_x1", "config": {"use_bias": true, "kernel_constraint": null, "activation": "relu", "bias_constraint": null, "activity_regularizer": null, "bias_initializer": {"class_name": "Zeros", "config": {}}, "bias_regularizer": null, "filters": 64, "strides": [1, 1], "kernel_regularizer": null, "trainable": true, "kernel_initializer": {"class_name": "VarianceScaling", "config": {"distribution": "uniform", "seed": null, "scale": 1.0, "mode": "fan_avg"}}, "padding": "same", "kernel_size": [1, 1], "dtype": "float32", "name": "hg0_l1_conv_1x1_x1", "data_format": "channels_last", "dilation_rate": [1, 1]}, "inbound_nodes": [[["front_residual_x3_residual", 0, 0, {}]]]}, {"class_name": "BatchNormalization", "name": "batch_normalization_11", "config": {"moving_variance_initializer": {"class_name": "Ones", "config": {}}, "gamma_regularizer": null, "moving_mean_initializer": {"class_name": "Zeros", "config": {}}, "axis": -1, "gamma_initializer": {"class_name": "Ones", "config": {}}, "trainable": true, "beta_regularizer": null, "momentum": 0.99, "center": true, "scale": true, "beta_initializer": {"class_name": "Zeros", "config": {}}, "gamma_constraint": null, "dtype": "float32", "name": "batch_normalization_11", "beta_constraint": null, "epsilon": 0.001}, "inbound_nodes": [[["hg0_l1_conv_1x1_x1", 0, 0, {}]]]}, {"class_name": "Conv2D", "name": "hg0_l1_conv_3x3_x2", "config": {"use_bias": true, "kernel_constraint": null, "activation": "relu", "bias_constraint": null, "activity_regularizer": null, "bias_initializer": {"class_name": "Zeros", "config": {}}, "bias_regularizer": null, "filters": 64, "strides": [1, 1], "kernel_regularizer": null, "trainable": true, "kernel_initializer": {"class_name": "VarianceScaling", "config": {"distribution": "uniform", "seed": null, "scale": 1.0, "mode": "fan_avg"}}, "padding": "same", "kernel_size": [3, 3], "dtype": "float32", "name": "hg0_l1_conv_3x3_x2", "data_format": "channels_last", "dilation_rate": [1, 1]}, "inbound_nodes": [[["batch_normalization_11", 0, 0, {}]]]}, {"class_name": "BatchNormalization", "name": "batch_normalization_12", "config": {"moving_variance_initializer": {"class_name": "Ones", "config": {}}, "gamma_regularizer": null, "moving_mean_initializer": {"class_name": "Zeros", "config": {}}, "axis": -1, "gamma_initializer": {"class_name": "Ones", "config": {}}, "trainable": true, "beta_regularizer": null, "momentum": 0.99, "center": true, "scale": true, "beta_initializer": {"class_name": "Zeros", "config": {}}, "gamma_constraint": null, "dtype": "float32", "name": "batch_normalization_12", "beta_constraint": null, "epsilon": 0.001}, "inbound_nodes": [[["hg0_l1_conv_3x3_x2", 0, 0, {}]]]}, {"class_name": "Conv2D", "name": "hg0_l1_conv_1x1_x3", "config": {"use_bias": true, "kernel_constraint": null, "activation": "relu", "bias_constraint": null, "activity_regularizer": null, "bias_initializer": {"class_name": "Zeros", "config": {}}, "bias_regularizer": null, "filters": 128, "strides": [1, 1], "kernel_regularizer": null, "trainable": true, "kernel_initializer": {"class_name": "VarianceScaling", "config": {"distribution": "uniform", "seed": null, "scale": 1.0, "mode": "fan_avg"}}, "padding": "same", "kernel_size": [1, 1], "dtype": "float32", "name": "hg0_l1_conv_1x1_x3", "data_format": "channels_last", "dilation_rate": [1, 1]}, "inbound_nodes": [[["batch_normalization_12", 0, 0, {}]]]}, {"class_name": "BatchNormalization", "name": "batch_normalization_13", "config": {"moving_variance_initializer": {"class_name": "Ones", "config": {}}, "gamma_regularizer": null, "moving_mean_initializer": {"class_name": "Zeros", "config": {}}, "axis": -1, "gamma_initializer": {"class_name": "Ones", "config": {}}, "trainable": true, "beta_regularizer": null, "momentum": 0.99, "center": true, "scale": true, "beta_initializer": {"class_name": "Zeros", "config": {}}, "gamma_constraint": null, "dtype": "float32", "name": "batch_normalization_13", "beta_constraint": null, "epsilon": 0.001}, "inbound_nodes": [[["hg0_l1_conv_1x1_x3", 0, 0, {}]]]}, {"class_name": "Add", "name": "hg0_l1_residual", "config": {"trainable": true, "dtype": "float32", "name": "hg0_l1_residual"}, "inbound_nodes": [[["front_residual_x3_residual", 0, 0, {}], ["batch_normalization_13", 0, 0, {}]]]}, {"class_name": "MaxPooling2D", "name": "max_pooling2d_2", "config": {"trainable": true, "padding": "valid", "pool_size": [2, 2], "dtype": "float32", "name": "max_pooling2d_2", "data_format": "channels_last", "strides": [2, 2]}, "inbound_nodes": [[["hg0_l1_residual", 0, 0, {}]]]}, {"class_name": "Conv2D", "name": "hg0_l2_conv_1x1_x1", "config": {"use_bias": true, "kernel_constraint": null, "activation": "relu", "bias_constraint": null, "activity_regularizer": null, "bias_initializer": {"class_name": "Zeros", "config": {}}, "bias_regularizer": null, "filters": 64, "strides": [1, 1], "kernel_regularizer": null, "trainable": true, "kernel_initializer": {"class_name": "VarianceScaling", "config": {"distribution": "uniform", "seed": null, "scale": 1.0, "mode": "fan_avg"}}, "padding": "same", "kernel_size": [1, 1], "dtype": "float32", "name": "hg0_l2_conv_1x1_x1", "data_format": "channels_last", "dilation_rate": [1, 1]}, "inbound_nodes": [[["max_pooling2d_2", 0, 0, {}]]]}, {"class_name": "BatchNormalization", "name": "batch_normalization_14", "config": {"moving_variance_initializer": {"class_name": "Ones", "config": {}}, "gamma_regularizer": null, "moving_mean_initializer": {"class_name": "Zeros", "config": {}}, "axis": -1, "gamma_initializer": {"class_name": "Ones", "config": {}}, "trainable": true, "beta_regularizer": null, "momentum": 0.99, "center": true, "scale": true, "beta_initializer": {"class_name": "Zeros", "config": {}}, "gamma_constraint": null, "dtype": "float32", "name": "batch_normalization_14", "beta_constraint": null, "epsilon": 0.001}, "inbound_nodes": [[["hg0_l2_conv_1x1_x1", 0, 0, {}]]]}, {"class_name": "Conv2D", "name": "hg0_l2_conv_3x3_x2", "config": {"use_bias": true, "kernel_constraint": null, "activation": "relu", "bias_constraint": null, "activity_regularizer": null, "bias_initializer": {"class_name": "Zeros", "config": {}}, "bias_regularizer": null, "filters": 64, "strides": [1, 1], "kernel_regularizer": null, "trainable": true, "kernel_initializer": {"class_name": "VarianceScaling", "config": {"distribution": "uniform", "seed": null, "scale": 1.0, "mode": "fan_avg"}}, "padding": "same", "kernel_size": [3, 3], "dtype": "float32", "name": "hg0_l2_conv_3x3_x2", "data_format": "channels_last", "dilation_rate": [1, 1]}, "inbound_nodes": [[["batch_normalization_14", 0, 0, {}]]]}, {"class_name": "BatchNormalization", "name": "batch_normalization_15", "config": {"moving_variance_initializer": {"class_name": "Ones", "config": {}}, "gamma_regularizer": null, "moving_mean_initializer": {"class_name": "Zeros", "config": {}}, "axis": -1, "gamma_initializer": {"class_name": "Ones", "config": {}}, "trainable": true, "beta_regularizer": null, "momentum": 0.99, "center": true, "scale": true, "beta_initializer": {"class_name": "Zeros", "config": {}}, "gamma_constraint": null, "dtype": "float32", "name": "batch_normalization_15", "beta_constraint": null, "epsilon": 0.001}, "inbound_nodes": [[["hg0_l2_conv_3x3_x2", 0, 0, {}]]]}, {"class_name": "Conv2D", "name": "hg0_l2_conv_1x1_x3", "config": {"use_bias": true, "kernel_constraint": null, "activation": "relu", "bias_constraint": null, "activity_regularizer": null, "bias_initializer": {"class_name": "Zeros", "config": {}}, "bias_regularizer": null, "filters": 128, "strides": [1, 1], "kernel_regularizer": null, "trainable": true, "kernel_initializer": {"class_name": "VarianceScaling", "config": {"distribution": "uniform", "seed": null, "scale": 1.0, "mode": "fan_avg"}}, "padding": "same", "kernel_size": [1, 1], "dtype": "float32", "name": "hg0_l2_conv_1x1_x3", "data_format": "channels_last", "dilation_rate": [1, 1]}, "inbound_nodes": [[["batch_normalization_15", 0, 0, {}]]]}, {"class_name": "BatchNormalization", "name": "batch_normalization_16", "config": {"moving_variance_initializer": {"class_name": "Ones", "config": {}}, "gamma_regularizer": null, "moving_mean_initializer": {"class_name": "Zeros", "config": {}}, "axis": -1, "gamma_initializer": {"class_name": "Ones", "config": {}}, "trainable": true, "beta_regularizer": null, "momentum": 0.99, "center": true, "scale": true, "beta_initializer": {"class_name": "Zeros", "config": {}}, "gamma_constraint": null, "dtype": "float32", "name": "batch_normalization_16", "beta_constraint": null, "epsilon": 0.001}, "inbound_nodes": [[["hg0_l2_conv_1x1_x3", 0, 0, {}]]]}, {"class_name": "Add", "name": "hg0_l2_residual", "config": {"trainable": true, "dtype": "float32", "name": "hg0_l2_residual"}, "inbound_nodes": [[["max_pooling2d_2", 0, 0, {}], ["batch_normalization_16", 0, 0, {}]]]}, {"class_name": "MaxPooling2D", "name": "max_pooling2d_3", "config": {"trainable": true, "padding": "valid", "pool_size": [2, 2], "dtype": "float32", "name": "max_pooling2d_3", "data_format": "channels_last", "strides": [2, 2]}, "inbound_nodes": [[["hg0_l2_residual", 0, 0, {}]]]}, {"class_name": "Conv2D", "name": "hg0_l4_conv_1x1_x1", "config": {"use_bias": true, "kernel_constraint": null, "activation": "relu", "bias_constraint": null, "activity_regularizer": null, "bias_initializer": {"class_name": "Zeros", "config": {}}, "bias_regularizer": null, "filters": 64, "strides": [1, 1], "kernel_regularizer": null, "trainable": true, "kernel_initializer": {"class_name": "VarianceScaling", "config": {"distribution": "uniform", "seed": null, "scale": 1.0, "mode": "fan_avg"}}, "padding": "same", "kernel_size": [1, 1], "dtype": "float32", "name": "hg0_l4_conv_1x1_x1", "data_format": "channels_last", "dilation_rate": [1, 1]}, "inbound_nodes": [[["max_pooling2d_3", 0, 0, {}]]]}, {"class_name": "BatchNormalization", "name": "batch_normalization_17", "config": {"moving_variance_initializer": {"class_name": "Ones", "config": {}}, "gamma_regularizer": null, "moving_mean_initializer": {"class_name": "Zeros", "config": {}}, "axis": -1, "gamma_initializer": {"class_name": "Ones", "config": {}}, "trainable": true, "beta_regularizer": null, "momentum": 0.99, "center": true, "scale": true, "beta_initializer": {"class_name": "Zeros", "config": {}}, "gamma_constraint": null, "dtype": "float32", "name": "batch_normalization_17", "beta_constraint": null, "epsilon": 0.001}, "inbound_nodes": [[["hg0_l4_conv_1x1_x1", 0, 0, {}]]]}, {"class_name": "Conv2D", "name": "hg0_l4_conv_3x3_x2", "config": {"use_bias": true, "kernel_constraint": null, "activation": "relu", "bias_constraint": null, "activity_regularizer": null, "bias_initializer": {"class_name": "Zeros", "config": {}}, "bias_regularizer": null, "filters": 64, "strides": [1, 1], "kernel_regularizer": null, "trainable": true, "kernel_initializer": {"class_name": "VarianceScaling", "config": {"distribution": "uniform", "seed": null, "scale": 1.0, "mode": "fan_avg"}}, "padding": "same", "kernel_size": [3, 3], "dtype": "float32", "name": "hg0_l4_conv_3x3_x2", "data_format": "channels_last", "dilation_rate": [1, 1]}, "inbound_nodes": [[["batch_normalization_17", 0, 0, {}]]]}, {"class_name": "BatchNormalization", "name": "batch_normalization_18", "config": {"moving_variance_initializer": {"class_name": "Ones", "config": {}}, "gamma_regularizer": null, "moving_mean_initializer": {"class_name": "Zeros", "config": {}}, "axis": -1, "gamma_initializer": {"class_name": "Ones", "config": {}}, "trainable": true, "beta_regularizer": null, "momentum": 0.99, "center": true, "scale": true, "beta_initializer": {"class_name": "Zeros", "config": {}}, "gamma_constraint": null, "dtype": "float32", "name": "batch_normalization_18", "beta_constraint": null, "epsilon": 0.001}, "inbound_nodes": [[["hg0_l4_conv_3x3_x2", 0, 0, {}]]]}, {"class_name": "Conv2D", "name": "hg0_l4_conv_1x1_x3", "config": {"use_bias": true, "kernel_constraint": null, "activation": "relu", "bias_constraint": null, "activity_regularizer": null, "bias_initializer": {"class_name": "Zeros", "config": {}}, "bias_regularizer": null, "filters": 128, "strides": [1, 1], "kernel_regularizer": null, "trainable": true, "kernel_initializer": {"class_name": "VarianceScaling", "config": {"distribution": "uniform", "seed": null, "scale": 1.0, "mode": "fan_avg"}}, "padding": "same", "kernel_size": [1, 1], "dtype": "float32", "name": "hg0_l4_conv_1x1_x3", "data_format": "channels_last", "dilation_rate": [1, 1]}, "inbound_nodes": [[["batch_normalization_18", 0, 0, {}]]]}, {"class_name": "BatchNormalization", "name": "batch_normalization_19", "config": {"moving_variance_initializer": {"class_name": "Ones", "config": {}}, "gamma_regularizer": null, "moving_mean_initializer": {"class_name": "Zeros", "config": {}}, "axis": -1, "gamma_initializer": {"class_name": "Ones", "config": {}}, "trainable": true, "beta_regularizer": null, "momentum": 0.99, "center": true, "scale": true, "beta_initializer": {"class_name": "Zeros", "config": {}}, "gamma_constraint": null, "dtype": "float32", "name": "batch_normalization_19", "beta_constraint": null, "epsilon": 0.001}, "inbound_nodes": [[["hg0_l4_conv_1x1_x3", 0, 0, {}]]]}, {"class_name": "Add", "name": "hg0_l4_residual", "config": {"trainable": true, "dtype": "float32", "name": "hg0_l4_residual"}, "inbound_nodes": [[["max_pooling2d_3", 0, 0, {}], ["batch_normalization_19", 0, 0, {}]]]}, {"class_name": "MaxPooling2D", "name": "max_pooling2d_4", "config": {"trainable": true, "padding": "valid", "pool_size": [2, 2], "dtype": "float32", "name": "max_pooling2d_4", "data_format": "channels_last", "strides": [2, 2]}, "inbound_nodes": [[["hg0_l4_residual", 0, 0, {}]]]}, {"class_name": "Conv2D", "name": "hg0_l8_conv_1x1_x1", "config": {"use_bias": true, "kernel_constraint": null, "activation": "relu", "bias_constraint": null, "activity_regularizer": null, "bias_initializer": {"class_name": "Zeros", "config": {}}, "bias_regularizer": null, "filters": 64, "strides": [1, 1], "kernel_regularizer": null, "trainable": true, "kernel_initializer": {"class_name": "VarianceScaling", "config": {"distribution": "uniform", "seed": null, "scale": 1.0, "mode": "fan_avg"}}, "padding": "same", "kernel_size": [1, 1], "dtype": "float32", "name": "hg0_l8_conv_1x1_x1", "data_format": "channels_last", "dilation_rate": [1, 1]}, "inbound_nodes": [[["max_pooling2d_4", 0, 0, {}]]]}, {"class_name": "BatchNormalization", "name": "batch_normalization_20", "config": {"moving_variance_initializer": {"class_name": "Ones", "config": {}}, "gamma_regularizer": null, "moving_mean_initializer": {"class_name": "Zeros", "config": {}}, "axis": -1, "gamma_initializer": {"class_name": "Ones", "config": {}}, "trainable": true, "beta_regularizer": null, "momentum": 0.99, "center": true, "scale": true, "beta_initializer": {"class_name": "Zeros", "config": {}}, "gamma_constraint": null, "dtype": "float32", "name": "batch_normalization_20", "beta_constraint": null, "epsilon": 0.001}, "inbound_nodes": [[["hg0_l8_conv_1x1_x1", 0, 0, {}]]]}, {"class_name": "Conv2D", "name": "hg0_l8_conv_3x3_x2", "config": {"use_bias": true, "kernel_constraint": null, "activation": "relu", "bias_constraint": null, "activity_regularizer": null, "bias_initializer": {"class_name": "Zeros", "config": {}}, "bias_regularizer": null, "filters": 64, "strides": [1, 1], "kernel_regularizer": null, "trainable": true, "kernel_initializer": {"class_name": "VarianceScaling", "config": {"distribution": "uniform", "seed": null, "scale": 1.0, "mode": "fan_avg"}}, "padding": "same", "kernel_size": [3, 3], "dtype": "float32", "name": "hg0_l8_conv_3x3_x2", "data_format": "channels_last", "dilation_rate": [1, 1]}, "inbound_nodes": [[["batch_normalization_20", 0, 0, {}]]]}, {"class_name": "BatchNormalization", "name": "batch_normalization_21", "config": {"moving_variance_initializer": {"class_name": "Ones", "config": {}}, "gamma_regularizer": null, "moving_mean_initializer": {"class_name": "Zeros", "config": {}}, "axis": -1, "gamma_initializer": {"class_name": "Ones", "config": {}}, "trainable": true, "beta_regularizer": null, "momentum": 0.99, "center": true, "scale": true, "beta_initializer": {"class_name": "Zeros", "config": {}}, "gamma_constraint": null, "dtype": "float32", "name": "batch_normalization_21", "beta_constraint": null, "epsilon": 0.001}, "inbound_nodes": [[["hg0_l8_conv_3x3_x2", 0, 0, {}]]]}, {"class_name": "Conv2D", "name": "hg0_l8_conv_1x1_x3", "config": {"use_bias": true, "kernel_constraint": null, "activation": "relu", "bias_constraint": null, "activity_regularizer": null, "bias_initializer": {"class_name": "Zeros", "config": {}}, "bias_regularizer": null, "filters": 128, "strides": [1, 1], "kernel_regularizer": null, "trainable": true, "kernel_initializer": {"class_name": "VarianceScaling", "config": {"distribution": "uniform", "seed": null, "scale": 1.0, "mode": "fan_avg"}}, "padding": "same", "kernel_size": [1, 1], "dtype": "float32", "name": "hg0_l8_conv_1x1_x3", "data_format": "channels_last", "dilation_rate": [1, 1]}, "inbound_nodes": [[["batch_normalization_21", 0, 0, {}]]]}, {"class_name": "BatchNormalization", "name": "batch_normalization_22", "config": {"moving_variance_initializer": {"class_name": "Ones", "config": {}}, "gamma_regularizer": null, "moving_mean_initializer": {"class_name": "Zeros", "config": {}}, "axis": -1, "gamma_initializer": {"class_name": "Ones", "config": {}}, "trainable": true, "beta_regularizer": null, "momentum": 0.99, "center": true, "scale": true, "beta_initializer": {"class_name": "Zeros", "config": {}}, "gamma_constraint": null, "dtype": "float32", "name": "batch_normalization_22", "beta_constraint": null, "epsilon": 0.001}, "inbound_nodes": [[["hg0_l8_conv_1x1_x3", 0, 0, {}]]]}, {"class_name": "Add", "name": "hg0_l8_residual", "config": {"trainable": true, "dtype": "float32", "name": "hg0_l8_residual"}, "inbound_nodes": [[["max_pooling2d_4", 0, 0, {}], ["batch_normalization_22", 0, 0, {}]]]}, {"class_name": "Conv2D", "name": "0_lf8_x1_conv_1x1_x1", "config": {"use_bias": true, "kernel_constraint": null, "activation": "relu", "bias_constraint": null, "activity_regularizer": null, "bias_initializer": {"class_name": "Zeros", "config": {}}, "bias_regularizer": null, "filters": 64, "strides": [1, 1], "kernel_regularizer": null, "trainable": true, "kernel_initializer": {"class_name": "VarianceScaling", "config": {"distribution": "uniform", "seed": null, "scale": 1.0, "mode": "fan_avg"}}, "padding": "same", "kernel_size": [1, 1], "dtype": "float32", "name": "0_lf8_x1_conv_1x1_x1", "data_format": "channels_last", "dilation_rate": [1, 1]}, "inbound_nodes": [[["hg0_l8_residual", 0, 0, {}]]]}, {"class_name": "BatchNormalization", "name": "batch_normalization_26", "config": {"moving_variance_initializer": {"class_name": "Ones", "config": {}}, "gamma_regularizer": null, "moving_mean_initializer": {"class_name": "Zeros", "config": {}}, "axis": -1, "gamma_initializer": {"class_name": "Ones", "config": {}}, "trainable": true, "beta_regularizer": null, "momentum": 0.99, "center": true, "scale": true, "beta_initializer": {"class_name": "Zeros", "config": {}}, "gamma_constraint": null, "dtype": "float32", "name": "batch_normalization_26", "beta_constraint": null, "epsilon": 0.001}, "inbound_nodes": [[["0_lf8_x1_conv_1x1_x1", 0, 0, {}]]]}, {"class_name": "Conv2D", "name": "0_lf8_x1_conv_3x3_x2", "config": {"use_bias": true, "kernel_constraint": null, "activation": "relu", "bias_constraint": null, "activity_regularizer": null, "bias_initializer": {"class_name": "Zeros", "config": {}}, "bias_regularizer": null, "filters": 64, "strides": [1, 1], "kernel_regularizer": null, "trainable": true, "kernel_initializer": {"class_name": "VarianceScaling", "config": {"distribution": "uniform", "seed": null, "scale": 1.0, "mode": "fan_avg"}}, "padding": "same", "kernel_size": [3, 3], "dtype": "float32", "name": "0_lf8_x1_conv_3x3_x2", "data_format": "channels_last", "dilation_rate": [1, 1]}, "inbound_nodes": [[["batch_normalization_26", 0, 0, {}]]]}, {"class_name": "BatchNormalization", "name": "batch_normalization_27", "config": {"moving_variance_initializer": {"class_name": "Ones", "config": {}}, "gamma_regularizer": null, "moving_mean_initializer": {"class_name": "Zeros", "config": {}}, "axis": -1, "gamma_initializer": {"class_name": "Ones", "config": {}}, "trainable": true, "beta_regularizer": null, "momentum": 0.99, "center": true, "scale": true, "beta_initializer": {"class_name": "Zeros", "config": {}}, "gamma_constraint": null, "dtype": "float32", "name": "batch_normalization_27", "beta_constraint": null, "epsilon": 0.001}, "inbound_nodes": [[["0_lf8_x1_conv_3x3_x2", 0, 0, {}]]]}, {"class_name": "Conv2D", "name": "0_lf8_x1_conv_1x1_x3", "config": {"use_bias": true, "kernel_constraint": null, "activation": "relu", "bias_constraint": null, "activity_regularizer": null, "bias_initializer": {"class_name": "Zeros", "config": {}}, "bias_regularizer": null, "filters": 128, "strides": [1, 1], "kernel_regularizer": null, "trainable": true, "kernel_initializer": {"class_name": "VarianceScaling", "config": {"distribution": "uniform", "seed": null, "scale": 1.0, "mode": "fan_avg"}}, "padding": "same", "kernel_size": [1, 1], "dtype": "float32", "name": "0_lf8_x1_conv_1x1_x3", "data_format": "channels_last", "dilation_rate": [1, 1]}, "inbound_nodes": [[["batch_normalization_27", 0, 0, {}]]]}, {"class_name": "BatchNormalization", "name": "batch_normalization_28", "config": {"moving_variance_initializer": {"class_name": "Ones", "config": {}}, "gamma_regularizer": null, "moving_mean_initializer": {"class_name": "Zeros", "config": {}}, "axis": -1, "gamma_initializer": {"class_name": "Ones", "config": {}}, "trainable": true, "beta_regularizer": null, "momentum": 0.99, "center": true, "scale": true, "beta_initializer": {"class_name": "Zeros", "config": {}}, "gamma_constraint": null, "dtype": "float32", "name": "batch_normalization_28", "beta_constraint": null, "epsilon": 0.001}, "inbound_nodes": [[["0_lf8_x1_conv_1x1_x3", 0, 0, {}]]]}, {"class_name": "Add", "name": "0_lf8_x1_residual", "config": {"trainable": true, "dtype": "float32", "name": "0_lf8_x1_residual"}, "inbound_nodes": [[["hg0_l8_residual", 0, 0, {}], ["batch_normalization_28", 0, 0, {}]]]}, {"class_name": "Conv2D", "name": "0_lf8_x2_conv_1x1_x1", "config": {"use_bias": true, "kernel_constraint": null, "activation": "relu", "bias_constraint": null, "activity_regularizer": null, "bias_initializer": {"class_name": "Zeros", "config": {}}, "bias_regularizer": null, "filters": 64, "strides": [1, 1], "kernel_regularizer": null, "trainable": true, "kernel_initializer": {"class_name": "VarianceScaling", "config": {"distribution": "uniform", "seed": null, "scale": 1.0, "mode": "fan_avg"}}, "padding": "same", "kernel_size": [1, 1], "dtype": "float32", "name": "0_lf8_x2_conv_1x1_x1", "data_format": "channels_last", "dilation_rate": [1, 1]}, "inbound_nodes": [[["0_lf8_x1_residual", 0, 0, {}]]]}, {"class_name": "BatchNormalization", "name": "batch_normalization_29", "config": {"moving_variance_initializer": {"class_name": "Ones", "config": {}}, "gamma_regularizer": null, "moving_mean_initializer": {"class_name": "Zeros", "config": {}}, "axis": -1, "gamma_initializer": {"class_name": "Ones", "config": {}}, "trainable": true, "beta_regularizer": null, "momentum": 0.99, "center": true, "scale": true, "beta_initializer": {"class_name": "Zeros", "config": {}}, "gamma_constraint": null, "dtype": "float32", "name": "batch_normalization_29", "beta_constraint": null, "epsilon": 0.001}, "inbound_nodes": [[["0_lf8_x2_conv_1x1_x1", 0, 0, {}]]]}, {"class_name": "Conv2D", "name": "0_lf8_x2_conv_3x3_x2", "config": {"use_bias": true, "kernel_constraint": null, "activation": "relu", "bias_constraint": null, "activity_regularizer": null, "bias_initializer": {"class_name": "Zeros", "config": {}}, "bias_regularizer": null, "filters": 64, "strides": [1, 1], "kernel_regularizer": null, "trainable": true, "kernel_initializer": {"class_name": "VarianceScaling", "config": {"distribution": "uniform", "seed": null, "scale": 1.0, "mode": "fan_avg"}}, "padding": "same", "kernel_size": [3, 3], "dtype": "float32", "name": "0_lf8_x2_conv_3x3_x2", "data_format": "channels_last", "dilation_rate": [1, 1]}, "inbound_nodes": [[["batch_normalization_29", 0, 0, {}]]]}, {"class_name": "BatchNormalization", "name": "batch_normalization_30", "config": {"moving_variance_initializer": {"class_name": "Ones", "config": {}}, "gamma_regularizer": null, "moving_mean_initializer": {"class_name": "Zeros", "config": {}}, "axis": -1, "gamma_initializer": {"class_name": "Ones", "config": {}}, "trainable": true, "beta_regularizer": null, "momentum": 0.99, "center": true, "scale": true, "beta_initializer": {"class_name": "Zeros", "config": {}}, "gamma_constraint": null, "dtype": "float32", "name": "batch_normalization_30", "beta_constraint": null, "epsilon": 0.001}, "inbound_nodes": [[["0_lf8_x2_conv_3x3_x2", 0, 0, {}]]]}, {"class_name": "Conv2D", "name": "0_lf8_x2_conv_1x1_x3", "config": {"use_bias": true, "kernel_constraint": null, "activation": "relu", "bias_constraint": null, "activity_regularizer": null, "bias_initializer": {"class_name": "Zeros", "config": {}}, "bias_regularizer": null, "filters": 128, "strides": [1, 1], "kernel_regularizer": null, "trainable": true, "kernel_initializer": {"class_name": "VarianceScaling", "config": {"distribution": "uniform", "seed": null, "scale": 1.0, "mode": "fan_avg"}}, "padding": "same", "kernel_size": [1, 1], "dtype": "float32", "name": "0_lf8_x2_conv_1x1_x3", "data_format": "channels_last", "dilation_rate": [1, 1]}, "inbound_nodes": [[["batch_normalization_30", 0, 0, {}]]]}, {"class_name": "BatchNormalization", "name": "batch_normalization_31", "config": {"moving_variance_initializer": {"class_name": "Ones", "config": {}}, "gamma_regularizer": null, "moving_mean_initializer": {"class_name": "Zeros", "config": {}}, "axis": -1, "gamma_initializer": {"class_name": "Ones", "config": {}}, "trainable": true, "beta_regularizer": null, "momentum": 0.99, "center": true, "scale": true, "beta_initializer": {"class_name": "Zeros", "config": {}}, "gamma_constraint": null, "dtype": "float32", "name": "batch_normalization_31", "beta_constraint": null, "epsilon": 0.001}, "inbound_nodes": [[["0_lf8_x2_conv_1x1_x3", 0, 0, {}]]]}, {"class_name": "Add", "name": "0_lf8_x2_residual", "config": {"trainable": true, "dtype": "float32", "name": "0_lf8_x2_residual"}, "inbound_nodes": [[["0_lf8_x1_residual", 0, 0, {}], ["batch_normalization_31", 0, 0, {}]]]}, {"class_name": "Conv2D", "name": "0_lf8_x3_conv_1x1_x1", "config": {"use_bias": true, "kernel_constraint": null, "activation": "relu", "bias_constraint": null, "activity_regularizer": null, "bias_initializer": {"class_name": "Zeros", "config": {}}, "bias_regularizer": null, "filters": 64, "strides": [1, 1], "kernel_regularizer": null, "trainable": true, "kernel_initializer": {"class_name": "VarianceScaling", "config": {"distribution": "uniform", "seed": null, "scale": 1.0, "mode": "fan_avg"}}, "padding": "same", "kernel_size": [1, 1], "dtype": "float32", "name": "0_lf8_x3_conv_1x1_x1", "data_format": "channels_last", "dilation_rate": [1, 1]}, "inbound_nodes": [[["0_lf8_x2_residual", 0, 0, {}]]]}, {"class_name": "Conv2D", "name": "0_lf8_conv_1x1_x1", "config": {"use_bias": true, "kernel_constraint": null, "activation": "relu", "bias_constraint": null, "activity_regularizer": null, "bias_initializer": {"class_name": "Zeros", "config": {}}, "bias_regularizer": null, "filters": 64, "strides": [1, 1], "kernel_regularizer": null, "trainable": true, "kernel_initializer": {"class_name": "VarianceScaling", "config": {"distribution": "uniform", "seed": null, "scale": 1.0, "mode": "fan_avg"}}, "padding": "same", "kernel_size": [1, 1], "dtype": "float32", "name": "0_lf8_conv_1x1_x1", "data_format": "channels_last", "dilation_rate": [1, 1]}, "inbound_nodes": [[["hg0_l8_residual", 0, 0, {}]]]}, {"class_name": "BatchNormalization", "name": "batch_normalization_32", "config": {"moving_variance_initializer": {"class_name": "Ones", "config": {}}, "gamma_regularizer": null, "moving_mean_initializer": {"class_name": "Zeros", "config": {}}, "axis": -1, "gamma_initializer": {"class_name": "Ones", "config": {}}, "trainable": true, "beta_regularizer": null, "momentum": 0.99, "center": true, "scale": true, "beta_initializer": {"class_name": "Zeros", "config": {}}, "gamma_constraint": null, "dtype": "float32", "name": "batch_normalization_32", "beta_constraint": null, "epsilon": 0.001}, "inbound_nodes": [[["0_lf8_x3_conv_1x1_x1", 0, 0, {}]]]}, {"class_name": "BatchNormalization", "name": "batch_normalization_23", "config": {"moving_variance_initializer": {"class_name": "Ones", "config": {}}, "gamma_regularizer": null, "moving_mean_initializer": {"class_name": "Zeros", "config": {}}, "axis": -1, "gamma_initializer": {"class_name": "Ones", "config": {}}, "trainable": true, "beta_regularizer": null, "momentum": 0.99, "center": true, "scale": true, "beta_initializer": {"class_name": "Zeros", "config": {}}, "gamma_constraint": null, "dtype": "float32", "name": "batch_normalization_23", "beta_constraint": null, "epsilon": 0.001}, "inbound_nodes": [[["0_lf8_conv_1x1_x1", 0, 0, {}]]]}, {"class_name": "Conv2D", "name": "hg0_rf4_connect_conv_1x1_x1", "config": {"use_bias": true, "kernel_constraint": null, "activation": "relu", "bias_constraint": null, "activity_regularizer": null, "bias_initializer": {"class_name": "Zeros", "config": {}}, "bias_regularizer": null, "filters": 64, "strides": [1, 1], "kernel_regularizer": null, "trainable": true, "kernel_initializer": {"class_name": "VarianceScaling", "config": {"distribution": "uniform", "seed": null, "scale": 1.0, "mode": "fan_avg"}}, "padding": "same", "kernel_size": [1, 1], "dtype": "float32", "name": "hg0_rf4_connect_conv_1x1_x1", "data_format": "channels_last", "dilation_rate": [1, 1]}, "inbound_nodes": [[["hg0_l4_residual", 0, 0, {}]]]}, {"class_name": "Conv2D", "name": "0_lf8_x3_conv_3x3_x2", "config": {"use_bias": true, "kernel_constraint": null, "activation": "relu", "bias_constraint": null, "activity_regularizer": null, "bias_initializer": {"class_name": "Zeros", "config": {}}, "bias_regularizer": null, "filters": 64, "strides": [1, 1], "kernel_regularizer": null, "trainable": true, "kernel_initializer": {"class_name": "VarianceScaling", "config": {"distribution": "uniform", "seed": null, "scale": 1.0, "mode": "fan_avg"}}, "padding": "same", "kernel_size": [3, 3], "dtype": "float32", "name": "0_lf8_x3_conv_3x3_x2", "data_format": "channels_last", "dilation_rate": [1, 1]}, "inbound_nodes": [[["batch_normalization_32", 0, 0, {}]]]}, {"class_name": "Conv2D", "name": "0_lf8_conv_3x3_x2", "config": {"use_bias": true, "kernel_constraint": null, "activation": "relu", "bias_constraint": null, "activity_regularizer": null, "bias_initializer": {"class_name": "Zeros", "config": {}}, "bias_regularizer": null, "filters": 64, "strides": [1, 1], "kernel_regularizer": null, "trainable": true, "kernel_initializer": {"class_name": "VarianceScaling", "config": {"distribution": "uniform", "seed": null, "scale": 1.0, "mode": "fan_avg"}}, "padding": "same", "kernel_size": [3, 3], "dtype": "float32", "name": "0_lf8_conv_3x3_x2", "data_format": "channels_last", "dilation_rate": [1, 1]}, "inbound_nodes": [[["batch_normalization_23", 0, 0, {}]]]}, {"class_name": "BatchNormalization", "name": "batch_normalization_35", "config": {"moving_variance_initializer": {"class_name": "Ones", "config": {}}, "gamma_regularizer": null, "moving_mean_initializer": {"class_name": "Zeros", "config": {}}, "axis": -1, "gamma_initializer": {"class_name": "Ones", "config": {}}, "trainable": true, "beta_regularizer": null, "momentum": 0.99, "center": true, "scale": true, "beta_initializer": {"class_name": "Zeros", "config": {}}, "gamma_constraint": null, "dtype": "float32", "name": "batch_normalization_35", "beta_constraint": null, "epsilon": 0.001}, "inbound_nodes": [[["hg0_rf4_connect_conv_1x1_x1", 0, 0, {}]]]}, {"class_name": "BatchNormalization", "name": "batch_normalization_33", "config": {"moving_variance_initializer": {"class_name": "Ones", "config": {}}, "gamma_regularizer": null, "moving_mean_initializer": {"class_name": "Zeros", "config": {}}, "axis": -1, "gamma_initializer": {"class_name": "Ones", "config": {}}, "trainable": true, "beta_regularizer": null, "momentum": 0.99, "center": true, "scale": true, "beta_initializer": {"class_name": "Zeros", "config": {}}, "gamma_constraint": null, "dtype": "float32", "name": "batch_normalization_33", "beta_constraint": null, "epsilon": 0.001}, "inbound_nodes": [[["0_lf8_x3_conv_3x3_x2", 0, 0, {}]]]}, {"class_name": "BatchNormalization", "name": "batch_normalization_24", "config": {"moving_variance_initializer": {"class_name": "Ones", "config": {}}, "gamma_regularizer": null, "moving_mean_initializer": {"class_name": "Zeros", "config": {}}, "axis": -1, "gamma_initializer": {"class_name": "Ones", "config": {}}, "trainable": true, "beta_regularizer": null, "momentum": 0.99, "center": true, "scale": true, "beta_initializer": {"class_name": "Zeros", "config": {}}, "gamma_constraint": null, "dtype": "float32", "name": "batch_normalization_24", "beta_constraint": null, "epsilon": 0.001}, "inbound_nodes": [[["0_lf8_conv_3x3_x2", 0, 0, {}]]]}, {"class_name": "Conv2D", "name": "hg0_rf4_connect_conv_3x3_x2", "config": {"use_bias": true, "kernel_constraint": null, "activation": "relu", "bias_constraint": null, "activity_regularizer": null, "bias_initializer": {"class_name": "Zeros", "config": {}}, "bias_regularizer": null, "filters": 64, "strides": [1, 1], "kernel_regularizer": null, "trainable": true, "kernel_initializer": {"class_name": "VarianceScaling", "config": {"distribution": "uniform", "seed": null, "scale": 1.0, "mode": "fan_avg"}}, "padding": "same", "kernel_size": [3, 3], "dtype": "float32", "name": "hg0_rf4_connect_conv_3x3_x2", "data_format": "channels_last", "dilation_rate": [1, 1]}, "inbound_nodes": [[["batch_normalization_35", 0, 0, {}]]]}, {"class_name": "Conv2D", "name": "0_lf8_x3_conv_1x1_x3", "config": {"use_bias": true, "kernel_constraint": null, "activation": "relu", "bias_constraint": null, "activity_regularizer": null, "bias_initializer": {"class_name": "Zeros", "config": {}}, "bias_regularizer": null, "filters": 128, "strides": [1, 1], "kernel_regularizer": null, "trainable": true, "kernel_initializer": {"class_name": "VarianceScaling", "config": {"distribution": "uniform", "seed": null, "scale": 1.0, "mode": "fan_avg"}}, "padding": "same", "kernel_size": [1, 1], "dtype": "float32", "name": "0_lf8_x3_conv_1x1_x3", "data_format": "channels_last", "dilation_rate": [1, 1]}, "inbound_nodes": [[["batch_normalization_33", 0, 0, {}]]]}, {"class_name": "Conv2D", "name": "0_lf8_conv_1x1_x3", "config": {"use_bias": true, "kernel_constraint": null, "activation": "relu", "bias_constraint": null, "activity_regularizer": null, "bias_initializer": {"class_name": "Zeros", "config": {}}, "bias_regularizer": null, "filters": 128, "strides": [1, 1], "kernel_regularizer": null, "trainable": true, "kernel_initializer": {"class_name": "VarianceScaling", "config": {"distribution": "uniform", "seed": null, "scale": 1.0, "mode": "fan_avg"}}, "padding": "same", "kernel_size": [1, 1], "dtype": "float32", "name": "0_lf8_conv_1x1_x3", "data_format": "channels_last", "dilation_rate": [1, 1]}, "inbound_nodes": [[["batch_normalization_24", 0, 0, {}]]]}, {"class_name": "BatchNormalization", "name": "batch_normalization_36", "config": {"moving_variance_initializer": {"class_name": "Ones", "config": {}}, "gamma_regularizer": null, "moving_mean_initializer": {"class_name": "Zeros", "config": {}}, "axis": -1, "gamma_initializer": {"class_name": "Ones", "config": {}}, "trainable": true, "beta_regularizer": null, "momentum": 0.99, "center": true, "scale": true, "beta_initializer": {"class_name": "Zeros", "config": {}}, "gamma_constraint": null, "dtype": "float32", "name": "batch_normalization_36", "beta_constraint": null, "epsilon": 0.001}, "inbound_nodes": [[["hg0_rf4_connect_conv_3x3_x2", 0, 0, {}]]]}, {"class_name": "BatchNormalization", "name": "batch_normalization_34", "config": {"moving_variance_initializer": {"class_name": "Ones", "config": {}}, "gamma_regularizer": null, "moving_mean_initializer": {"class_name": "Zeros", "config": {}}, "axis": -1, "gamma_initializer": {"class_name": "Ones", "config": {}}, "trainable": true, "beta_regularizer": null, "momentum": 0.99, "center": true, "scale": true, "beta_initializer": {"class_name": "Zeros", "config": {}}, "gamma_constraint": null, "dtype": "float32", "name": "batch_normalization_34", "beta_constraint": null, "epsilon": 0.001}, "inbound_nodes": [[["0_lf8_x3_conv_1x1_x3", 0, 0, {}]]]}, {"class_name": "BatchNormalization", "name": "batch_normalization_25", "config": {"moving_variance_initializer": {"class_name": "Ones", "config": {}}, "gamma_regularizer": null, "moving_mean_initializer": {"class_name": "Zeros", "config": {}}, "axis": -1, "gamma_initializer": {"class_name": "Ones", "config": {}}, "trainable": true, "beta_regularizer": null, "momentum": 0.99, "center": true, "scale": true, "beta_initializer": {"class_name": "Zeros", "config": {}}, "gamma_constraint": null, "dtype": "float32", "name": "batch_normalization_25", "beta_constraint": null, "epsilon": 0.001}, "inbound_nodes": [[["0_lf8_conv_1x1_x3", 0, 0, {}]]]}, {"class_name": "Conv2D", "name": "hg0_rf4_connect_conv_1x1_x3", "config": {"use_bias": true, "kernel_constraint": null, "activation": "relu", "bias_constraint": null, "activity_regularizer": null, "bias_initializer": {"class_name": "Zeros", "config": {}}, "bias_regularizer": null, "filters": 128, "strides": [1, 1], "kernel_regularizer": null, "trainable": true, "kernel_initializer": {"class_name": "VarianceScaling", "config": {"distribution": "uniform", "seed": null, "scale": 1.0, "mode": "fan_avg"}}, "padding": "same", "kernel_size": [1, 1], "dtype": "float32", "name": "hg0_rf4_connect_conv_1x1_x3", "data_format": "channels_last", "dilation_rate": [1, 1]}, "inbound_nodes": [[["batch_normalization_36", 0, 0, {}]]]}, {"class_name": "Add", "name": "0_lf8_x3_residual", "config": {"trainable": true, "dtype": "float32", "name": "0_lf8_x3_residual"}, "inbound_nodes": [[["0_lf8_x2_residual", 0, 0, {}], ["batch_normalization_34", 0, 0, {}]]]}, {"class_name": "Add", "name": "0_lf8_residual", "config": {"trainable": true, "dtype": "float32", "name": "0_lf8_residual"}, "inbound_nodes": [[["hg0_l8_residual", 0, 0, {}], ["batch_normalization_25", 0, 0, {}]]]}, {"class_name": "BatchNormalization", "name": "batch_normalization_37", "config": {"moving_variance_initializer": {"class_name": "Ones", "config": {}}, "gamma_regularizer": null, "moving_mean_initializer": {"class_name": "Zeros", "config": {}}, "axis": -1, "gamma_initializer": {"class_name": "Ones", "config": {}}, "trainable": true, "beta_regularizer": null, "momentum": 0.99, "center": true, "scale": true, "beta_initializer": {"class_name": "Zeros", "config": {}}, "gamma_constraint": null, "dtype": "float32", "name": "batch_normalization_37", "beta_constraint": null, "epsilon": 0.001}, "inbound_nodes": [[["hg0_rf4_connect_conv_1x1_x3", 0, 0, {}]]]}, {"class_name": "Add", "name": "add_1", "config": {"trainable": true, "dtype": "float32", "name": "add_1"}, "inbound_nodes": [[["0_lf8_x3_residual", 0, 0, {}], ["0_lf8_residual", 0, 0, {}]]]}, {"class_name": "Add", "name": "hg0_rf4_connect_residual", "config": {"trainable": true, "dtype": "float32", "name": "hg0_rf4_connect_residual"}, "inbound_nodes": [[["hg0_l4_residual", 0, 0, {}], ["batch_normalization_37", 0, 0, {}]]]}, {"class_name": "UpSampling2D", "name": "up_sampling2d_1", "config": {"trainable": true, "name": "up_sampling2d_1", "interpolation": "nearest", "dtype": "float32", "size": [2, 2], "data_format": "channels_last"}, "inbound_nodes": [[["add_1", 0, 0, {}]]]}, {"class_name": "Add", "name": "add_2", "config": {"trainable": true, "dtype": "float32", "name": "add_2"}, "inbound_nodes": [[["hg0_rf4_connect_residual", 0, 0, {}], ["up_sampling2d_1", 0, 0, {}]]]}, {"class_name": "Conv2D", "name": "hg0_rf4_connect_conv_conv_1x1_x1", "config": {"use_bias": true, "kernel_constraint": null, "activation": "relu", "bias_constraint": null, "activity_regularizer": null, "bias_initializer": {"class_name": "Zeros", "config": {}}, "bias_regularizer": null, "filters": 64, "strides": [1, 1], "kernel_regularizer": null, "trainable": true, "kernel_initializer": {"class_name": "VarianceScaling", "config": {"distribution": "uniform", "seed": null, "scale": 1.0, "mode": "fan_avg"}}, "padding": "same", "kernel_size": [1, 1], "dtype": "float32", "name": "hg0_rf4_connect_conv_conv_1x1_x1", "data_format": "channels_last", "dilation_rate": [1, 1]}, "inbound_nodes": [[["add_2", 0, 0, {}]]]}, {"class_name": "Conv2D", "name": "hg0_rf2_connect_conv_1x1_x1", "config": {"use_bias": true, "kernel_constraint": null, "activation": "relu", "bias_constraint": null, "activity_regularizer": null, "bias_initializer": {"class_name": "Zeros", "config": {}}, "bias_regularizer": null, "filters": 64, "strides": [1, 1], "kernel_regularizer": null, "trainable": true, "kernel_initializer": {"class_name": "VarianceScaling", "config": {"distribution": "uniform", "seed": null, "scale": 1.0, "mode": "fan_avg"}}, "padding": "same", "kernel_size": [1, 1], "dtype": "float32", "name": "hg0_rf2_connect_conv_1x1_x1", "data_format": "channels_last", "dilation_rate": [1, 1]}, "inbound_nodes": [[["hg0_l2_residual", 0, 0, {}]]]}, {"class_name": "BatchNormalization", "name": "batch_normalization_38", "config": {"moving_variance_initializer": {"class_name": "Ones", "config": {}}, "gamma_regularizer": null, "moving_mean_initializer": {"class_name": "Zeros", "config": {}}, "axis": -1, "gamma_initializer": {"class_name": "Ones", "config": {}}, "trainable": true, "beta_regularizer": null, "momentum": 0.99, "center": true, "scale": true, "beta_initializer": {"class_name": "Zeros", "config": {}}, "gamma_constraint": null, "dtype": "float32", "name": "batch_normalization_38", "beta_constraint": null, "epsilon": 0.001}, "inbound_nodes": [[["hg0_rf4_connect_conv_conv_1x1_x1", 0, 0, {}]]]}, {"class_name": "BatchNormalization", "name": "batch_normalization_41", "config": {"moving_variance_initializer": {"class_name": "Ones", "config": {}}, "gamma_regularizer": null, "moving_mean_initializer": {"class_name": "Zeros", "config": {}}, "axis": -1, "gamma_initializer": {"class_name": "Ones", "config": {}}, "trainable": true, "beta_regularizer": null, "momentum": 0.99, "center": true, "scale": true, "beta_initializer": {"class_name": "Zeros", "config": {}}, "gamma_constraint": null, "dtype": "float32", "name": "batch_normalization_41", "beta_constraint": null, "epsilon": 0.001}, "inbound_nodes": [[["hg0_rf2_connect_conv_1x1_x1", 0, 0, {}]]]}, {"class_name": "Conv2D", "name": "hg0_rf4_connect_conv_conv_3x3_x2", "config": {"use_bias": true, "kernel_constraint": null, "activation": "relu", "bias_constraint": null, "activity_regularizer": null, "bias_initializer": {"class_name": "Zeros", "config": {}}, "bias_regularizer": null, "filters": 64, "strides": [1, 1], "kernel_regularizer": null, "trainable": true, "kernel_initializer": {"class_name": "VarianceScaling", "config": {"distribution": "uniform", "seed": null, "scale": 1.0, "mode": "fan_avg"}}, "padding": "same", "kernel_size": [3, 3], "dtype": "float32", "name": "hg0_rf4_connect_conv_conv_3x3_x2", "data_format": "channels_last", "dilation_rate": [1, 1]}, "inbound_nodes": [[["batch_normalization_38", 0, 0, {}]]]}, {"class_name": "Conv2D", "name": "hg0_rf2_connect_conv_3x3_x2", "config": {"use_bias": true, "kernel_constraint": null, "activation": "relu", "bias_constraint": null, "activity_regularizer": null, "bias_initializer": {"class_name": "Zeros", "config": {}}, "bias_regularizer": null, "filters": 64, "strides": [1, 1], "kernel_regularizer": null, "trainable": true, "kernel_initializer": {"class_name": "VarianceScaling", "config": {"distribution": "uniform", "seed": null, "scale": 1.0, "mode": "fan_avg"}}, "padding": "same", "kernel_size": [3, 3], "dtype": "float32", "name": "hg0_rf2_connect_conv_3x3_x2", "data_format": "channels_last", "dilation_rate": [1, 1]}, "inbound_nodes": [[["batch_normalization_41", 0, 0, {}]]]}, {"class_name": "BatchNormalization", "name": "batch_normalization_39", "config": {"moving_variance_initializer": {"class_name": "Ones", "config": {}}, "gamma_regularizer": null, "moving_mean_initializer": {"class_name": "Zeros", "config": {}}, "axis": -1, "gamma_initializer": {"class_name": "Ones", "config": {}}, "trainable": true, "beta_regularizer": null, "momentum": 0.99, "center": true, "scale": true, "beta_initializer": {"class_name": "Zeros", "config": {}}, "gamma_constraint": null, "dtype": "float32", "name": "batch_normalization_39", "beta_constraint": null, "epsilon": 0.001}, "inbound_nodes": [[["hg0_rf4_connect_conv_conv_3x3_x2", 0, 0, {}]]]}, {"class_name": "BatchNormalization", "name": "batch_normalization_42", "config": {"moving_variance_initializer": {"class_name": "Ones", "config": {}}, "gamma_regularizer": null, "moving_mean_initializer": {"class_name": "Zeros", "config": {}}, "axis": -1, "gamma_initializer": {"class_name": "Ones", "config": {}}, "trainable": true, "beta_regularizer": null, "momentum": 0.99, "center": true, "scale": true, "beta_initializer": {"class_name": "Zeros", "config": {}}, "gamma_constraint": null, "dtype": "float32", "name": "batch_normalization_42", "beta_constraint": null, "epsilon": 0.001}, "inbound_nodes": [[["hg0_rf2_connect_conv_3x3_x2", 0, 0, {}]]]}, {"class_name": "Conv2D", "name": "hg0_rf4_connect_conv_conv_1x1_x3", "config": {"use_bias": true, "kernel_constraint": null, "activation": "relu", "bias_constraint": null, "activity_regularizer": null, "bias_initializer": {"class_name": "Zeros", "config": {}}, "bias_regularizer": null, "filters": 128, "strides": [1, 1], "kernel_regularizer": null, "trainable": true, "kernel_initializer": {"class_name": "VarianceScaling", "config": {"distribution": "uniform", "seed": null, "scale": 1.0, "mode": "fan_avg"}}, "padding": "same", "kernel_size": [1, 1], "dtype": "float32", "name": "hg0_rf4_connect_conv_conv_1x1_x3", "data_format": "channels_last", "dilation_rate": [1, 1]}, "inbound_nodes": [[["batch_normalization_39", 0, 0, {}]]]}, {"class_name": "Conv2D", "name": "hg0_rf2_connect_conv_1x1_x3", "config": {"use_bias": true, "kernel_constraint": null, "activation": "relu", "bias_constraint": null, "activity_regularizer": null, "bias_initializer": {"class_name": "Zeros", "config": {}}, "bias_regularizer": null, "filters": 128, "strides": [1, 1], "kernel_regularizer": null, "trainable": true, "kernel_initializer": {"class_name": "VarianceScaling", "config": {"distribution": "uniform", "seed": null, "scale": 1.0, "mode": "fan_avg"}}, "padding": "same", "kernel_size": [1, 1], "dtype": "float32", "name": "hg0_rf2_connect_conv_1x1_x3", "data_format": "channels_last", "dilation_rate": [1, 1]}, "inbound_nodes": [[["batch_normalization_42", 0, 0, {}]]]}, {"class_name": "BatchNormalization", "name": "batch_normalization_40", "config": {"moving_variance_initializer": {"class_name": "Ones", "config": {}}, "gamma_regularizer": null, "moving_mean_initializer": {"class_name": "Zeros", "config": {}}, "axis": -1, "gamma_initializer": {"class_name": "Ones", "config": {}}, "trainable": true, "beta_regularizer": null, "momentum": 0.99, "center": true, "scale": true, "beta_initializer": {"class_name": "Zeros", "config": {}}, "gamma_constraint": null, "dtype": "float32", "name": "batch_normalization_40", "beta_constraint": null, "epsilon": 0.001}, "inbound_nodes": [[["hg0_rf4_connect_conv_conv_1x1_x3", 0, 0, {}]]]}, {"class_name": "BatchNormalization", "name": "batch_normalization_43", "config": {"moving_variance_initializer": {"class_name": "Ones", "config": {}}, "gamma_regularizer": null, "moving_mean_initializer": {"class_name": "Zeros", "config": {}}, "axis": -1, "gamma_initializer": {"class_name": "Ones", "config": {}}, "trainable": true, "beta_regularizer": null, "momentum": 0.99, "center": true, "scale": true, "beta_initializer": {"class_name": "Zeros", "config": {}}, "gamma_constraint": null, "dtype": "float32", "name": "batch_normalization_43", "beta_constraint": null, "epsilon": 0.001}, "inbound_nodes": [[["hg0_rf2_connect_conv_1x1_x3", 0, 0, {}]]]}, {"class_name": "Add", "name": "hg0_rf4_connect_conv_residual", "config": {"trainable": true, "dtype": "float32", "name": "hg0_rf4_connect_conv_residual"}, "inbound_nodes": [[["add_2", 0, 0, {}], ["batch_normalization_40", 0, 0, {}]]]}, {"class_name": "Add", "name": "hg0_rf2_connect_residual", "config": {"trainable": true, "dtype": "float32", "name": "hg0_rf2_connect_residual"}, "inbound_nodes": [[["hg0_l2_residual", 0, 0, {}], ["batch_normalization_43", 0, 0, {}]]]}, {"class_name": "UpSampling2D", "name": "up_sampling2d_2", "config": {"trainable": true, "name": "up_sampling2d_2", "interpolation": "nearest", "dtype": "float32", "size": [2, 2], "data_format": "channels_last"}, "inbound_nodes": [[["hg0_rf4_connect_conv_residual", 0, 0, {}]]]}, {"class_name": "Add", "name": "add_3", "config": {"trainable": true, "dtype": "float32", "name": "add_3"}, "inbound_nodes": [[["hg0_rf2_connect_residual", 0, 0, {}], ["up_sampling2d_2", 0, 0, {}]]]}, {"class_name": "Conv2D", "name": "hg0_rf2_connect_conv_conv_1x1_x1", "config": {"use_bias": true, "kernel_constraint": null, "activation": "relu", "bias_constraint": null, "activity_regularizer": null, "bias_initializer": {"class_name": "Zeros", "config": {}}, "bias_regularizer": null, "filters": 64, "strides": [1, 1], "kernel_regularizer": null, "trainable": true, "kernel_initializer": {"class_name": "VarianceScaling", "config": {"distribution": "uniform", "seed": null, "scale": 1.0, "mode": "fan_avg"}}, "padding": "same", "kernel_size": [1, 1], "dtype": "float32", "name": "hg0_rf2_connect_conv_conv_1x1_x1", "data_format": "channels_last", "dilation_rate": [1, 1]}, "inbound_nodes": [[["add_3", 0, 0, {}]]]}, {"class_name": "Conv2D", "name": "hg0_rf1_connect_conv_1x1_x1", "config": {"use_bias": true, "kernel_constraint": null, "activation": "relu", "bias_constraint": null, "activity_regularizer": null, "bias_initializer": {"class_name": "Zeros", "config": {}}, "bias_regularizer": null, "filters": 64, "strides": [1, 1], "kernel_regularizer": null, "trainable": true, "kernel_initializer": {"class_name": "VarianceScaling", "config": {"distribution": "uniform", "seed": null, "scale": 1.0, "mode": "fan_avg"}}, "padding": "same", "kernel_size": [1, 1], "dtype": "float32", "name": "hg0_rf1_connect_conv_1x1_x1", "data_format": "channels_last", "dilation_rate": [1, 1]}, "inbound_nodes": [[["hg0_l1_residual", 0, 0, {}]]]}, {"class_name": "BatchNormalization", "name": "batch_normalization_44", "config": {"moving_variance_initializer": {"class_name": "Ones", "config": {}}, "gamma_regularizer": null, "moving_mean_initializer": {"class_name": "Zeros", "config": {}}, "axis": -1, "gamma_initializer": {"class_name": "Ones", "config": {}}, "trainable": true, "beta_regularizer": null, "momentum": 0.99, "center": true, "scale": true, "beta_initializer": {"class_name": "Zeros", "config": {}}, "gamma_constraint": null, "dtype": "float32", "name": "batch_normalization_44", "beta_constraint": null, "epsilon": 0.001}, "inbound_nodes": [[["hg0_rf2_connect_conv_conv_1x1_x1", 0, 0, {}]]]}, {"class_name": "BatchNormalization", "name": "batch_normalization_47", "config": {"moving_variance_initializer": {"class_name": "Ones", "config": {}}, "gamma_regularizer": null, "moving_mean_initializer": {"class_name": "Zeros", "config": {}}, "axis": -1, "gamma_initializer": {"class_name": "Ones", "config": {}}, "trainable": true, "beta_regularizer": null, "momentum": 0.99, "center": true, "scale": true, "beta_initializer": {"class_name": "Zeros", "config": {}}, "gamma_constraint": null, "dtype": "float32", "name": "batch_normalization_47", "beta_constraint": null, "epsilon": 0.001}, "inbound_nodes": [[["hg0_rf1_connect_conv_1x1_x1", 0, 0, {}]]]}, {"class_name": "Conv2D", "name": "hg0_rf2_connect_conv_conv_3x3_x2", "config": {"use_bias": true, "kernel_constraint": null, "activation": "relu", "bias_constraint": null, "activity_regularizer": null, "bias_initializer": {"class_name": "Zeros", "config": {}}, "bias_regularizer": null, "filters": 64, "strides": [1, 1], "kernel_regularizer": null, "trainable": true, "kernel_initializer": {"class_name": "VarianceScaling", "config": {"distribution": "uniform", "seed": null, "scale": 1.0, "mode": "fan_avg"}}, "padding": "same", "kernel_size": [3, 3], "dtype": "float32", "name": "hg0_rf2_connect_conv_conv_3x3_x2", "data_format": "channels_last", "dilation_rate": [1, 1]}, "inbound_nodes": [[["batch_normalization_44", 0, 0, {}]]]}, {"class_name": "Conv2D", "name": "hg0_rf1_connect_conv_3x3_x2", "config": {"use_bias": true, "kernel_constraint": null, "activation": "relu", "bias_constraint": null, "activity_regularizer": null, "bias_initializer": {"class_name": "Zeros", "config": {}}, "bias_regularizer": null, "filters": 64, "strides": [1, 1], "kernel_regularizer": null, "trainable": true, "kernel_initializer": {"class_name": "VarianceScaling", "config": {"distribution": "uniform", "seed": null, "scale": 1.0, "mode": "fan_avg"}}, "padding": "same", "kernel_size": [3, 3], "dtype": "float32", "name": "hg0_rf1_connect_conv_3x3_x2", "data_format": "channels_last", "dilation_rate": [1, 1]}, "inbound_nodes": [[["batch_normalization_47", 0, 0, {}]]]}, {"class_name": "BatchNormalization", "name": "batch_normalization_45", "config": {"moving_variance_initializer": {"class_name": "Ones", "config": {}}, "gamma_regularizer": null, "moving_mean_initializer": {"class_name": "Zeros", "config": {}}, "axis": -1, "gamma_initializer": {"class_name": "Ones", "config": {}}, "trainable": true, "beta_regularizer": null, "momentum": 0.99, "center": true, "scale": true, "beta_initializer": {"class_name": "Zeros", "config": {}}, "gamma_constraint": null, "dtype": "float32", "name": "batch_normalization_45", "beta_constraint": null, "epsilon": 0.001}, "inbound_nodes": [[["hg0_rf2_connect_conv_conv_3x3_x2", 0, 0, {}]]]}, {"class_name": "BatchNormalization", "name": "batch_normalization_48", "config": {"moving_variance_initializer": {"class_name": "Ones", "config": {}}, "gamma_regularizer": null, "moving_mean_initializer": {"class_name": "Zeros", "config": {}}, "axis": -1, "gamma_initializer": {"class_name": "Ones", "config": {}}, "trainable": true, "beta_regularizer": null, "momentum": 0.99, "center": true, "scale": true, "beta_initializer": {"class_name": "Zeros", "config": {}}, "gamma_constraint": null, "dtype": "float32", "name": "batch_normalization_48", "beta_constraint": null, "epsilon": 0.001}, "inbound_nodes": [[["hg0_rf1_connect_conv_3x3_x2", 0, 0, {}]]]}, {"class_name": "Conv2D", "name": "hg0_rf2_connect_conv_conv_1x1_x3", "config": {"use_bias": true, "kernel_constraint": null, "activation": "relu", "bias_constraint": null, "activity_regularizer": null, "bias_initializer": {"class_name": "Zeros", "config": {}}, "bias_regularizer": null, "filters": 128, "strides": [1, 1], "kernel_regularizer": null, "trainable": true, "kernel_initializer": {"class_name": "VarianceScaling", "config": {"distribution": "uniform", "seed": null, "scale": 1.0, "mode": "fan_avg"}}, "padding": "same", "kernel_size": [1, 1], "dtype": "float32", "name": "hg0_rf2_connect_conv_conv_1x1_x3", "data_format": "channels_last", "dilation_rate": [1, 1]}, "inbound_nodes": [[["batch_normalization_45", 0, 0, {}]]]}, {"class_name": "Conv2D", "name": "hg0_rf1_connect_conv_1x1_x3", "config": {"use_bias": true, "kernel_constraint": null, "activation": "relu", "bias_constraint": null, "activity_regularizer": null, "bias_initializer": {"class_name": "Zeros", "config": {}}, "bias_regularizer": null, "filters": 128, "strides": [1, 1], "kernel_regularizer": null, "trainable": true, "kernel_initializer": {"class_name": "VarianceScaling", "config": {"distribution": "uniform", "seed": null, "scale": 1.0, "mode": "fan_avg"}}, "padding": "same", "kernel_size": [1, 1], "dtype": "float32", "name": "hg0_rf1_connect_conv_1x1_x3", "data_format": "channels_last", "dilation_rate": [1, 1]}, "inbound_nodes": [[["batch_normalization_48", 0, 0, {}]]]}, {"class_name": "BatchNormalization", "name": "batch_normalization_46", "config": {"moving_variance_initializer": {"class_name": "Ones", "config": {}}, "gamma_regularizer": null, "moving_mean_initializer": {"class_name": "Zeros", "config": {}}, "axis": -1, "gamma_initializer": {"class_name": "Ones", "config": {}}, "trainable": true, "beta_regularizer": null, "momentum": 0.99, "center": true, "scale": true, "beta_initializer": {"class_name": "Zeros", "config": {}}, "gamma_constraint": null, "dtype": "float32", "name": "batch_normalization_46", "beta_constraint": null, "epsilon": 0.001}, "inbound_nodes": [[["hg0_rf2_connect_conv_conv_1x1_x3", 0, 0, {}]]]}, {"class_name": "BatchNormalization", "name": "batch_normalization_49", "config": {"moving_variance_initializer": {"class_name": "Ones", "config": {}}, "gamma_regularizer": null, "moving_mean_initializer": {"class_name": "Zeros", "config": {}}, "axis": -1, "gamma_initializer": {"class_name": "Ones", "config": {}}, "trainable": true, "beta_regularizer": null, "momentum": 0.99, "center": true, "scale": true, "beta_initializer": {"class_name": "Zeros", "config": {}}, "gamma_constraint": null, "dtype": "float32", "name": "batch_normalization_49", "beta_constraint": null, "epsilon": 0.001}, "inbound_nodes": [[["hg0_rf1_connect_conv_1x1_x3", 0, 0, {}]]]}, {"class_name": "Add", "name": "hg0_rf2_connect_conv_residual", "config": {"trainable": true, "dtype": "float32", "name": "hg0_rf2_connect_conv_residual"}, "inbound_nodes": [[["add_3", 0, 0, {}], ["batch_normalization_46", 0, 0, {}]]]}, {"class_name": "Add", "name": "hg0_rf1_connect_residual", "config": {"trainable": true, "dtype": "float32", "name": "hg0_rf1_connect_residual"}, "inbound_nodes": [[["hg0_l1_residual", 0, 0, {}], ["batch_normalization_49", 0, 0, {}]]]}, {"class_name": "UpSampling2D", "name": "up_sampling2d_3", "config": {"trainable": true, "name": "up_sampling2d_3", "interpolation": "nearest", "dtype": "float32", "size": [2, 2], "data_format": "channels_last"}, "inbound_nodes": [[["hg0_rf2_connect_conv_residual", 0, 0, {}]]]}, {"class_name": "Add", "name": "add_4", "config": {"trainable": true, "dtype": "float32", "name": "add_4"}, "inbound_nodes": [[["hg0_rf1_connect_residual", 0, 0, {}], ["up_sampling2d_3", 0, 0, {}]]]}, {"class_name": "Conv2D", "name": "hg0_rf1_connect_conv_conv_1x1_x1", "config": {"use_bias": true, "kernel_constraint": null, "activation": "relu", "bias_constraint": null, "activity_regularizer": null, "bias_initializer": {"class_name": "Zeros", "config": {}}, "bias_regularizer": null, "filters": 64, "strides": [1, 1], "kernel_regularizer": null, "trainable": true, "kernel_initializer": {"class_name": "VarianceScaling", "config": {"distribution": "uniform", "seed": null, "scale": 1.0, "mode": "fan_avg"}}, "padding": "same", "kernel_size": [1, 1], "dtype": "float32", "name": "hg0_rf1_connect_conv_conv_1x1_x1", "data_format": "channels_last", "dilation_rate": [1, 1]}, "inbound_nodes": [[["add_4", 0, 0, {}]]]}, {"class_name": "BatchNormalization", "name": "batch_normalization_50", "config": {"moving_variance_initializer": {"class_name": "Ones", "config": {}}, "gamma_regularizer": null, "moving_mean_initializer": {"class_name": "Zeros", "config": {}}, "axis": -1, "gamma_initializer": {"class_name": "Ones", "config": {}}, "trainable": true, "beta_regularizer": null, "momentum": 0.99, "center": true, "scale": true, "beta_initializer": {"class_name": "Zeros", "config": {}}, "gamma_constraint": null, "dtype": "float32", "name": "batch_normalization_50", "beta_constraint": null, "epsilon": 0.001}, "inbound_nodes": [[["hg0_rf1_connect_conv_conv_1x1_x1", 0, 0, {}]]]}, {"class_name": "Conv2D", "name": "hg0_rf1_connect_conv_conv_3x3_x2", "config": {"use_bias": true, "kernel_constraint": null, "activation": "relu", "bias_constraint": null, "activity_regularizer": null, "bias_initializer": {"class_name": "Zeros", "config": {}}, "bias_regularizer": null, "filters": 64, "strides": [1, 1], "kernel_regularizer": null, "trainable": true, "kernel_initializer": {"class_name": "VarianceScaling", "config": {"distribution": "uniform", "seed": null, "scale": 1.0, "mode": "fan_avg"}}, "padding": "same", "kernel_size": [3, 3], "dtype": "float32", "name": "hg0_rf1_connect_conv_conv_3x3_x2", "data_format": "channels_last", "dilation_rate": [1, 1]}, "inbound_nodes": [[["batch_normalization_50", 0, 0, {}]]]}, {"class_name": "BatchNormalization", "name": "batch_normalization_51", "config": {"moving_variance_initializer": {"class_name": "Ones", "config": {}}, "gamma_regularizer": null, "moving_mean_initializer": {"class_name": "Zeros", "config": {}}, "axis": -1, "gamma_initializer": {"class_name": "Ones", "config": {}}, "trainable": true, "beta_regularizer": null, "momentum": 0.99, "center": true, "scale": true, "beta_initializer": {"class_name": "Zeros", "config": {}}, "gamma_constraint": null, "dtype": "float32", "name": "batch_normalization_51", "beta_constraint": null, "epsilon": 0.001}, "inbound_nodes": [[["hg0_rf1_connect_conv_conv_3x3_x2", 0, 0, {}]]]}, {"class_name": "Conv2D", "name": "hg0_rf1_connect_conv_conv_1x1_x3", "config": {"use_bias": true, "kernel_constraint": null, "activation": "relu", "bias_constraint": null, "activity_regularizer": null, "bias_initializer": {"class_name": "Zeros", "config": {}}, "bias_regularizer": null, "filters": 128, "strides": [1, 1], "kernel_regularizer": null, "trainable": true, "kernel_initializer": {"class_name": "VarianceScaling", "config": {"distribution": "uniform", "seed": null, "scale": 1.0, "mode": "fan_avg"}}, "padding": "same", "kernel_size": [1, 1], "dtype": "float32", "name": "hg0_rf1_connect_conv_conv_1x1_x3", "data_format": "channels_last", "dilation_rate": [1, 1]}, "inbound_nodes": [[["batch_normalization_51", 0, 0, {}]]]}, {"class_name": "BatchNormalization", "name": "batch_normalization_52", "config": {"moving_variance_initializer": {"class_name": "Ones", "config": {}}, "gamma_regularizer": null, "moving_mean_initializer": {"class_name": "Zeros", "config": {}}, "axis": -1, "gamma_initializer": {"class_name": "Ones", "config": {}}, "trainable": true, "beta_regularizer": null, "momentum": 0.99, "center": true, "scale": true, "beta_initializer": {"class_name": "Zeros", "config": {}}, "gamma_constraint": null, "dtype": "float32", "name": "batch_normalization_52", "beta_constraint": null, "epsilon": 0.001}, "inbound_nodes": [[["hg0_rf1_connect_conv_conv_1x1_x3", 0, 0, {}]]]}, {"class_name": "Add", "name": "hg0_rf1_connect_conv_residual", "config": {"trainable": true, "dtype": "float32", "name": "hg0_rf1_connect_conv_residual"}, "inbound_nodes": [[["add_4", 0, 0, {}], ["batch_normalization_52", 0, 0, {}]]]}, {"class_name": "Conv2D", "name": "0_conv_1x1_x1", "config": {"use_bias": true, "kernel_constraint": null, "activation": "relu", "bias_constraint": null, "activity_regularizer": null, "bias_initializer": {"class_name": "Zeros", "config": {}}, "bias_regularizer": null, "filters": 128, "strides": [1, 1], "kernel_regularizer": null, "trainable": true, "kernel_initializer": {"class_name": "VarianceScaling", "config": {"distribution": "uniform", "seed": null, "scale": 1.0, "mode": "fan_avg"}}, "padding": "same", "kernel_size": [1, 1], "dtype": "float32", "name": "0_conv_1x1_x1", "data_format": "channels_last", "dilation_rate": [1, 1]}, "inbound_nodes": [[["hg0_rf1_connect_conv_residual", 0, 0, {}]]]}, {"class_name": "BatchNormalization", "name": "batch_normalization_53", "config": {"moving_variance_initializer": {"class_name": "Ones", "config": {}}, "gamma_regularizer": null, "moving_mean_initializer": {"class_name": "Zeros", "config": {}}, "axis": -1, "gamma_initializer": {"class_name": "Ones", "config": {}}, "trainable": true, "beta_regularizer": null, "momentum": 0.99, "center": true, "scale": true, "beta_initializer": {"class_name": "Zeros", "config": {}}, "gamma_constraint": null, "dtype": "float32", "name": "batch_normalization_53", "beta_constraint": null, "epsilon": 0.001}, "inbound_nodes": [[["0_conv_1x1_x1", 0, 0, {}]]]}, {"class_name": "Conv2D", "name": "0_conv_1x1_parts", "config": {"use_bias": true, "kernel_constraint": null, "activation": "linear", "bias_constraint": null, "activity_regularizer": null, "bias_initializer": {"class_name": "Zeros", "config": {}}, "bias_regularizer": null, "filters": 11, "strides": [1, 1], "kernel_regularizer": null, "trainable": true, "kernel_initializer": {"class_name": "VarianceScaling", "config": {"distribution": "uniform", "seed": null, "scale": 1.0, "mode": "fan_avg"}}, "padding": "same", "kernel_size": [1, 1], "dtype": "float32", "name": "0_conv_1x1_parts", "data_format": "channels_last", "dilation_rate": [1, 1]}, "inbound_nodes": [[["batch_normalization_53", 0, 0, {}]]]}, {"class_name": "Conv2D", "name": "0_conv_1x1_x2", "config": {"use_bias": true, "kernel_constraint": null, "activation": "linear", "bias_constraint": null, "activity_regularizer": null, "bias_initializer": {"class_name": "Zeros", "config": {}}, "bias_regularizer": null, "filters": 128, "strides": [1, 1], "kernel_regularizer": null, "trainable": true, "kernel_initializer": {"class_name": "VarianceScaling", "config": {"distribution": "uniform", "seed": null, "scale": 1.0, "mode": "fan_avg"}}, "padding": "same", "kernel_size": [1, 1], "dtype": "float32", "name": "0_conv_1x1_x2", "data_format": "channels_last", "dilation_rate": [1, 1]}, "inbound_nodes": [[["batch_normalization_53", 0, 0, {}]]]}, {"class_name": "Conv2D", "name": "0_conv_1x1_x3", "config": {"use_bias": true, "kernel_constraint": null, "activation": "linear", "bias_constraint": null, "activity_regularizer": null, "bias_initializer": {"class_name": "Zeros", "config": {}}, "bias_regularizer": null, "filters": 128, "strides": [1, 1], "kernel_regularizer": null, "trainable": true, "kernel_initializer": {"class_name": "VarianceScaling", "config": {"distribution": "uniform", "seed": null, "scale": 1.0, "mode": "fan_avg"}}, "padding": "same", "kernel_size": [1, 1], "dtype": "float32", "name": "0_conv_1x1_x3", "data_format": "channels_last", "dilation_rate": [1, 1]}, "inbound_nodes": [[["0_conv_1x1_parts", 0, 0, {}]]]}, {"class_name": "Add", "name": "add_5", "config": {"trainable": true, "dtype": "float32", "name": "add_5"}, "inbound_nodes": [[["0_conv_1x1_x2", 0, 0, {}], ["0_conv_1x1_x3", 0, 0, {}], ["front_residual_x3_residual", 0, 0, {}]]]}, {"class_name": "Conv2D", "name": "hg1_l1_conv_1x1_x1", "config": {"use_bias": true, "kernel_constraint": null, "activation": "relu", "bias_constraint": null, "activity_regularizer": null, "bias_initializer": {"class_name": "Zeros", "config": {}}, "bias_regularizer": null, "filters": 64, "strides": [1, 1], "kernel_regularizer": null, "trainable": true, "kernel_initializer": {"class_name": "VarianceScaling", "config": {"distribution": "uniform", "seed": null, "scale": 1.0, "mode": "fan_avg"}}, "padding": "same", "kernel_size": [1, 1], "dtype": "float32", "name": "hg1_l1_conv_1x1_x1", "data_format": "channels_last", "dilation_rate": [1, 1]}, "inbound_nodes": [[["add_5", 0, 0, {}]]]}, {"class_name": "BatchNormalization", "name": "batch_normalization_54", "config": {"moving_variance_initializer": {"class_name": "Ones", "config": {}}, "gamma_regularizer": null, "moving_mean_initializer": {"class_name": "Zeros", "config": {}}, "axis": -1, "gamma_initializer": {"class_name": "Ones", "config": {}}, "trainable": true, "beta_regularizer": null, "momentum": 0.99, "center": true, "scale": true, "beta_initializer": {"class_name": "Zeros", "config": {}}, "gamma_constraint": null, "dtype": "float32", "name": "batch_normalization_54", "beta_constraint": null, "epsilon": 0.001}, "inbound_nodes": [[["hg1_l1_conv_1x1_x1", 0, 0, {}]]]}, {"class_name": "Conv2D", "name": "hg1_l1_conv_3x3_x2", "config": {"use_bias": true, "kernel_constraint": null, "activation": "relu", "bias_constraint": null, "activity_regularizer": null, "bias_initializer": {"class_name": "Zeros", "config": {}}, "bias_regularizer": null, "filters": 64, "strides": [1, 1], "kernel_regularizer": null, "trainable": true, "kernel_initializer": {"class_name": "VarianceScaling", "config": {"distribution": "uniform", "seed": null, "scale": 1.0, "mode": "fan_avg"}}, "padding": "same", "kernel_size": [3, 3], "dtype": "float32", "name": "hg1_l1_conv_3x3_x2", "data_format": "channels_last", "dilation_rate": [1, 1]}, "inbound_nodes": [[["batch_normalization_54", 0, 0, {}]]]}, {"class_name": "BatchNormalization", "name": "batch_normalization_55", "config": {"moving_variance_initializer": {"class_name": "Ones", "config": {}}, "gamma_regularizer": null, "moving_mean_initializer": {"class_name": "Zeros", "config": {}}, "axis": -1, "gamma_initializer": {"class_name": "Ones", "config": {}}, "trainable": true, "beta_regularizer": null, "momentum": 0.99, "center": true, "scale": true, "beta_initializer": {"class_name": "Zeros", "config": {}}, "gamma_constraint": null, "dtype": "float32", "name": "batch_normalization_55", "beta_constraint": null, "epsilon": 0.001}, "inbound_nodes": [[["hg1_l1_conv_3x3_x2", 0, 0, {}]]]}, {"class_name": "Conv2D", "name": "hg1_l1_conv_1x1_x3", "config": {"use_bias": true, "kernel_constraint": null, "activation": "relu", "bias_constraint": null, "activity_regularizer": null, "bias_initializer": {"class_name": "Zeros", "config": {}}, "bias_regularizer": null, "filters": 128, "strides": [1, 1], "kernel_regularizer": null, "trainable": true, "kernel_initializer": {"class_name": "VarianceScaling", "config": {"distribution": "uniform", "seed": null, "scale": 1.0, "mode": "fan_avg"}}, "padding": "same", "kernel_size": [1, 1], "dtype": "float32", "name": "hg1_l1_conv_1x1_x3", "data_format": "channels_last", "dilation_rate": [1, 1]}, "inbound_nodes": [[["batch_normalization_55", 0, 0, {}]]]}, {"class_name": "BatchNormalization", "name": "batch_normalization_56", "config": {"moving_variance_initializer": {"class_name": "Ones", "config": {}}, "gamma_regularizer": null, "moving_mean_initializer": {"class_name": "Zeros", "config": {}}, "axis": -1, "gamma_initializer": {"class_name": "Ones", "config": {}}, "trainable": true, "beta_regularizer": null, "momentum": 0.99, "center": true, "scale": true, "beta_initializer": {"class_name": "Zeros", "config": {}}, "gamma_constraint": null, "dtype": "float32", "name": "batch_normalization_56", "beta_constraint": null, "epsilon": 0.001}, "inbound_nodes": [[["hg1_l1_conv_1x1_x3", 0, 0, {}]]]}, {"class_name": "Add", "name": "hg1_l1_residual", "config": {"trainable": true, "dtype": "float32", "name": "hg1_l1_residual"}, "inbound_nodes": [[["add_5", 0, 0, {}], ["batch_normalization_56", 0, 0, {}]]]}, {"class_name": "MaxPooling2D", "name": "max_pooling2d_5", "config": {"trainable": true, "padding": "valid", "pool_size": [2, 2], "dtype": "float32", "name": "max_pooling2d_5", "data_format": "channels_last", "strides": [2, 2]}, "inbound_nodes": [[["hg1_l1_residual", 0, 0, {}]]]}, {"class_name": "Conv2D", "name": "hg1_l2_conv_1x1_x1", "config": {"use_bias": true, "kernel_constraint": null, "activation": "relu", "bias_constraint": null, "activity_regularizer": null, "bias_initializer": {"class_name": "Zeros", "config": {}}, "bias_regularizer": null, "filters": 64, "strides": [1, 1], "kernel_regularizer": null, "trainable": true, "kernel_initializer": {"class_name": "VarianceScaling", "config": {"distribution": "uniform", "seed": null, "scale": 1.0, "mode": "fan_avg"}}, "padding": "same", "kernel_size": [1, 1], "dtype": "float32", "name": "hg1_l2_conv_1x1_x1", "data_format": "channels_last", "dilation_rate": [1, 1]}, "inbound_nodes": [[["max_pooling2d_5", 0, 0, {}]]]}, {"class_name": "BatchNormalization", "name": "batch_normalization_57", "config": {"moving_variance_initializer": {"class_name": "Ones", "config": {}}, "gamma_regularizer": null, "moving_mean_initializer": {"class_name": "Zeros", "config": {}}, "axis": -1, "gamma_initializer": {"class_name": "Ones", "config": {}}, "trainable": true, "beta_regularizer": null, "momentum": 0.99, "center": true, "scale": true, "beta_initializer": {"class_name": "Zeros", "config": {}}, "gamma_constraint": null, "dtype": "float32", "name": "batch_normalization_57", "beta_constraint": null, "epsilon": 0.001}, "inbound_nodes": [[["hg1_l2_conv_1x1_x1", 0, 0, {}]]]}, {"class_name": "Conv2D", "name": "hg1_l2_conv_3x3_x2", "config": {"use_bias": true, "kernel_constraint": null, "activation": "relu", "bias_constraint": null, "activity_regularizer": null, "bias_initializer": {"class_name": "Zeros", "config": {}}, "bias_regularizer": null, "filters": 64, "strides": [1, 1], "kernel_regularizer": null, "trainable": true, "kernel_initializer": {"class_name": "VarianceScaling", "config": {"distribution": "uniform", "seed": null, "scale": 1.0, "mode": "fan_avg"}}, "padding": "same", "kernel_size": [3, 3], "dtype": "float32", "name": "hg1_l2_conv_3x3_x2", "data_format": "channels_last", "dilation_rate": [1, 1]}, "inbound_nodes": [[["batch_normalization_57", 0, 0, {}]]]}, {"class_name": "BatchNormalization", "name": "batch_normalization_58", "config": {"moving_variance_initializer": {"class_name": "Ones", "config": {}}, "gamma_regularizer": null, "moving_mean_initializer": {"class_name": "Zeros", "config": {}}, "axis": -1, "gamma_initializer": {"class_name": "Ones", "config": {}}, "trainable": true, "beta_regularizer": null, "momentum": 0.99, "center": true, "scale": true, "beta_initializer": {"class_name": "Zeros", "config": {}}, "gamma_constraint": null, "dtype": "float32", "name": "batch_normalization_58", "beta_constraint": null, "epsilon": 0.001}, "inbound_nodes": [[["hg1_l2_conv_3x3_x2", 0, 0, {}]]]}, {"class_name": "Conv2D", "name": "hg1_l2_conv_1x1_x3", "config": {"use_bias": true, "kernel_constraint": null, "activation": "relu", "bias_constraint": null, "activity_regularizer": null, "bias_initializer": {"class_name": "Zeros", "config": {}}, "bias_regularizer": null, "filters": 128, "strides": [1, 1], "kernel_regularizer": null, "trainable": true, "kernel_initializer": {"class_name": "VarianceScaling", "config": {"distribution": "uniform", "seed": null, "scale": 1.0, "mode": "fan_avg"}}, "padding": "same", "kernel_size": [1, 1], "dtype": "float32", "name": "hg1_l2_conv_1x1_x3", "data_format": "channels_last", "dilation_rate": [1, 1]}, "inbound_nodes": [[["batch_normalization_58", 0, 0, {}]]]}, {"class_name": "BatchNormalization", "name": "batch_normalization_59", "config": {"moving_variance_initializer": {"class_name": "Ones", "config": {}}, "gamma_regularizer": null, "moving_mean_initializer": {"class_name": "Zeros", "config": {}}, "axis": -1, "gamma_initializer": {"class_name": "Ones", "config": {}}, "trainable": true, "beta_regularizer": null, "momentum": 0.99, "center": true, "scale": true, "beta_initializer": {"class_name": "Zeros", "config": {}}, "gamma_constraint": null, "dtype": "float32", "name": "batch_normalization_59", "beta_constraint": null, "epsilon": 0.001}, "inbound_nodes": [[["hg1_l2_conv_1x1_x3", 0, 0, {}]]]}, {"class_name": "Add", "name": "hg1_l2_residual", "config": {"trainable": true, "dtype": "float32", "name": "hg1_l2_residual"}, "inbound_nodes": [[["max_pooling2d_5", 0, 0, {}], ["batch_normalization_59", 0, 0, {}]]]}, {"class_name": "MaxPooling2D", "name": "max_pooling2d_6", "config": {"trainable": true, "padding": "valid", "pool_size": [2, 2], "dtype": "float32", "name": "max_pooling2d_6", "data_format": "channels_last", "strides": [2, 2]}, "inbound_nodes": [[["hg1_l2_residual", 0, 0, {}]]]}, {"class_name": "Conv2D", "name": "hg1_l4_conv_1x1_x1", "config": {"use_bias": true, "kernel_constraint": null, "activation": "relu", "bias_constraint": null, "activity_regularizer": null, "bias_initializer": {"class_name": "Zeros", "config": {}}, "bias_regularizer": null, "filters": 64, "strides": [1, 1], "kernel_regularizer": null, "trainable": true, "kernel_initializer": {"class_name": "VarianceScaling", "config": {"distribution": "uniform", "seed": null, "scale": 1.0, "mode": "fan_avg"}}, "padding": "same", "kernel_size": [1, 1], "dtype": "float32", "name": "hg1_l4_conv_1x1_x1", "data_format": "channels_last", "dilation_rate": [1, 1]}, "inbound_nodes": [[["max_pooling2d_6", 0, 0, {}]]]}, {"class_name": "BatchNormalization", "name": "batch_normalization_60", "config": {"moving_variance_initializer": {"class_name": "Ones", "config": {}}, "gamma_regularizer": null, "moving_mean_initializer": {"class_name": "Zeros", "config": {}}, "axis": -1, "gamma_initializer": {"class_name": "Ones", "config": {}}, "trainable": true, "beta_regularizer": null, "momentum": 0.99, "center": true, "scale": true, "beta_initializer": {"class_name": "Zeros", "config": {}}, "gamma_constraint": null, "dtype": "float32", "name": "batch_normalization_60", "beta_constraint": null, "epsilon": 0.001}, "inbound_nodes": [[["hg1_l4_conv_1x1_x1", 0, 0, {}]]]}, {"class_name": "Conv2D", "name": "hg1_l4_conv_3x3_x2", "config": {"use_bias": true, "kernel_constraint": null, "activation": "relu", "bias_constraint": null, "activity_regularizer": null, "bias_initializer": {"class_name": "Zeros", "config": {}}, "bias_regularizer": null, "filters": 64, "strides": [1, 1], "kernel_regularizer": null, "trainable": true, "kernel_initializer": {"class_name": "VarianceScaling", "config": {"distribution": "uniform", "seed": null, "scale": 1.0, "mode": "fan_avg"}}, "padding": "same", "kernel_size": [3, 3], "dtype": "float32", "name": "hg1_l4_conv_3x3_x2", "data_format": "channels_last", "dilation_rate": [1, 1]}, "inbound_nodes": [[["batch_normalization_60", 0, 0, {}]]]}, {"class_name": "BatchNormalization", "name": "batch_normalization_61", "config": {"moving_variance_initializer": {"class_name": "Ones", "config": {}}, "gamma_regularizer": null, "moving_mean_initializer": {"class_name": "Zeros", "config": {}}, "axis": -1, "gamma_initializer": {"class_name": "Ones", "config": {}}, "trainable": true, "beta_regularizer": null, "momentum": 0.99, "center": true, "scale": true, "beta_initializer": {"class_name": "Zeros", "config": {}}, "gamma_constraint": null, "dtype": "float32", "name": "batch_normalization_61", "beta_constraint": null, "epsilon": 0.001}, "inbound_nodes": [[["hg1_l4_conv_3x3_x2", 0, 0, {}]]]}, {"class_name": "Conv2D", "name": "hg1_l4_conv_1x1_x3", "config": {"use_bias": true, "kernel_constraint": null, "activation": "relu", "bias_constraint": null, "activity_regularizer": null, "bias_initializer": {"class_name": "Zeros", "config": {}}, "bias_regularizer": null, "filters": 128, "strides": [1, 1], "kernel_regularizer": null, "trainable": true, "kernel_initializer": {"class_name": "VarianceScaling", "config": {"distribution": "uniform", "seed": null, "scale": 1.0, "mode": "fan_avg"}}, "padding": "same", "kernel_size": [1, 1], "dtype": "float32", "name": "hg1_l4_conv_1x1_x3", "data_format": "channels_last", "dilation_rate": [1, 1]}, "inbound_nodes": [[["batch_normalization_61", 0, 0, {}]]]}, {"class_name": "BatchNormalization", "name": "batch_normalization_62", "config": {"moving_variance_initializer": {"class_name": "Ones", "config": {}}, "gamma_regularizer": null, "moving_mean_initializer": {"class_name": "Zeros", "config": {}}, "axis": -1, "gamma_initializer": {"class_name": "Ones", "config": {}}, "trainable": true, "beta_regularizer": null, "momentum": 0.99, "center": true, "scale": true, "beta_initializer": {"class_name": "Zeros", "config": {}}, "gamma_constraint": null, "dtype": "float32", "name": "batch_normalization_62", "beta_constraint": null, "epsilon": 0.001}, "inbound_nodes": [[["hg1_l4_conv_1x1_x3", 0, 0, {}]]]}, {"class_name": "Add", "name": "hg1_l4_residual", "config": {"trainable": true, "dtype": "float32", "name": "hg1_l4_residual"}, "inbound_nodes": [[["max_pooling2d_6", 0, 0, {}], ["batch_normalization_62", 0, 0, {}]]]}, {"class_name": "MaxPooling2D", "name": "max_pooling2d_7", "config": {"trainable": true, "padding": "valid", "pool_size": [2, 2], "dtype": "float32", "name": "max_pooling2d_7", "data_format": "channels_last", "strides": [2, 2]}, "inbound_nodes": [[["hg1_l4_residual", 0, 0, {}]]]}, {"class_name": "Conv2D", "name": "hg1_l8_conv_1x1_x1", "config": {"use_bias": true, "kernel_constraint": null, "activation": "relu", "bias_constraint": null, "activity_regularizer": null, "bias_initializer": {"class_name": "Zeros", "config": {}}, "bias_regularizer": null, "filters": 64, "strides": [1, 1], "kernel_regularizer": null, "trainable": true, "kernel_initializer": {"class_name": "VarianceScaling", "config": {"distribution": "uniform", "seed": null, "scale": 1.0, "mode": "fan_avg"}}, "padding": "same", "kernel_size": [1, 1], "dtype": "float32", "name": "hg1_l8_conv_1x1_x1", "data_format": "channels_last", "dilation_rate": [1, 1]}, "inbound_nodes": [[["max_pooling2d_7", 0, 0, {}]]]}, {"class_name": "BatchNormalization", "name": "batch_normalization_63", "config": {"moving_variance_initializer": {"class_name": "Ones", "config": {}}, "gamma_regularizer": null, "moving_mean_initializer": {"class_name": "Zeros", "config": {}}, "axis": -1, "gamma_initializer": {"class_name": "Ones", "config": {}}, "trainable": true, "beta_regularizer": null, "momentum": 0.99, "center": true, "scale": true, "beta_initializer": {"class_name": "Zeros", "config": {}}, "gamma_constraint": null, "dtype": "float32", "name": "batch_normalization_63", "beta_constraint": null, "epsilon": 0.001}, "inbound_nodes": [[["hg1_l8_conv_1x1_x1", 0, 0, {}]]]}, {"class_name": "Conv2D", "name": "hg1_l8_conv_3x3_x2", "config": {"use_bias": true, "kernel_constraint": null, "activation": "relu", "bias_constraint": null, "activity_regularizer": null, "bias_initializer": {"class_name": "Zeros", "config": {}}, "bias_regularizer": null, "filters": 64, "strides": [1, 1], "kernel_regularizer": null, "trainable": true, "kernel_initializer": {"class_name": "VarianceScaling", "config": {"distribution": "uniform", "seed": null, "scale": 1.0, "mode": "fan_avg"}}, "padding": "same", "kernel_size": [3, 3], "dtype": "float32", "name": "hg1_l8_conv_3x3_x2", "data_format": "channels_last", "dilation_rate": [1, 1]}, "inbound_nodes": [[["batch_normalization_63", 0, 0, {}]]]}, {"class_name": "BatchNormalization", "name": "batch_normalization_64", "config": {"moving_variance_initializer": {"class_name": "Ones", "config": {}}, "gamma_regularizer": null, "moving_mean_initializer": {"class_name": "Zeros", "config": {}}, "axis": -1, "gamma_initializer": {"class_name": "Ones", "config": {}}, "trainable": true, "beta_regularizer": null, "momentum": 0.99, "center": true, "scale": true, "beta_initializer": {"class_name": "Zeros", "config": {}}, "gamma_constraint": null, "dtype": "float32", "name": "batch_normalization_64", "beta_constraint": null, "epsilon": 0.001}, "inbound_nodes": [[["hg1_l8_conv_3x3_x2", 0, 0, {}]]]}, {"class_name": "Conv2D", "name": "hg1_l8_conv_1x1_x3", "config": {"use_bias": true, "kernel_constraint": null, "activation": "relu", "bias_constraint": null, "activity_regularizer": null, "bias_initializer": {"class_name": "Zeros", "config": {}}, "bias_regularizer": null, "filters": 128, "strides": [1, 1], "kernel_regularizer": null, "trainable": true, "kernel_initializer": {"class_name": "VarianceScaling", "config": {"distribution": "uniform", "seed": null, "scale": 1.0, "mode": "fan_avg"}}, "padding": "same", "kernel_size": [1, 1], "dtype": "float32", "name": "hg1_l8_conv_1x1_x3", "data_format": "channels_last", "dilation_rate": [1, 1]}, "inbound_nodes": [[["batch_normalization_64", 0, 0, {}]]]}, {"class_name": "BatchNormalization", "name": "batch_normalization_65", "config": {"moving_variance_initializer": {"class_name": "Ones", "config": {}}, "gamma_regularizer": null, "moving_mean_initializer": {"class_name": "Zeros", "config": {}}, "axis": -1, "gamma_initializer": {"class_name": "Ones", "config": {}}, "trainable": true, "beta_regularizer": null, "momentum": 0.99, "center": true, "scale": true, "beta_initializer": {"class_name": "Zeros", "config": {}}, "gamma_constraint": null, "dtype": "float32", "name": "batch_normalization_65", "beta_constraint": null, "epsilon": 0.001}, "inbound_nodes": [[["hg1_l8_conv_1x1_x3", 0, 0, {}]]]}, {"class_name": "Add", "name": "hg1_l8_residual", "config": {"trainable": true, "dtype": "float32", "name": "hg1_l8_residual"}, "inbound_nodes": [[["max_pooling2d_7", 0, 0, {}], ["batch_normalization_65", 0, 0, {}]]]}, {"class_name": "Conv2D", "name": "1_lf8_x1_conv_1x1_x1", "config": {"use_bias": true, "kernel_constraint": null, "activation": "relu", "bias_constraint": null, "activity_regularizer": null, "bias_initializer": {"class_name": "Zeros", "config": {}}, "bias_regularizer": null, "filters": 64, "strides": [1, 1], "kernel_regularizer": null, "trainable": true, "kernel_initializer": {"class_name": "VarianceScaling", "config": {"distribution": "uniform", "seed": null, "scale": 1.0, "mode": "fan_avg"}}, "padding": "same", "kernel_size": [1, 1], "dtype": "float32", "name": "1_lf8_x1_conv_1x1_x1", "data_format": "channels_last", "dilation_rate": [1, 1]}, "inbound_nodes": [[["hg1_l8_residual", 0, 0, {}]]]}, {"class_name": "BatchNormalization", "name": "batch_normalization_69", "config": {"moving_variance_initializer": {"class_name": "Ones", "config": {}}, "gamma_regularizer": null, "moving_mean_initializer": {"class_name": "Zeros", "config": {}}, "axis": -1, "gamma_initializer": {"class_name": "Ones", "config": {}}, "trainable": true, "beta_regularizer": null, "momentum": 0.99, "center": true, "scale": true, "beta_initializer": {"class_name": "Zeros", "config": {}}, "gamma_constraint": null, "dtype": "float32", "name": "batch_normalization_69", "beta_constraint": null, "epsilon": 0.001}, "inbound_nodes": [[["1_lf8_x1_conv_1x1_x1", 0, 0, {}]]]}, {"class_name": "Conv2D", "name": "1_lf8_x1_conv_3x3_x2", "config": {"use_bias": true, "kernel_constraint": null, "activation": "relu", "bias_constraint": null, "activity_regularizer": null, "bias_initializer": {"class_name": "Zeros", "config": {}}, "bias_regularizer": null, "filters": 64, "strides": [1, 1], "kernel_regularizer": null, "trainable": true, "kernel_initializer": {"class_name": "VarianceScaling", "config": {"distribution": "uniform", "seed": null, "scale": 1.0, "mode": "fan_avg"}}, "padding": "same", "kernel_size": [3, 3], "dtype": "float32", "name": "1_lf8_x1_conv_3x3_x2", "data_format": "channels_last", "dilation_rate": [1, 1]}, "inbound_nodes": [[["batch_normalization_69", 0, 0, {}]]]}, {"class_name": "BatchNormalization", "name": "batch_normalization_70", "config": {"moving_variance_initializer": {"class_name": "Ones", "config": {}}, "gamma_regularizer": null, "moving_mean_initializer": {"class_name": "Zeros", "config": {}}, "axis": -1, "gamma_initializer": {"class_name": "Ones", "config": {}}, "trainable": true, "beta_regularizer": null, "momentum": 0.99, "center": true, "scale": true, "beta_initializer": {"class_name": "Zeros", "config": {}}, "gamma_constraint": null, "dtype": "float32", "name": "batch_normalization_70", "beta_constraint": null, "epsilon": 0.001}, "inbound_nodes": [[["1_lf8_x1_conv_3x3_x2", 0, 0, {}]]]}, {"class_name": "Conv2D", "name": "1_lf8_x1_conv_1x1_x3", "config": {"use_bias": true, "kernel_constraint": null, "activation": "relu", "bias_constraint": null, "activity_regularizer": null, "bias_initializer": {"class_name": "Zeros", "config": {}}, "bias_regularizer": null, "filters": 128, "strides": [1, 1], "kernel_regularizer": null, "trainable": true, "kernel_initializer": {"class_name": "VarianceScaling", "config": {"distribution": "uniform", "seed": null, "scale": 1.0, "mode": "fan_avg"}}, "padding": "same", "kernel_size": [1, 1], "dtype": "float32", "name": "1_lf8_x1_conv_1x1_x3", "data_format": "channels_last", "dilation_rate": [1, 1]}, "inbound_nodes": [[["batch_normalization_70", 0, 0, {}]]]}, {"class_name": "BatchNormalization", "name": "batch_normalization_71", "config": {"moving_variance_initializer": {"class_name": "Ones", "config": {}}, "gamma_regularizer": null, "moving_mean_initializer": {"class_name": "Zeros", "config": {}}, "axis": -1, "gamma_initializer": {"class_name": "Ones", "config": {}}, "trainable": true, "beta_regularizer": null, "momentum": 0.99, "center": true, "scale": true, "beta_initializer": {"class_name": "Zeros", "config": {}}, "gamma_constraint": null, "dtype": "float32", "name": "batch_normalization_71", "beta_constraint": null, "epsilon": 0.001}, "inbound_nodes": [[["1_lf8_x1_conv_1x1_x3", 0, 0, {}]]]}, {"class_name": "Add", "name": "1_lf8_x1_residual", "config": {"trainable": true, "dtype": "float32", "name": "1_lf8_x1_residual"}, "inbound_nodes": [[["hg1_l8_residual", 0, 0, {}], ["batch_normalization_71", 0, 0, {}]]]}, {"class_name": "Conv2D", "name": "1_lf8_x2_conv_1x1_x1", "config": {"use_bias": true, "kernel_constraint": null, "activation": "relu", "bias_constraint": null, "activity_regularizer": null, "bias_initializer": {"class_name": "Zeros", "config": {}}, "bias_regularizer": null, "filters": 64, "strides": [1, 1], "kernel_regularizer": null, "trainable": true, "kernel_initializer": {"class_name": "VarianceScaling", "config": {"distribution": "uniform", "seed": null, "scale": 1.0, "mode": "fan_avg"}}, "padding": "same", "kernel_size": [1, 1], "dtype": "float32", "name": "1_lf8_x2_conv_1x1_x1", "data_format": "channels_last", "dilation_rate": [1, 1]}, "inbound_nodes": [[["1_lf8_x1_residual", 0, 0, {}]]]}, {"class_name": "BatchNormalization", "name": "batch_normalization_72", "config": {"moving_variance_initializer": {"class_name": "Ones", "config": {}}, "gamma_regularizer": null, "moving_mean_initializer": {"class_name": "Zeros", "config": {}}, "axis": -1, "gamma_initializer": {"class_name": "Ones", "config": {}}, "trainable": true, "beta_regularizer": null, "momentum": 0.99, "center": true, "scale": true, "beta_initializer": {"class_name": "Zeros", "config": {}}, "gamma_constraint": null, "dtype": "float32", "name": "batch_normalization_72", "beta_constraint": null, "epsilon": 0.001}, "inbound_nodes": [[["1_lf8_x2_conv_1x1_x1", 0, 0, {}]]]}, {"class_name": "Conv2D", "name": "1_lf8_x2_conv_3x3_x2", "config": {"use_bias": true, "kernel_constraint": null, "activation": "relu", "bias_constraint": null, "activity_regularizer": null, "bias_initializer": {"class_name": "Zeros", "config": {}}, "bias_regularizer": null, "filters": 64, "strides": [1, 1], "kernel_regularizer": null, "trainable": true, "kernel_initializer": {"class_name": "VarianceScaling", "config": {"distribution": "uniform", "seed": null, "scale": 1.0, "mode": "fan_avg"}}, "padding": "same", "kernel_size": [3, 3], "dtype": "float32", "name": "1_lf8_x2_conv_3x3_x2", "data_format": "channels_last", "dilation_rate": [1, 1]}, "inbound_nodes": [[["batch_normalization_72", 0, 0, {}]]]}, {"class_name": "BatchNormalization", "name": "batch_normalization_73", "config": {"moving_variance_initializer": {"class_name": "Ones", "config": {}}, "gamma_regularizer": null, "moving_mean_initializer": {"class_name": "Zeros", "config": {}}, "axis": -1, "gamma_initializer": {"class_name": "Ones", "config": {}}, "trainable": true, "beta_regularizer": null, "momentum": 0.99, "center": true, "scale": true, "beta_initializer": {"class_name": "Zeros", "config": {}}, "gamma_constraint": null, "dtype": "float32", "name": "batch_normalization_73", "beta_constraint": null, "epsilon": 0.001}, "inbound_nodes": [[["1_lf8_x2_conv_3x3_x2", 0, 0, {}]]]}, {"class_name": "Conv2D", "name": "1_lf8_x2_conv_1x1_x3", "config": {"use_bias": true, "kernel_constraint": null, "activation": "relu", "bias_constraint": null, "activity_regularizer": null, "bias_initializer": {"class_name": "Zeros", "config": {}}, "bias_regularizer": null, "filters": 128, "strides": [1, 1], "kernel_regularizer": null, "trainable": true, "kernel_initializer": {"class_name": "VarianceScaling", "config": {"distribution": "uniform", "seed": null, "scale": 1.0, "mode": "fan_avg"}}, "padding": "same", "kernel_size": [1, 1], "dtype": "float32", "name": "1_lf8_x2_conv_1x1_x3", "data_format": "channels_last", "dilation_rate": [1, 1]}, "inbound_nodes": [[["batch_normalization_73", 0, 0, {}]]]}, {"class_name": "BatchNormalization", "name": "batch_normalization_74", "config": {"moving_variance_initializer": {"class_name": "Ones", "config": {}}, "gamma_regularizer": null, "moving_mean_initializer": {"class_name": "Zeros", "config": {}}, "axis": -1, "gamma_initializer": {"class_name": "Ones", "config": {}}, "trainable": true, "beta_regularizer": null, "momentum": 0.99, "center": true, "scale": true, "beta_initializer": {"class_name": "Zeros", "config": {}}, "gamma_constraint": null, "dtype": "float32", "name": "batch_normalization_74", "beta_constraint": null, "epsilon": 0.001}, "inbound_nodes": [[["1_lf8_x2_conv_1x1_x3", 0, 0, {}]]]}, {"class_name": "Add", "name": "1_lf8_x2_residual", "config": {"trainable": true, "dtype": "float32", "name": "1_lf8_x2_residual"}, "inbound_nodes": [[["1_lf8_x1_residual", 0, 0, {}], ["batch_normalization_74", 0, 0, {}]]]}, {"class_name": "Conv2D", "name": "1_lf8_x3_conv_1x1_x1", "config": {"use_bias": true, "kernel_constraint": null, "activation": "relu", "bias_constraint": null, "activity_regularizer": null, "bias_initializer": {"class_name": "Zeros", "config": {}}, "bias_regularizer": null, "filters": 64, "strides": [1, 1], "kernel_regularizer": null, "trainable": true, "kernel_initializer": {"class_name": "VarianceScaling", "config": {"distribution": "uniform", "seed": null, "scale": 1.0, "mode": "fan_avg"}}, "padding": "same", "kernel_size": [1, 1], "dtype": "float32", "name": "1_lf8_x3_conv_1x1_x1", "data_format": "channels_last", "dilation_rate": [1, 1]}, "inbound_nodes": [[["1_lf8_x2_residual", 0, 0, {}]]]}, {"class_name": "Conv2D", "name": "1_lf8_conv_1x1_x1", "config": {"use_bias": true, "kernel_constraint": null, "activation": "relu", "bias_constraint": null, "activity_regularizer": null, "bias_initializer": {"class_name": "Zeros", "config": {}}, "bias_regularizer": null, "filters": 64, "strides": [1, 1], "kernel_regularizer": null, "trainable": true, "kernel_initializer": {"class_name": "VarianceScaling", "config": {"distribution": "uniform", "seed": null, "scale": 1.0, "mode": "fan_avg"}}, "padding": "same", "kernel_size": [1, 1], "dtype": "float32", "name": "1_lf8_conv_1x1_x1", "data_format": "channels_last", "dilation_rate": [1, 1]}, "inbound_nodes": [[["hg1_l8_residual", 0, 0, {}]]]}, {"class_name": "BatchNormalization", "name": "batch_normalization_75", "config": {"moving_variance_initializer": {"class_name": "Ones", "config": {}}, "gamma_regularizer": null, "moving_mean_initializer": {"class_name": "Zeros", "config": {}}, "axis": -1, "gamma_initializer": {"class_name": "Ones", "config": {}}, "trainable": true, "beta_regularizer": null, "momentum": 0.99, "center": true, "scale": true, "beta_initializer": {"class_name": "Zeros", "config": {}}, "gamma_constraint": null, "dtype": "float32", "name": "batch_normalization_75", "beta_constraint": null, "epsilon": 0.001}, "inbound_nodes": [[["1_lf8_x3_conv_1x1_x1", 0, 0, {}]]]}, {"class_name": "BatchNormalization", "name": "batch_normalization_66", "config": {"moving_variance_initializer": {"class_name": "Ones", "config": {}}, "gamma_regularizer": null, "moving_mean_initializer": {"class_name": "Zeros", "config": {}}, "axis": -1, "gamma_initializer": {"class_name": "Ones", "config": {}}, "trainable": true, "beta_regularizer": null, "momentum": 0.99, "center": true, "scale": true, "beta_initializer": {"class_name": "Zeros", "config": {}}, "gamma_constraint": null, "dtype": "float32", "name": "batch_normalization_66", "beta_constraint": null, "epsilon": 0.001}, "inbound_nodes": [[["1_lf8_conv_1x1_x1", 0, 0, {}]]]}, {"class_name": "Conv2D", "name": "hg1_rf4_connect_conv_1x1_x1", "config": {"use_bias": true, "kernel_constraint": null, "activation": "relu", "bias_constraint": null, "activity_regularizer": null, "bias_initializer": {"class_name": "Zeros", "config": {}}, "bias_regularizer": null, "filters": 64, "strides": [1, 1], "kernel_regularizer": null, "trainable": true, "kernel_initializer": {"class_name": "VarianceScaling", "config": {"distribution": "uniform", "seed": null, "scale": 1.0, "mode": "fan_avg"}}, "padding": "same", "kernel_size": [1, 1], "dtype": "float32", "name": "hg1_rf4_connect_conv_1x1_x1", "data_format": "channels_last", "dilation_rate": [1, 1]}, "inbound_nodes": [[["hg1_l4_residual", 0, 0, {}]]]}, {"class_name": "Conv2D", "name": "1_lf8_x3_conv_3x3_x2", "config": {"use_bias": true, "kernel_constraint": null, "activation": "relu", "bias_constraint": null, "activity_regularizer": null, "bias_initializer": {"class_name": "Zeros", "config": {}}, "bias_regularizer": null, "filters": 64, "strides": [1, 1], "kernel_regularizer": null, "trainable": true, "kernel_initializer": {"class_name": "VarianceScaling", "config": {"distribution": "uniform", "seed": null, "scale": 1.0, "mode": "fan_avg"}}, "padding": "same", "kernel_size": [3, 3], "dtype": "float32", "name": "1_lf8_x3_conv_3x3_x2", "data_format": "channels_last", "dilation_rate": [1, 1]}, "inbound_nodes": [[["batch_normalization_75", 0, 0, {}]]]}, {"class_name": "Conv2D", "name": "1_lf8_conv_3x3_x2", "config": {"use_bias": true, "kernel_constraint": null, "activation": "relu", "bias_constraint": null, "activity_regularizer": null, "bias_initializer": {"class_name": "Zeros", "config": {}}, "bias_regularizer": null, "filters": 64, "strides": [1, 1], "kernel_regularizer": null, "trainable": true, "kernel_initializer": {"class_name": "VarianceScaling", "config": {"distribution": "uniform", "seed": null, "scale": 1.0, "mode": "fan_avg"}}, "padding": "same", "kernel_size": [3, 3], "dtype": "float32", "name": "1_lf8_conv_3x3_x2", "data_format": "channels_last", "dilation_rate": [1, 1]}, "inbound_nodes": [[["batch_normalization_66", 0, 0, {}]]]}, {"class_name": "BatchNormalization", "name": "batch_normalization_78", "config": {"moving_variance_initializer": {"class_name": "Ones", "config": {}}, "gamma_regularizer": null, "moving_mean_initializer": {"class_name": "Zeros", "config": {}}, "axis": -1, "gamma_initializer": {"class_name": "Ones", "config": {}}, "trainable": true, "beta_regularizer": null, "momentum": 0.99, "center": true, "scale": true, "beta_initializer": {"class_name": "Zeros", "config": {}}, "gamma_constraint": null, "dtype": "float32", "name": "batch_normalization_78", "beta_constraint": null, "epsilon": 0.001}, "inbound_nodes": [[["hg1_rf4_connect_conv_1x1_x1", 0, 0, {}]]]}, {"class_name": "BatchNormalization", "name": "batch_normalization_76", "config": {"moving_variance_initializer": {"class_name": "Ones", "config": {}}, "gamma_regularizer": null, "moving_mean_initializer": {"class_name": "Zeros", "config": {}}, "axis": -1, "gamma_initializer": {"class_name": "Ones", "config": {}}, "trainable": true, "beta_regularizer": null, "momentum": 0.99, "center": true, "scale": true, "beta_initializer": {"class_name": "Zeros", "config": {}}, "gamma_constraint": null, "dtype": "float32", "name": "batch_normalization_76", "beta_constraint": null, "epsilon": 0.001}, "inbound_nodes": [[["1_lf8_x3_conv_3x3_x2", 0, 0, {}]]]}, {"class_name": "BatchNormalization", "name": "batch_normalization_67", "config": {"moving_variance_initializer": {"class_name": "Ones", "config": {}}, "gamma_regularizer": null, "moving_mean_initializer": {"class_name": "Zeros", "config": {}}, "axis": -1, "gamma_initializer": {"class_name": "Ones", "config": {}}, "trainable": true, "beta_regularizer": null, "momentum": 0.99, "center": true, "scale": true, "beta_initializer": {"class_name": "Zeros", "config": {}}, "gamma_constraint": null, "dtype": "float32", "name": "batch_normalization_67", "beta_constraint": null, "epsilon": 0.001}, "inbound_nodes": [[["1_lf8_conv_3x3_x2", 0, 0, {}]]]}, {"class_name": "Conv2D", "name": "hg1_rf4_connect_conv_3x3_x2", "config": {"use_bias": true, "kernel_constraint": null, "activation": "relu", "bias_constraint": null, "activity_regularizer": null, "bias_initializer": {"class_name": "Zeros", "config": {}}, "bias_regularizer": null, "filters": 64, "strides": [1, 1], "kernel_regularizer": null, "trainable": true, "kernel_initializer": {"class_name": "VarianceScaling", "config": {"distribution": "uniform", "seed": null, "scale": 1.0, "mode": "fan_avg"}}, "padding": "same", "kernel_size": [3, 3], "dtype": "float32", "name": "hg1_rf4_connect_conv_3x3_x2", "data_format": "channels_last", "dilation_rate": [1, 1]}, "inbound_nodes": [[["batch_normalization_78", 0, 0, {}]]]}, {"class_name": "Conv2D", "name": "1_lf8_x3_conv_1x1_x3", "config": {"use_bias": true, "kernel_constraint": null, "activation": "relu", "bias_constraint": null, "activity_regularizer": null, "bias_initializer": {"class_name": "Zeros", "config": {}}, "bias_regularizer": null, "filters": 128, "strides": [1, 1], "kernel_regularizer": null, "trainable": true, "kernel_initializer": {"class_name": "VarianceScaling", "config": {"distribution": "uniform", "seed": null, "scale": 1.0, "mode": "fan_avg"}}, "padding": "same", "kernel_size": [1, 1], "dtype": "float32", "name": "1_lf8_x3_conv_1x1_x3", "data_format": "channels_last", "dilation_rate": [1, 1]}, "inbound_nodes": [[["batch_normalization_76", 0, 0, {}]]]}, {"class_name": "Conv2D", "name": "1_lf8_conv_1x1_x3", "config": {"use_bias": true, "kernel_constraint": null, "activation": "relu", "bias_constraint": null, "activity_regularizer": null, "bias_initializer": {"class_name": "Zeros", "config": {}}, "bias_regularizer": null, "filters": 128, "strides": [1, 1], "kernel_regularizer": null, "trainable": true, "kernel_initializer": {"class_name": "VarianceScaling", "config": {"distribution": "uniform", "seed": null, "scale": 1.0, "mode": "fan_avg"}}, "padding": "same", "kernel_size": [1, 1], "dtype": "float32", "name": "1_lf8_conv_1x1_x3", "data_format": "channels_last", "dilation_rate": [1, 1]}, "inbound_nodes": [[["batch_normalization_67", 0, 0, {}]]]}, {"class_name": "BatchNormalization", "name": "batch_normalization_79", "config": {"moving_variance_initializer": {"class_name": "Ones", "config": {}}, "gamma_regularizer": null, "moving_mean_initializer": {"class_name": "Zeros", "config": {}}, "axis": -1, "gamma_initializer": {"class_name": "Ones", "config": {}}, "trainable": true, "beta_regularizer": null, "momentum": 0.99, "center": true, "scale": true, "beta_initializer": {"class_name": "Zeros", "config": {}}, "gamma_constraint": null, "dtype": "float32", "name": "batch_normalization_79", "beta_constraint": null, "epsilon": 0.001}, "inbound_nodes": [[["hg1_rf4_connect_conv_3x3_x2", 0, 0, {}]]]}, {"class_name": "BatchNormalization", "name": "batch_normalization_77", "config": {"moving_variance_initializer": {"class_name": "Ones", "config": {}}, "gamma_regularizer": null, "moving_mean_initializer": {"class_name": "Zeros", "config": {}}, "axis": -1, "gamma_initializer": {"class_name": "Ones", "config": {}}, "trainable": true, "beta_regularizer": null, "momentum": 0.99, "center": true, "scale": true, "beta_initializer": {"class_name": "Zeros", "config": {}}, "gamma_constraint": null, "dtype": "float32", "name": "batch_normalization_77", "beta_constraint": null, "epsilon": 0.001}, "inbound_nodes": [[["1_lf8_x3_conv_1x1_x3", 0, 0, {}]]]}, {"class_name": "BatchNormalization", "name": "batch_normalization_68", "config": {"moving_variance_initializer": {"class_name": "Ones", "config": {}}, "gamma_regularizer": null, "moving_mean_initializer": {"class_name": "Zeros", "config": {}}, "axis": -1, "gamma_initializer": {"class_name": "Ones", "config": {}}, "trainable": true, "beta_regularizer": null, "momentum": 0.99, "center": true, "scale": true, "beta_initializer": {"class_name": "Zeros", "config": {}}, "gamma_constraint": null, "dtype": "float32", "name": "batch_normalization_68", "beta_constraint": null, "epsilon": 0.001}, "inbound_nodes": [[["1_lf8_conv_1x1_x3", 0, 0, {}]]]}, {"class_name": "Conv2D", "name": "hg1_rf4_connect_conv_1x1_x3", "config": {"use_bias": true, "kernel_constraint": null, "activation": "relu", "bias_constraint": null, "activity_regularizer": null, "bias_initializer": {"class_name": "Zeros", "config": {}}, "bias_regularizer": null, "filters": 128, "strides": [1, 1], "kernel_regularizer": null, "trainable": true, "kernel_initializer": {"class_name": "VarianceScaling", "config": {"distribution": "uniform", "seed": null, "scale": 1.0, "mode": "fan_avg"}}, "padding": "same", "kernel_size": [1, 1], "dtype": "float32", "name": "hg1_rf4_connect_conv_1x1_x3", "data_format": "channels_last", "dilation_rate": [1, 1]}, "inbound_nodes": [[["batch_normalization_79", 0, 0, {}]]]}, {"class_name": "Add", "name": "1_lf8_x3_residual", "config": {"trainable": true, "dtype": "float32", "name": "1_lf8_x3_residual"}, "inbound_nodes": [[["1_lf8_x2_residual", 0, 0, {}], ["batch_normalization_77", 0, 0, {}]]]}, {"class_name": "Add", "name": "1_lf8_residual", "config": {"trainable": true, "dtype": "float32", "name": "1_lf8_residual"}, "inbound_nodes": [[["hg1_l8_residual", 0, 0, {}], ["batch_normalization_68", 0, 0, {}]]]}, {"class_name": "BatchNormalization", "name": "batch_normalization_80", "config": {"moving_variance_initializer": {"class_name": "Ones", "config": {}}, "gamma_regularizer": null, "moving_mean_initializer": {"class_name": "Zeros", "config": {}}, "axis": -1, "gamma_initializer": {"class_name": "Ones", "config": {}}, "trainable": true, "beta_regularizer": null, "momentum": 0.99, "center": true, "scale": true, "beta_initializer": {"class_name": "Zeros", "config": {}}, "gamma_constraint": null, "dtype": "float32", "name": "batch_normalization_80", "beta_constraint": null, "epsilon": 0.001}, "inbound_nodes": [[["hg1_rf4_connect_conv_1x1_x3", 0, 0, {}]]]}, {"class_name": "Add", "name": "add_6", "config": {"trainable": true, "dtype": "float32", "name": "add_6"}, "inbound_nodes": [[["1_lf8_x3_residual", 0, 0, {}], ["1_lf8_residual", 0, 0, {}]]]}, {"class_name": "Add", "name": "hg1_rf4_connect_residual", "config": {"trainable": true, "dtype": "float32", "name": "hg1_rf4_connect_residual"}, "inbound_nodes": [[["hg1_l4_residual", 0, 0, {}], ["batch_normalization_80", 0, 0, {}]]]}, {"class_name": "UpSampling2D", "name": "up_sampling2d_4", "config": {"trainable": true, "name": "up_sampling2d_4", "interpolation": "nearest", "dtype": "float32", "size": [2, 2], "data_format": "channels_last"}, "inbound_nodes": [[["add_6", 0, 0, {}]]]}, {"class_name": "Add", "name": "add_7", "config": {"trainable": true, "dtype": "float32", "name": "add_7"}, "inbound_nodes": [[["hg1_rf4_connect_residual", 0, 0, {}], ["up_sampling2d_4", 0, 0, {}]]]}, {"class_name": "Conv2D", "name": "hg1_rf4_connect_conv_conv_1x1_x1", "config": {"use_bias": true, "kernel_constraint": null, "activation": "relu", "bias_constraint": null, "activity_regularizer": null, "bias_initializer": {"class_name": "Zeros", "config": {}}, "bias_regularizer": null, "filters": 64, "strides": [1, 1], "kernel_regularizer": null, "trainable": true, "kernel_initializer": {"class_name": "VarianceScaling", "config": {"distribution": "uniform", "seed": null, "scale": 1.0, "mode": "fan_avg"}}, "padding": "same", "kernel_size": [1, 1], "dtype": "float32", "name": "hg1_rf4_connect_conv_conv_1x1_x1", "data_format": "channels_last", "dilation_rate": [1, 1]}, "inbound_nodes": [[["add_7", 0, 0, {}]]]}, {"class_name": "Conv2D", "name": "hg1_rf2_connect_conv_1x1_x1", "config": {"use_bias": true, "kernel_constraint": null, "activation": "relu", "bias_constraint": null, "activity_regularizer": null, "bias_initializer": {"class_name": "Zeros", "config": {}}, "bias_regularizer": null, "filters": 64, "strides": [1, 1], "kernel_regularizer": null, "trainable": true, "kernel_initializer": {"class_name": "VarianceScaling", "config": {"distribution": "uniform", "seed": null, "scale": 1.0, "mode": "fan_avg"}}, "padding": "same", "kernel_size": [1, 1], "dtype": "float32", "name": "hg1_rf2_connect_conv_1x1_x1", "data_format": "channels_last", "dilation_rate": [1, 1]}, "inbound_nodes": [[["hg1_l2_residual", 0, 0, {}]]]}, {"class_name": "BatchNormalization", "name": "batch_normalization_81", "config": {"moving_variance_initializer": {"class_name": "Ones", "config": {}}, "gamma_regularizer": null, "moving_mean_initializer": {"class_name": "Zeros", "config": {}}, "axis": -1, "gamma_initializer": {"class_name": "Ones", "config": {}}, "trainable": true, "beta_regularizer": null, "momentum": 0.99, "center": true, "scale": true, "beta_initializer": {"class_name": "Zeros", "config": {}}, "gamma_constraint": null, "dtype": "float32", "name": "batch_normalization_81", "beta_constraint": null, "epsilon": 0.001}, "inbound_nodes": [[["hg1_rf4_connect_conv_conv_1x1_x1", 0, 0, {}]]]}, {"class_name": "BatchNormalization", "name": "batch_normalization_84", "config": {"moving_variance_initializer": {"class_name": "Ones", "config": {}}, "gamma_regularizer": null, "moving_mean_initializer": {"class_name": "Zeros", "config": {}}, "axis": -1, "gamma_initializer": {"class_name": "Ones", "config": {}}, "trainable": true, "beta_regularizer": null, "momentum": 0.99, "center": true, "scale": true, "beta_initializer": {"class_name": "Zeros", "config": {}}, "gamma_constraint": null, "dtype": "float32", "name": "batch_normalization_84", "beta_constraint": null, "epsilon": 0.001}, "inbound_nodes": [[["hg1_rf2_connect_conv_1x1_x1", 0, 0, {}]]]}, {"class_name": "Conv2D", "name": "hg1_rf4_connect_conv_conv_3x3_x2", "config": {"use_bias": true, "kernel_constraint": null, "activation": "relu", "bias_constraint": null, "activity_regularizer": null, "bias_initializer": {"class_name": "Zeros", "config": {}}, "bias_regularizer": null, "filters": 64, "strides": [1, 1], "kernel_regularizer": null, "trainable": true, "kernel_initializer": {"class_name": "VarianceScaling", "config": {"distribution": "uniform", "seed": null, "scale": 1.0, "mode": "fan_avg"}}, "padding": "same", "kernel_size": [3, 3], "dtype": "float32", "name": "hg1_rf4_connect_conv_conv_3x3_x2", "data_format": "channels_last", "dilation_rate": [1, 1]}, "inbound_nodes": [[["batch_normalization_81", 0, 0, {}]]]}, {"class_name": "Conv2D", "name": "hg1_rf2_connect_conv_3x3_x2", "config": {"use_bias": true, "kernel_constraint": null, "activation": "relu", "bias_constraint": null, "activity_regularizer": null, "bias_initializer": {"class_name": "Zeros", "config": {}}, "bias_regularizer": null, "filters": 64, "strides": [1, 1], "kernel_regularizer": null, "trainable": true, "kernel_initializer": {"class_name": "VarianceScaling", "config": {"distribution": "uniform", "seed": null, "scale": 1.0, "mode": "fan_avg"}}, "padding": "same", "kernel_size": [3, 3], "dtype": "float32", "name": "hg1_rf2_connect_conv_3x3_x2", "data_format": "channels_last", "dilation_rate": [1, 1]}, "inbound_nodes": [[["batch_normalization_84", 0, 0, {}]]]}, {"class_name": "BatchNormalization", "name": "batch_normalization_82", "config": {"moving_variance_initializer": {"class_name": "Ones", "config": {}}, "gamma_regularizer": null, "moving_mean_initializer": {"class_name": "Zeros", "config": {}}, "axis": -1, "gamma_initializer": {"class_name": "Ones", "config": {}}, "trainable": true, "beta_regularizer": null, "momentum": 0.99, "center": true, "scale": true, "beta_initializer": {"class_name": "Zeros", "config": {}}, "gamma_constraint": null, "dtype": "float32", "name": "batch_normalization_82", "beta_constraint": null, "epsilon": 0.001}, "inbound_nodes": [[["hg1_rf4_connect_conv_conv_3x3_x2", 0, 0, {}]]]}, {"class_name": "BatchNormalization", "name": "batch_normalization_85", "config": {"moving_variance_initializer": {"class_name": "Ones", "config": {}}, "gamma_regularizer": null, "moving_mean_initializer": {"class_name": "Zeros", "config": {}}, "axis": -1, "gamma_initializer": {"class_name": "Ones", "config": {}}, "trainable": true, "beta_regularizer": null, "momentum": 0.99, "center": true, "scale": true, "beta_initializer": {"class_name": "Zeros", "config": {}}, "gamma_constraint": null, "dtype": "float32", "name": "batch_normalization_85", "beta_constraint": null, "epsilon": 0.001}, "inbound_nodes": [[["hg1_rf2_connect_conv_3x3_x2", 0, 0, {}]]]}, {"class_name": "Conv2D", "name": "hg1_rf4_connect_conv_conv_1x1_x3", "config": {"use_bias": true, "kernel_constraint": null, "activation": "relu", "bias_constraint": null, "activity_regularizer": null, "bias_initializer": {"class_name": "Zeros", "config": {}}, "bias_regularizer": null, "filters": 128, "strides": [1, 1], "kernel_regularizer": null, "trainable": true, "kernel_initializer": {"class_name": "VarianceScaling", "config": {"distribution": "uniform", "seed": null, "scale": 1.0, "mode": "fan_avg"}}, "padding": "same", "kernel_size": [1, 1], "dtype": "float32", "name": "hg1_rf4_connect_conv_conv_1x1_x3", "data_format": "channels_last", "dilation_rate": [1, 1]}, "inbound_nodes": [[["batch_normalization_82", 0, 0, {}]]]}, {"class_name": "Conv2D", "name": "hg1_rf2_connect_conv_1x1_x3", "config": {"use_bias": true, "kernel_constraint": null, "activation": "relu", "bias_constraint": null, "activity_regularizer": null, "bias_initializer": {"class_name": "Zeros", "config": {}}, "bias_regularizer": null, "filters": 128, "strides": [1, 1], "kernel_regularizer": null, "trainable": true, "kernel_initializer": {"class_name": "VarianceScaling", "config": {"distribution": "uniform", "seed": null, "scale": 1.0, "mode": "fan_avg"}}, "padding": "same", "kernel_size": [1, 1], "dtype": "float32", "name": "hg1_rf2_connect_conv_1x1_x3", "data_format": "channels_last", "dilation_rate": [1, 1]}, "inbound_nodes": [[["batch_normalization_85", 0, 0, {}]]]}, {"class_name": "BatchNormalization", "name": "batch_normalization_83", "config": {"moving_variance_initializer": {"class_name": "Ones", "config": {}}, "gamma_regularizer": null, "moving_mean_initializer": {"class_name": "Zeros", "config": {}}, "axis": -1, "gamma_initializer": {"class_name": "Ones", "config": {}}, "trainable": true, "beta_regularizer": null, "momentum": 0.99, "center": true, "scale": true, "beta_initializer": {"class_name": "Zeros", "config": {}}, "gamma_constraint": null, "dtype": "float32", "name": "batch_normalization_83", "beta_constraint": null, "epsilon": 0.001}, "inbound_nodes": [[["hg1_rf4_connect_conv_conv_1x1_x3", 0, 0, {}]]]}, {"class_name": "BatchNormalization", "name": "batch_normalization_86", "config": {"moving_variance_initializer": {"class_name": "Ones", "config": {}}, "gamma_regularizer": null, "moving_mean_initializer": {"class_name": "Zeros", "config": {}}, "axis": -1, "gamma_initializer": {"class_name": "Ones", "config": {}}, "trainable": true, "beta_regularizer": null, "momentum": 0.99, "center": true, "scale": true, "beta_initializer": {"class_name": "Zeros", "config": {}}, "gamma_constraint": null, "dtype": "float32", "name": "batch_normalization_86", "beta_constraint": null, "epsilon": 0.001}, "inbound_nodes": [[["hg1_rf2_connect_conv_1x1_x3", 0, 0, {}]]]}, {"class_name": "Add", "name": "hg1_rf4_connect_conv_residual", "config": {"trainable": true, "dtype": "float32", "name": "hg1_rf4_connect_conv_residual"}, "inbound_nodes": [[["add_7", 0, 0, {}], ["batch_normalization_83", 0, 0, {}]]]}, {"class_name": "Add", "name": "hg1_rf2_connect_residual", "config": {"trainable": true, "dtype": "float32", "name": "hg1_rf2_connect_residual"}, "inbound_nodes": [[["hg1_l2_residual", 0, 0, {}], ["batch_normalization_86", 0, 0, {}]]]}, {"class_name": "UpSampling2D", "name": "up_sampling2d_5", "config": {"trainable": true, "name": "up_sampling2d_5", "interpolation": "nearest", "dtype": "float32", "size": [2, 2], "data_format": "channels_last"}, "inbound_nodes": [[["hg1_rf4_connect_conv_residual", 0, 0, {}]]]}, {"class_name": "Add", "name": "add_8", "config": {"trainable": true, "dtype": "float32", "name": "add_8"}, "inbound_nodes": [[["hg1_rf2_connect_residual", 0, 0, {}], ["up_sampling2d_5", 0, 0, {}]]]}, {"class_name": "Conv2D", "name": "hg1_rf2_connect_conv_conv_1x1_x1", "config": {"use_bias": true, "kernel_constraint": null, "activation": "relu", "bias_constraint": null, "activity_regularizer": null, "bias_initializer": {"class_name": "Zeros", "config": {}}, "bias_regularizer": null, "filters": 64, "strides": [1, 1], "kernel_regularizer": null, "trainable": true, "kernel_initializer": {"class_name": "VarianceScaling", "config": {"distribution": "uniform", "seed": null, "scale": 1.0, "mode": "fan_avg"}}, "padding": "same", "kernel_size": [1, 1], "dtype": "float32", "name": "hg1_rf2_connect_conv_conv_1x1_x1", "data_format": "channels_last", "dilation_rate": [1, 1]}, "inbound_nodes": [[["add_8", 0, 0, {}]]]}, {"class_name": "Conv2D", "name": "hg1_rf1_connect_conv_1x1_x1", "config": {"use_bias": true, "kernel_constraint": null, "activation": "relu", "bias_constraint": null, "activity_regularizer": null, "bias_initializer": {"class_name": "Zeros", "config": {}}, "bias_regularizer": null, "filters": 64, "strides": [1, 1], "kernel_regularizer": null, "trainable": true, "kernel_initializer": {"class_name": "VarianceScaling", "config": {"distribution": "uniform", "seed": null, "scale": 1.0, "mode": "fan_avg"}}, "padding": "same", "kernel_size": [1, 1], "dtype": "float32", "name": "hg1_rf1_connect_conv_1x1_x1", "data_format": "channels_last", "dilation_rate": [1, 1]}, "inbound_nodes": [[["hg1_l1_residual", 0, 0, {}]]]}, {"class_name": "BatchNormalization", "name": "batch_normalization_87", "config": {"moving_variance_initializer": {"class_name": "Ones", "config": {}}, "gamma_regularizer": null, "moving_mean_initializer": {"class_name": "Zeros", "config": {}}, "axis": -1, "gamma_initializer": {"class_name": "Ones", "config": {}}, "trainable": true, "beta_regularizer": null, "momentum": 0.99, "center": true, "scale": true, "beta_initializer": {"class_name": "Zeros", "config": {}}, "gamma_constraint": null, "dtype": "float32", "name": "batch_normalization_87", "beta_constraint": null, "epsilon": 0.001}, "inbound_nodes": [[["hg1_rf2_connect_conv_conv_1x1_x1", 0, 0, {}]]]}, {"class_name": "BatchNormalization", "name": "batch_normalization_90", "config": {"moving_variance_initializer": {"class_name": "Ones", "config": {}}, "gamma_regularizer": null, "moving_mean_initializer": {"class_name": "Zeros", "config": {}}, "axis": -1, "gamma_initializer": {"class_name": "Ones", "config": {}}, "trainable": true, "beta_regularizer": null, "momentum": 0.99, "center": true, "scale": true, "beta_initializer": {"class_name": "Zeros", "config": {}}, "gamma_constraint": null, "dtype": "float32", "name": "batch_normalization_90", "beta_constraint": null, "epsilon": 0.001}, "inbound_nodes": [[["hg1_rf1_connect_conv_1x1_x1", 0, 0, {}]]]}, {"class_name": "Conv2D", "name": "hg1_rf2_connect_conv_conv_3x3_x2", "config": {"use_bias": true, "kernel_constraint": null, "activation": "relu", "bias_constraint": null, "activity_regularizer": null, "bias_initializer": {"class_name": "Zeros", "config": {}}, "bias_regularizer": null, "filters": 64, "strides": [1, 1], "kernel_regularizer": null, "trainable": true, "kernel_initializer": {"class_name": "VarianceScaling", "config": {"distribution": "uniform", "seed": null, "scale": 1.0, "mode": "fan_avg"}}, "padding": "same", "kernel_size": [3, 3], "dtype": "float32", "name": "hg1_rf2_connect_conv_conv_3x3_x2", "data_format": "channels_last", "dilation_rate": [1, 1]}, "inbound_nodes": [[["batch_normalization_87", 0, 0, {}]]]}, {"class_name": "Conv2D", "name": "hg1_rf1_connect_conv_3x3_x2", "config": {"use_bias": true, "kernel_constraint": null, "activation": "relu", "bias_constraint": null, "activity_regularizer": null, "bias_initializer": {"class_name": "Zeros", "config": {}}, "bias_regularizer": null, "filters": 64, "strides": [1, 1], "kernel_regularizer": null, "trainable": true, "kernel_initializer": {"class_name": "VarianceScaling", "config": {"distribution": "uniform", "seed": null, "scale": 1.0, "mode": "fan_avg"}}, "padding": "same", "kernel_size": [3, 3], "dtype": "float32", "name": "hg1_rf1_connect_conv_3x3_x2", "data_format": "channels_last", "dilation_rate": [1, 1]}, "inbound_nodes": [[["batch_normalization_90", 0, 0, {}]]]}, {"class_name": "BatchNormalization", "name": "batch_normalization_88", "config": {"moving_variance_initializer": {"class_name": "Ones", "config": {}}, "gamma_regularizer": null, "moving_mean_initializer": {"class_name": "Zeros", "config": {}}, "axis": -1, "gamma_initializer": {"class_name": "Ones", "config": {}}, "trainable": true, "beta_regularizer": null, "momentum": 0.99, "center": true, "scale": true, "beta_initializer": {"class_name": "Zeros", "config": {}}, "gamma_constraint": null, "dtype": "float32", "name": "batch_normalization_88", "beta_constraint": null, "epsilon": 0.001}, "inbound_nodes": [[["hg1_rf2_connect_conv_conv_3x3_x2", 0, 0, {}]]]}, {"class_name": "BatchNormalization", "name": "batch_normalization_91", "config": {"moving_variance_initializer": {"class_name": "Ones", "config": {}}, "gamma_regularizer": null, "moving_mean_initializer": {"class_name": "Zeros", "config": {}}, "axis": -1, "gamma_initializer": {"class_name": "Ones", "config": {}}, "trainable": true, "beta_regularizer": null, "momentum": 0.99, "center": true, "scale": true, "beta_initializer": {"class_name": "Zeros", "config": {}}, "gamma_constraint": null, "dtype": "float32", "name": "batch_normalization_91", "beta_constraint": null, "epsilon": 0.001}, "inbound_nodes": [[["hg1_rf1_connect_conv_3x3_x2", 0, 0, {}]]]}, {"class_name": "Conv2D", "name": "hg1_rf2_connect_conv_conv_1x1_x3", "config": {"use_bias": true, "kernel_constraint": null, "activation": "relu", "bias_constraint": null, "activity_regularizer": null, "bias_initializer": {"class_name": "Zeros", "config": {}}, "bias_regularizer": null, "filters": 128, "strides": [1, 1], "kernel_regularizer": null, "trainable": true, "kernel_initializer": {"class_name": "VarianceScaling", "config": {"distribution": "uniform", "seed": null, "scale": 1.0, "mode": "fan_avg"}}, "padding": "same", "kernel_size": [1, 1], "dtype": "float32", "name": "hg1_rf2_connect_conv_conv_1x1_x3", "data_format": "channels_last", "dilation_rate": [1, 1]}, "inbound_nodes": [[["batch_normalization_88", 0, 0, {}]]]}, {"class_name": "Conv2D", "name": "hg1_rf1_connect_conv_1x1_x3", "config": {"use_bias": true, "kernel_constraint": null, "activation": "relu", "bias_constraint": null, "activity_regularizer": null, "bias_initializer": {"class_name": "Zeros", "config": {}}, "bias_regularizer": null, "filters": 128, "strides": [1, 1], "kernel_regularizer": null, "trainable": true, "kernel_initializer": {"class_name": "VarianceScaling", "config": {"distribution": "uniform", "seed": null, "scale": 1.0, "mode": "fan_avg"}}, "padding": "same", "kernel_size": [1, 1], "dtype": "float32", "name": "hg1_rf1_connect_conv_1x1_x3", "data_format": "channels_last", "dilation_rate": [1, 1]}, "inbound_nodes": [[["batch_normalization_91", 0, 0, {}]]]}, {"class_name": "BatchNormalization", "name": "batch_normalization_89", "config": {"moving_variance_initializer": {"class_name": "Ones", "config": {}}, "gamma_regularizer": null, "moving_mean_initializer": {"class_name": "Zeros", "config": {}}, "axis": -1, "gamma_initializer": {"class_name": "Ones", "config": {}}, "trainable": true, "beta_regularizer": null, "momentum": 0.99, "center": true, "scale": true, "beta_initializer": {"class_name": "Zeros", "config": {}}, "gamma_constraint": null, "dtype": "float32", "name": "batch_normalization_89", "beta_constraint": null, "epsilon": 0.001}, "inbound_nodes": [[["hg1_rf2_connect_conv_conv_1x1_x3", 0, 0, {}]]]}, {"class_name": "BatchNormalization", "name": "batch_normalization_92", "config": {"moving_variance_initializer": {"class_name": "Ones", "config": {}}, "gamma_regularizer": null, "moving_mean_initializer": {"class_name": "Zeros", "config": {}}, "axis": -1, "gamma_initializer": {"class_name": "Ones", "config": {}}, "trainable": true, "beta_regularizer": null, "momentum": 0.99, "center": true, "scale": true, "beta_initializer": {"class_name": "Zeros", "config": {}}, "gamma_constraint": null, "dtype": "float32", "name": "batch_normalization_92", "beta_constraint": null, "epsilon": 0.001}, "inbound_nodes": [[["hg1_rf1_connect_conv_1x1_x3", 0, 0, {}]]]}, {"class_name": "Add", "name": "hg1_rf2_connect_conv_residual", "config": {"trainable": true, "dtype": "float32", "name": "hg1_rf2_connect_conv_residual"}, "inbound_nodes": [[["add_8", 0, 0, {}], ["batch_normalization_89", 0, 0, {}]]]}, {"class_name": "Add", "name": "hg1_rf1_connect_residual", "config": {"trainable": true, "dtype": "float32", "name": "hg1_rf1_connect_residual"}, "inbound_nodes": [[["hg1_l1_residual", 0, 0, {}], ["batch_normalization_92", 0, 0, {}]]]}, {"class_name": "UpSampling2D", "name": "up_sampling2d_6", "config": {"trainable": true, "name": "up_sampling2d_6", "interpolation": "nearest", "dtype": "float32", "size": [2, 2], "data_format": "channels_last"}, "inbound_nodes": [[["hg1_rf2_connect_conv_residual", 0, 0, {}]]]}, {"class_name": "Add", "name": "add_9", "config": {"trainable": true, "dtype": "float32", "name": "add_9"}, "inbound_nodes": [[["hg1_rf1_connect_residual", 0, 0, {}], ["up_sampling2d_6", 0, 0, {}]]]}, {"class_name": "Conv2D", "name": "hg1_rf1_connect_conv_conv_1x1_x1", "config": {"use_bias": true, "kernel_constraint": null, "activation": "relu", "bias_constraint": null, "activity_regularizer": null, "bias_initializer": {"class_name": "Zeros", "config": {}}, "bias_regularizer": null, "filters": 64, "strides": [1, 1], "kernel_regularizer": null, "trainable": true, "kernel_initializer": {"class_name": "VarianceScaling", "config": {"distribution": "uniform", "seed": null, "scale": 1.0, "mode": "fan_avg"}}, "padding": "same", "kernel_size": [1, 1], "dtype": "float32", "name": "hg1_rf1_connect_conv_conv_1x1_x1", "data_format": "channels_last", "dilation_rate": [1, 1]}, "inbound_nodes": [[["add_9", 0, 0, {}]]]}, {"class_name": "BatchNormalization", "name": "batch_normalization_93", "config": {"moving_variance_initializer": {"class_name": "Ones", "config": {}}, "gamma_regularizer": null, "moving_mean_initializer": {"class_name": "Zeros", "config": {}}, "axis": -1, "gamma_initializer": {"class_name": "Ones", "config": {}}, "trainable": true, "beta_regularizer": null, "momentum": 0.99, "center": true, "scale": true, "beta_initializer": {"class_name": "Zeros", "config": {}}, "gamma_constraint": null, "dtype": "float32", "name": "batch_normalization_93", "beta_constraint": null, "epsilon": 0.001}, "inbound_nodes": [[["hg1_rf1_connect_conv_conv_1x1_x1", 0, 0, {}]]]}, {"class_name": "Conv2D", "name": "hg1_rf1_connect_conv_conv_3x3_x2", "config": {"use_bias": true, "kernel_constraint": null, "activation": "relu", "bias_constraint": null, "activity_regularizer": null, "bias_initializer": {"class_name": "Zeros", "config": {}}, "bias_regularizer": null, "filters": 64, "strides": [1, 1], "kernel_regularizer": null, "trainable": true, "kernel_initializer": {"class_name": "VarianceScaling", "config": {"distribution": "uniform", "seed": null, "scale": 1.0, "mode": "fan_avg"}}, "padding": "same", "kernel_size": [3, 3], "dtype": "float32", "name": "hg1_rf1_connect_conv_conv_3x3_x2", "data_format": "channels_last", "dilation_rate": [1, 1]}, "inbound_nodes": [[["batch_normalization_93", 0, 0, {}]]]}, {"class_name": "BatchNormalization", "name": "batch_normalization_94", "config": {"moving_variance_initializer": {"class_name": "Ones", "config": {}}, "gamma_regularizer": null, "moving_mean_initializer": {"class_name": "Zeros", "config": {}}, "axis": -1, "gamma_initializer": {"class_name": "Ones", "config": {}}, "trainable": true, "beta_regularizer": null, "momentum": 0.99, "center": true, "scale": true, "beta_initializer": {"class_name": "Zeros", "config": {}}, "gamma_constraint": null, "dtype": "float32", "name": "batch_normalization_94", "beta_constraint": null, "epsilon": 0.001}, "inbound_nodes": [[["hg1_rf1_connect_conv_conv_3x3_x2", 0, 0, {}]]]}, {"class_name": "Conv2D", "name": "hg1_rf1_connect_conv_conv_1x1_x3", "config": {"use_bias": true, "kernel_constraint": null, "activation": "relu", "bias_constraint": null, "activity_regularizer": null, "bias_initializer": {"class_name": "Zeros", "config": {}}, "bias_regularizer": null, "filters": 128, "strides": [1, 1], "kernel_regularizer": null, "trainable": true, "kernel_initializer": {"class_name": "VarianceScaling", "config": {"distribution": "uniform", "seed": null, "scale": 1.0, "mode": "fan_avg"}}, "padding": "same", "kernel_size": [1, 1], "dtype": "float32", "name": "hg1_rf1_connect_conv_conv_1x1_x3", "data_format": "channels_last", "dilation_rate": [1, 1]}, "inbound_nodes": [[["batch_normalization_94", 0, 0, {}]]]}, {"class_name": "BatchNormalization", "name": "batch_normalization_95", "config": {"moving_variance_initializer": {"class_name": "Ones", "config": {}}, "gamma_regularizer": null, "moving_mean_initializer": {"class_name": "Zeros", "config": {}}, "axis": -1, "gamma_initializer": {"class_name": "Ones", "config": {}}, "trainable": true, "beta_regularizer": null, "momentum": 0.99, "center": true, "scale": true, "beta_initializer": {"class_name": "Zeros", "config": {}}, "gamma_constraint": null, "dtype": "float32", "name": "batch_normalization_95", "beta_constraint": null, "epsilon": 0.001}, "inbound_nodes": [[["hg1_rf1_connect_conv_conv_1x1_x3", 0, 0, {}]]]}, {"class_name": "Add", "name": "hg1_rf1_connect_conv_residual", "config": {"trainable": true, "dtype": "float32", "name": "hg1_rf1_connect_conv_residual"}, "inbound_nodes": [[["add_9", 0, 0, {}], ["batch_normalization_95", 0, 0, {}]]]}, {"class_name": "Conv2D", "name": "1_conv_1x1_x1", "config": {"use_bias": true, "kernel_constraint": null, "activation": "relu", "bias_constraint": null, "activity_regularizer": null, "bias_initializer": {"class_name": "Zeros", "config": {}}, "bias_regularizer": null, "filters": 128, "strides": [1, 1], "kernel_regularizer": null, "trainable": true, "kernel_initializer": {"class_name": "VarianceScaling", "config": {"distribution": "uniform", "seed": null, "scale": 1.0, "mode": "fan_avg"}}, "padding": "same", "kernel_size": [1, 1], "dtype": "float32", "name": "1_conv_1x1_x1", "data_format": "channels_last", "dilation_rate": [1, 1]}, "inbound_nodes": [[["hg1_rf1_connect_conv_residual", 0, 0, {}]]]}, {"class_name": "BatchNormalization", "name": "batch_normalization_96", "config": {"moving_variance_initializer": {"class_name": "Ones", "config": {}}, "gamma_regularizer": null, "moving_mean_initializer": {"class_name": "Zeros", "config": {}}, "axis": -1, "gamma_initializer": {"class_name": "Ones", "config": {}}, "trainable": true, "beta_regularizer": null, "momentum": 0.99, "center": true, "scale": true, "beta_initializer": {"class_name": "Zeros", "config": {}}, "gamma_constraint": null, "dtype": "float32", "name": "batch_normalization_96", "beta_constraint": null, "epsilon": 0.001}, "inbound_nodes": [[["1_conv_1x1_x1", 0, 0, {}]]]}, {"class_name": "Conv2D", "name": "1_conv_1x1_parts", "config": {"use_bias": true, "kernel_constraint": null, "activation": "linear", "bias_constraint": null, "activity_regularizer": null, "bias_initializer": {"class_name": "Zeros", "config": {}}, "bias_regularizer": null, "filters": 11, "strides": [1, 1], "kernel_regularizer": null, "trainable": true, "kernel_initializer": {"class_name": "VarianceScaling", "config": {"distribution": "uniform", "seed": null, "scale": 1.0, "mode": "fan_avg"}}, "padding": "same", "kernel_size": [1, 1], "dtype": "float32", "name": "1_conv_1x1_parts", "data_format": "channels_last", "dilation_rate": [1, 1]}, "inbound_nodes": [[["batch_normalization_96", 0, 0, {}]]]}], "input_layers": [["input_1", 0, 0]], "name": "model_1", "output_layers": [["0_conv_1x1_parts", 0, 0], ["1_conv_1x1_parts", 0, 0]]}}